trainings/noiseMNINST/discriminator_weights.pth (torch, 426487 bytes, 23 tensors)

conv_blocks.0.weight f4 [16, 1, 3, 3]
-0.35310107 0.43039986 0.034081563 0.45290947 -0.086718634 0.10587495 -0.26126188 0.19067481
-0.14338148 -0.16550903 -0.18017375 0.011707977 -0.35170293 0.3300571 0.08179949 -0.14338851
0.32041308 -0.38569412 0.1992202 -0.22478059 -0.14062433 -0.50681883 0.6480132 0.046909694
0.2104407 -0.2866461 -0.1366033 -0.039858732 0.09072785 0.1132072 0.19662419 0.095321834
-0.03398834 -0.023271348 0.120406054 0.029091759 -0.49387556 0.14585057 0.12182061 -0.20754205
0.31410146 0.2661459 -0.44431353 -0.052188765 0.08428189 -0.67950755 0.11784459 0.05608688
-0.12794505 -0.04795186 -0.0063815042 0.34201342 -0.18374287 0.042304263 0.010994346 0.03730944
0.018605456 0.09586541 0.17478853 -0.050110262 -0.03467224 0.13688794 0.02356967 -0.0827772
0.6702402 -0.2415813 0.020212358 0.17131107 -0.30790666 -0.10850176 -0.37745112 0.15018402
0.10185188 0.13575687 0.020536507 -0.016946973 0.35912502 -0.14011496 -0.019093048 0.07323343
-0.23422974 0.45756727 0.10095056 0.011183468 0.21207817 -0.19996981 -0.060178168 0.1765797
0.07587127 0.17532952 -0.21341802 -0.4711133 0.10180497 0.035778955 0.2701685 -0.18412623
0.07996579 0.21523611 0.19020757 0.170035 -0.31461108 0.38710874 0.23189807 -0.6623125
-0.13171232 -0.19218828 0.4177434 -0.019701682 0.085380845 -0.07578446 0.05840543 0.0015314174
0.36236262 0.17441714 0.14444724 -0.111559145 -0.20556304 -0.4835295 -0.30246273 0.11133179
0.79756546 0.094286494 -0.04363953 0.32320863 -0.18799934 -0.2235868 0.017175848 0.1751903
0.13520175 0.06951126 0.10191443 -0.0035888155 -0.036715392 0.04507974 0.00708242 0.15912245
0.1275388 -0.18084611 0.23593098 0.0084262425 0.16974403 0.027889682 0.16284513 -0.10306242
00000000: aac9 b4be 5f5d dc3e 1c99 0b3d c0e3 e73e
00000010: 8a99 b1bd f7d4 d83d 1ec4 85be 4240 433e
00000020: 98d2 12be 337b 29be 787f 38be d1d2 3f3c
00000030: 6812 b4be 3ffd a83e 7e86 a73d 70d4 12be
00000040: 2f0d a43e b379 c5be 6100 4c3e e22c 66be
00000050: d3ff 0fbe e1be 01bf 31e4 253f 6124 403d
00000060: c47d 573e 47c3 92be bce1 0bbe e942 23bd
00000070: 86cf b93d 2dd9 e73d da57 493e 1838 c33d
00000080: 5c37 0bbd 8ea3 bebc 7397 f63d d751 ee3c
00000090: 42dd fcbe da59 153e 157d f93d e785 54be
000000a0: e8d1 a03e 4744 883e 107d e3be e3c3 55bd
000000b0: fc9b ac3d 35f4 2dbf 8158 f13d 5bbb 653d
000000c0: 0704 03be 2b69 44bd f01b d1bb 621c af3e
000000d0: 1727 3cbe 3c47 2d3d a121 343c c9d1 183d
000000e0: 786a 983c 1655 c43d c4fb 323e 6b40 4dbd
000000f0: 7b04 0ebd 5a2c 0c3e 2e15 c13c 1887 a9bd
00000100: dd94 2b3f 1761 77be 6394 a53c 2b6c 2f3e
00000110: f1a5 9dbe 2c36 debd 4641 c1be d7c9 193e
00000120: b897 d03d d903 0b3e 2d3c a83c 61d4 8abc
00000130: 3cdf b73e 4c7a 0fbe 0669 9cbc 69fb 953d
00000140: ecd9 6fbe 4246 ea3e 2bbf ce3d dd3a 373c
00000150: 052b 593e e3c4 4cbe 627d 76bd 4fd1 343e
00000160: 6562 9b3d 9589 333e 418a 5abe c335 f1be
00000170: 207f d03d f48c 123d 8753 8a3e 968b 3cbe
00000180: 1bc5 a33d db66 5c3e c6c5 423e a81d 2e3e
00000190: b414 a1be 1e33 c63e b076 6d3e 508d 29bf
000001a0: 98df 06be 01cd 44be 77e2 d53e 6c65 a1bc
000001b0: 27dc ae3d e234 9bbd 883a 6f3d d7b9 c83a
000001c0: 9887 b93e 689a 323e fae9 133e 1f79 e4bd
000001d0: 1e7f 52be 2e91 f7be 65dc 9abe ec01 e43d
000001e0: 402d 4c3f 4719 c13d 5dbf 32bd 9a7b a53e
000001f0: e682 40be f0f3 64be 5db4 8c3c 1665 333e
00000200: 5472 0a3e eb5b 8e3d 83b8 d03d 5532 6bbb
00000210: e162 16bd 89a5 383d a513 e83b fff0 223e
00000220: 8899 023e b92f 39be e497 713e 390e 0a3c
00000230: 61d1 2d3e e778 e43c e0c0 263e 6412 d3bd

conv_blocks.0.bias f4 [16]
-0.2428626 -0.41132063 -0.1266483 0.5367177 -0.33084935 -0.31776357 0.39505634 -0.39234972
0.24191982 -0.22128694 0.038257457 -0.23599358 0.40480486 -0.50496125 0.48950735 0.533684
00000000: f9b0 78be 9e98 d2be 18b0 01be 5566 093f
00000010: 1665 a9be e8b1 a2be d344 ca3e 10e2 c8be
00000020: d4b9 773e 0b99 62be dab3 1c3d 4da8 71be
00000030: 9542 cf3e 2445 01bf b5a0 fa3e 849f 083f

conv_blocks.3.weight f4 [32, 16, 3, 3]
0.03959063 -0.12843229 -0.070214376 -0.16932331 -0.25318766 -0.2010822 -0.12141386 -0.20508216
-0.24692108 0.17057084 -0.31434977 -0.18553345 -0.04555866 -0.61933714 -0.24162607 0.037280217
-0.28741905 -0.14848778 0.25455546 -0.07343646 -0.10437445 -0.3587331 -1.0187775 -0.57547677
-0.29756013 -0.68356454 -0.13306011 0.03521721 0.009685699 -0.009365306 0.01857176 0.09504269
0.026006896 0.01146881 0.002365802 -0.013549068 -0.014098439 -0.038396366 -0.05067302 0.057825927
0.12711191 0.04585823 -0.029953074 0.03330114 0.010341879 0.15159711 0.15565854 0.025532207
0.09979879 -0.087639116 -0.20930131 0.08580722 -0.07895578 -0.25401446 -0.0016580333 0.01862325
-0.07350586 0.06830574 0.09183324 0.09728912 -0.024563082 0.0736985 -0.039788593 -0.06072129
-0.20092227 0.014903076 -0.2372573 -0.5004536 -0.17806499 0.06502923 -0.25554353 -0.18461178
0.021452565 -0.009320096 0.037582427 -0.020256544 0.005436422 0.003530494 0.063782625 0.060235646
-0.017848682 0.032718465 0.014683615 -0.040275015 -0.036350746 -0.030179225 -0.15027463 -0.08264793
-0.09855158 -0.08206794 0.041936252 0.03708501 0.022666879 0.028794631 -0.018997429 0.0026981684
0.034069844 0.002122707 -0.044389796 0.026125167 -0.43926138 -0.18103524 -0.5444622 -1.3781556
-0.7343446 -0.29759982 -0.7861305 -0.060589842 0.020669678 -0.006404818 -0.013291721 -0.010877367
0.02992646 -0.013715596 0.022588868 0.036798015 0.009658926 0.026416397 -0.09147887 -0.21975459
-0.06864653 -0.26457158 -0.3114437 -0.077793844 -0.14823848 -0.05960044 0.07318291 -0.026173769
-0.01072097 0.021093564 0.07993629 -0.011186435 0.0040488313 0.06297662 -0.0018719404 0.040298276
-0.03351986 -0.0017526733 0.076557815 0.005764045 0.005796284 -0.037376296 0.0418923 0.009397125
0.031155493 0.07468364 -0.02874875 -0.052722067 -0.134678 0.20150375 -0.28277773 -0.04866258
-0.05165029 -0.06828608 0.06264868 0.2704334 0.117409 -0.021312818 -0.2347414 -0.14223048
-0.1315687 -0.20381822 0.12067487 0.39003786 0.31035125 -0.0555493 0.048423313 -0.27123147
-0.16389102 -0.35556003 -0.4548513 0.06753108 -0.06820212 -0.19030634 0.06070712 -0.15303452
0.04015779 0.00091796217 0.095772155 0.0502965 0.0660833 -0.06756871 -0.23044933 -0.035106238
-0.07165101 0.09561346 0.046590425 0.09499216 -0.0007030642 0.02161418 0.16789152 0.1720844
0.05788482 0.11961465 0.09035045 -0.06483538 -0.08747844 -0.15220524 0.120782934 -0.09370864
-0.16834061 -0.029539684 -0.10838399 0.038204335 -0.0010444877 0.045407493 0.07270657 0.16637953
0.5511535 0.36707288 -0.28104305 0.14164339 -0.38805625 -0.16141248 -0.036776148 -0.097324595
0.08094496 0.092593014 0.011086802 -0.09062238 -0.24657771 -0.20190825 0.041033473 0.10649567
0.06219978 -0.0063164136 -0.13499726 -0.050219376 0.047984216 0.06769991 0.061668325 -0.13621007
-0.100106634 -0.066161916 -0.068913125 -0.021986172 -0.2551765 0.042160135 0.2483135 0.16073553
0.04339563 0.062961265 0.028756617 0.28891674 0.6191182 0.23712127 -0.59542006 -0.4942428
-1.115801 -0.18553062 -0.23529293 -0.69993645 0.099623136 0.018041335 -0.18690896 0.00035929383
00000000: c929 223d c183 03be 8ecc 8fbd 1763 2dbe
00000010: d0a1 81be 7ee8 4dbe d4a7 f8bd 0f01 52be
00000020: e1d8 7cbe 1faa 2e3e 74f2 a0be 7bfc 3dbe
00000030: b89b 3abd e18c 1ebf d36c 77be 24b3 183d
00000040: 9728 93be 2e0d 18be 1855 823e db65 96bd
00000050: 46c2 d5bd ddab b7be 4d67 82bf 7252 13bf
00000060: cd59 98be 16fe 2ebf e940 08be ec3f 103d
00000070: c4b0 1e3c f170 19bc ce23 983c bea5 c23d
00000080: 6a0c d53c ade7 3b3c 920b 1b3b e9fc 5dbc
00000090: 24fd 66bc 8245 1dbd 838e 4fbd e1da 6c3d
000000a0: a029 023e d7d5 3b3d 2660 f5bc c766 083d
000000b0: fc70 293c 463c 1b3e f464 1f3e eb28 d13c
000000c0: 4f63 cc3d 237c b3bd 1553 56be b2bb af3d
000000d0: 91b3 a1bd 2f0e 82be 5e52 d9ba c98f 983c
000000e0: 3e8a 96bd e1e3 8b3d 1113 bc3d 853f c73d
000000f0: 8438 c9bc 3def 963d 5df9 22bd e3b6 78bd
00000100: 91be 4dbe 082c 743c 94f3 72be ba1d 00bf
00000110: ab56 36be 0c2e 853d 9ad6 82be df0a 3dbe
00000120: 4abd af3c 51b3 18bc 08f0 193d 0df1 a5bc
00000130: 0324 b23b dc5f 673b 77a0 823d a7b9 763d
00000140: 6637 92bc cc03 063d 8c93 703c 6af7 24bd
00000150: 85e4 14bd 6c3a f7bc 98e1 19be 5143 a9bd
00000160: 69d5 c9bd 3c13 a8bd 59c5 2b3d 74e6 173d
00000170: e4af b93c b8e2 eb3c 7fa0 9bbc c1d3 303b
00000180: d28c 0b3d 1d1d 0b3b 13d2 35bd 7204 d63c
00000190: dee6 e0be 4d61 39be e061 0bbf 6767 b0bf
000001a0: 02fe 3bbf 015f 98be d93f 49bf 0e2d 78bd
000001b0: 7553 a93c 82df d1bb 85c5 59bc fc36 32bc
000001c0: 5628 f53c 61b7 60bc 4a0c b93c 84b9 163d
000001d0: 7940 1e3c 3367 d83c 4659 bbbd 5907 61be
000001e0: 8d96 8cbd ed75 87be 8c75 9fbe 6152 9fbd
000001f0: d4cb 17be 971f 74bd ece0 953d 5f6a d6bc
00000200: 02a7 2fbc 69cc ac3c a3b5 a33d 4f47 37bc
00000210: 0fac 843b e3f9 803d e65b f5ba ce0f 253d
00000220: 1f4c 09bd f5b9 e5ba 58ca 9c3d 50e0 bc3b
00000230: c1ee bd3b e317 19bd 4397 2b3d 66f6 193c
00000240: ce39 ff3c bcf3 983d 8082 ebbc 18f3 57bd
00000250: 08e9 09be 0057 4e3e 3ec8 90be 6a52 47bd
00000260: 418f 53bd 93d9 8bbd f34d 803d 3f76 8a3e
00000270: 2174 f03d 3898 aebc 0d60 70be dea4 11be
00000280: f2b9 06be b9b5 50be 6324 f73d 0bb3 c73e
00000290: 5ce6 9e3e aa87 63bd 8657 463d dade 8abe
000002a0: 0cd3 27be f70b b6be 45e2 e8be bc4d 8a3d
000002b0: 8ead 8bbd aadf 42be 07a8 783d 15b5 1cbe
000002c0: 7f7c 243d 66a3 703a 3124 c43d b403 4e3d
000002d0: ae56 873d 7761 8abd e9fa 6bbe 8fcb 0fbd
000002e0: c4bd 92bd fdd0 c33d 9ad5 3e3d 408b c23d
000002f0: d74d 38ba 3910 b13c c1eb 2b3e e536 303e
00000300: a218 6d3d 87f8 f43d a809 b93d 69c8 84bd
00000310: e527 b3bd b1db 1bbe 0b5d f73d 51ea bfbd
00000320: 7b61 2cbe 35fd f1bc 6df8 ddbd 267c 1c3d
00000330: 31e7 88ba 35fd 393d 2fe7 943d 655f 2a3e
00000340: 6518 0d3f faf0 bb3e e0e4 8fbe f70a 113e
00000350: 4faf c6be 5049 25be 96a2 16bd 1e52 c7bd
00000360: 79c6 a53d 68a1 bd3d 6ba5 353c 3a98 b9bd
00000370: de7e 7cbe 09c1 4ebe b712 283d 671a da3d
00000380: 32c5 7e3d ebf9 cebb b93c 0abe d5b2 4dbd
00000390: 198b 443d 40a6 8a3d ed97 7c3d a77a 0bbe
000003a0: b504 cdbd e67f 87bd 5322 8dbd 581c b4bc
000003b0: 7fa6 82be 1bb0 2c3d e545 7e3e db97 243e
000003c0: 9ebf 313d d6f1 803d ff92 eb3c e5ec 933e
000003d0: 887e 1e3f ebcf 723e 736d 18bf 640d fdbe
000003e0: 91d2 8ebf bdfb 3dbe a1f0 70be 092f 33bf
000003f0: 3707 cc3d 6ccb 933c 1065 3fbe 9a5f bc39

conv_blocks.3.bias f4 [32]
-0.16026229 -0.04977068 0.026782058 0.020788362 -0.21326827 -0.2470136 -0.26706868 -0.018144835
-0.216799 0.1597991 0.132814 0.00923429 0.07387947 0.23779751 0.17714313 0.16336732
-0.16225354 -0.16242978 -0.11521233 -0.043089066 0.14518988 -0.12249221 0.084443614 0.1443282
-0.07554089 0.18777157 0.12015951 0.20510188 0.2349399 -0.4023728 -0.16110149 -0.121269666
00000000: cc1b 24be 57dc 4bbd 0c66 db3c 5b4c aa3c
00000010: ff62 5abe 22f1 7cbe 3abd 88be 7aa4 94bc
00000020: 8f00 5ebe 60a2 233e 6500 083e 6b4b 173c
00000030: 1f4e 973d 3181 733e 0265 353e c349 273e
00000040: cb25 26be fe53 26be 71f4 ebbd 297e 30bd
00000050: a8ac 143e 32dd fabd c6f0 ac3d c6ca 133e
00000060: 2fb5 9abd 3147 403e 3016 f63d 3a06 523e
00000070: 1694 703e cf03 cebe caf7 24be 3b5c f8bd

conv_blocks.6.weight f4 [32]
1.301257 1.4845092 1.6861752 1.2427648 1.3688531 1.5944688 1.463335 1.8012397
1.368527 1.1026412 1.5951817 1.5054302 1.2168151 1.1829243 1.1764385 1.1692798
1.3476924 1.7250805 1.6651958 1.4489068 1.118366 1.2804519 1.1882912 1.1621555
1.4866837 1.0928817 1.2491128 1.1380316 1.1000472 1.6113425 1.5446827 1.3006485
00000000: 978f a63f 6604 be3f 97d4 d73f eb12 9f3f
00000010: 9436 af3f 8e17 cc3f 904e bb3f 068f e63f
00000020: e52b af3f 5923 8d3f ea2e cc3f f0b1 c03f
00000030: 99c0 9b3f 106a 973f 8995 963f f6aa 953f
00000040: 2f81 ac3f 70cf dc3f 2325 d53f c775 b93f
00000050: 9e26 8f3f d9e5 a33f ed19 983f 83c1 943f
00000060: a74b be3f 8ce3 8b3f eee2 9f3f 05ab 913f
00000070: 59ce 8c3f 7940 ce3f 2ab8 c53f a67b a63f

conv_blocks.6.bias f4 [32]
0.08725969 0.15488686 -0.023540981 -0.1393545 0.120053336 0.24396564 0.122434855 -0.27599853
-0.008692022 -0.035548225 -0.060550213 -0.09523404 -0.06404796 -0.10327023 -0.061190125 -0.020215767
0.07188367 0.021756299 0.20905465 -0.010336316 -0.015552265 0.035654616 -0.01599626 -0.045513313
0.032860033 -0.037478402 -0.012399247 -0.037346106 -0.07032951 0.14074644 -0.37033826 0.04660137
00000000: 35b5 b23d a99a 1e3e 04d9 c0bc f2b2 0ebe
00000010: 86de f53d 21d2 793e 20bf fa3d ae4f 8dbe
00000020: fc68 0ebc 049b 11bd 8003 78bd 100a c3bd
00000030: 942b 83bd 587f d3bd 7fa2 7abd 899b a5bc
00000040: bf37 933d 443a b23c 6c12 563e a759 29bc
00000050: edce 7ebc 930a 123d 970a 83bc 2b6c 3abd
00000060: 3e98 063d f482 19bd 3626 4bbc 3bf8 18bd
00000070: eb08 90bd d61f 103e fa9c bdbe 14e1 3e3d

conv_blocks.6.running_mean f4 [32]
0.32464707 0.08993097 0.1222868 0.04365244 0.22176376 -0.023906188 0.104679905 -0.009202802
0.19400789 0.09860062 0.08445999 -0.05128703 -0.070823856 0.08663498 0.13701552 0.005926267
0.006181255 -0.02318578 0.015026918 -0.0111605935 0.16689928 0.15227851 0.06629602 -0.0034438777
0.07838005 0.13083318 -0.065716065 0.037231945 0.24925686 -0.009595187 0.00084847264 0.19074193
00000000: 2438 a63e ba2d b83d 8071 fa3d e7cc 323d
00000010: 0a16 633e e9d6 c3bc 6b62 d63d 59c7 16bc
00000020: 01aa 463e 1fef c93d 5cf9 ac3d 5912 52bd
00000030: 190c 91bd ae6d b13d cc4d 0c3e 2131 c23b
00000040: 208c ca3b 1bf0 bdbc 7633 763c ecda 36bc
00000050: a5e7 2a3e e6ee 1b3e 35c6 873d aeb2 61bb
00000060: b885 a03d 22f9 053e 2596 86bd 8680 183d
00000070: 313d 7f3e 2235 1dbc 096c 5e3a da51 433e

conv_blocks.6.running_var f4 [32]
0.24896786 0.14817892 0.14560543 0.2025158 0.28544065 0.06786144 0.1220839 0.1644402
0.25390282 0.2205997 0.13625167 0.056005847 0.22510208 0.2462898 0.21438916 0.21644059
0.2170264 0.036970552 0.051006407 0.076203346 0.2812956 0.29229584 0.21523108 0.22620623
0.29135332 0.35770488 0.14464305 0.17228031 0.3309976 0.049664013 0.070003144 0.31608003
00000000: 6ef1 7e3e 37bc 173e 9719 153e 4d60 4f3e
00000010: 4725 923e f0fa 8a3d 2007 fa3d 0363 283e
00000020: 8dff 813e e3e4 613e 8f85 0b3e 6366 653d
00000030: 2981 663e 6533 7c3e d588 5b3e 9aa2 5d3e
00000040: 2b3c 5e3e 6f6e 173d 18ec 503d 8010 9c3d
00000050: fa05 903e cda7 953e 8965 5c3e 9ba2 673e
00000060: 432c 953e 1825 b73e 4f1d 143e 406a 303e
00000070: 8478 a93e 7e6c 4b3d cf5d 8f3d 3ed5 a13e

conv_blocks.7.weight f4 [64, 32, 3, 3]
0.089841776 0.19943368 0.15924722 -0.43515393 0.015771775 0.005180823 -0.25344086 0.04721717
0.030749964 0.02046453 0.018451482 0.07817855 -0.085351214 -0.003409542 0.01828164 0.09155063
-0.15786085 -0.06273709 0.048287846 0.2595798 -0.015608325 0.006582566 0.045765724 0.0004952209
-0.17485526 -0.05929831 0.037996065 -0.019203324 -0.022931617 -0.019815575 0.26548058 -0.1777371
-0.08873592 -0.030590989 0.060013205 -0.0010744338 0.05779551 0.19868131 0.07530339 -0.31987092
-0.019825673 -0.09062421 -0.110108465 -0.0122921895 0.033329584 0.037274078 0.1636779 0.120421514
-0.33243257 -0.023591459 -0.0024382968 -0.07436742 0.061017152 0.011686918 0.011418868 0.20704257
0.11685669 -0.30030718 -0.0062324177 0.062338497 -0.41948682 -0.061989214 0.09463593 -0.0535992
0.086800754 -0.015408317 0.120854914 -0.012803358 0.0067887763 0.009970491 -0.10735227 0.0009358245
0.048907015 0.111492835 0.06357455 -0.1355236 -0.025324678 -0.08459726 -0.2658631 -0.10511328
0.029302346 -0.13220054 -0.07012465 -0.1748073 0.19736347 -0.10496625 -0.018384159 0.07310504
0.0151603175 0.05722643 -0.07703527 -0.17694896 -0.0010535417 0.1636843 0.11767152 -0.067066275
0.16617051 -0.042495295 0.054994185 0.01627489 -0.07411755 -0.10592874 0.2851669 0.14150286
-0.06380327 0.13211486 0.15105163 -0.031702243 -0.04972155 -0.070991635 -0.003975116 0.085676946
-0.13578054 -0.06788481 0.06266877 0.03991053 0.006162325 -0.05541866 -0.13056724 -0.1301635
0.14642431 -0.05918824 0.01567552 0.03841905 0.04024273 0.039788008 -0.083897375 -0.25815997
-0.16977762 0.2698078 -0.12262091 -0.005315616 0.18774255 0.11521407 0.066757485 0.0016778709
-0.26512322 -0.099752724 0.38255095 -0.17005832 -0.09097802 0.044053834 0.14934579 0.03696943
-0.023783784 -0.047670916 -0.049222752 0.02636709 0.12183415 -0.11839253 0.20072661 0.03756436
0.06748447 -0.13480449 -0.33755597 -0.15723255 0.3313545 0.11858232 -0.0074475883 0.47643515
0.15389788 0.10828764 -0.03382279 0.17212091 0.03920272 -0.043629315 0.18662348 0.13007663
-0.37961164 0.0060961694 0.012233296 -0.122707024 -0.101588525 -0.15781096 0.27055606 0.057714596
-0.031998057 0.18232353 0.075660646 0.05195425 -0.080481 -0.14363487 -0.07951705 0.2559541
-0.23442917 0.053473625 0.13462067 0.10071179 0.041099206 -0.049407672 0.14141354 0.10623028
-0.00046908576 -0.048910502 -0.052481268 0.24621011 0.025732806 0.02485109 0.0049859285 -0.2127366
0.081546955 0.2663761 -0.38954052 -0.0003056243 0.008083694 0.14280331 -0.010520946 -0.060053583
-0.008500584 -0.02645347 0.12872249 -0.027449239 0.0056226742 0.11034672 0.030048737 0.010179304
-0.12864411 0.17945297 0.06756462 -0.04445096 0.011321153 -0.016923262 -0.0019849697 -0.031928275
0.053219747 -0.05802617 -0.11719545 -0.08789103 0.22330634 -0.1147447 0.05270328 -0.09188292
0.087468974 -0.014998594 -0.07350699 -0.07260417 -0.009367952 0.16623934 -0.085791245 -0.040894542
0.0897471 0.18096147 0.002201332 -0.014803691 -0.26438257 -0.07105243 0.2608491 -0.1010669
-0.045025133 0.13171394 0.12462815 0.050772402 -0.15372045 -0.1806191 -0.0565482 0.35872376
00000000: f7fe b73d 5838 4c3e b411 233e 7fcc debe
00000010: cf33 813c e5c3 a93b 00c3 81be cb66 413d
00000020: 59e7 fb3c 3ba5 a73c 9027 973c 131c a03d
00000030: 9ecc aebd 9f72 5fbb 61c3 953c e67e bb3d
00000040: 46a6 21be 4e7c 80bd 7ac9 453d a5e7 843e
00000050: 0fba 7fbc 91b2 d73b d774 3b3d b6d1 013a
00000060: 420d 33be c9e2 72bd c3a1 1b3d 4a50 9dbc
00000070: 16db bbbc 4654 a2bc 12ed 873e b700 36be
00000080: 2ebb b5bd f499 fabc 68d0 753d 04d4 8cba
00000090: fcba 6c3d 1d73 4b3e aa38 9a3d 1fc6 a3be
000000a0: 7369 a2bc 3099 b9bd 8c80 e1bd 2e65 49bc
000000b0: 9a84 083d b4ac 183d 2e9b 273e 8e9f f63d
000000c0: 9a34 aabe e042 c1bc d5cb 1fbb f24d 98bd
000000d0: 1fed 793d 7d7a 3f3c 3416 3b3c f802 543e
000000e0: 8f52 ef3d ddc1 99be 4f39 ccbb a756 7f3d
000000f0: fac6 d6be 67e8 7dbd 7cd0 c13d d68a 5bbd
00000100: 98c4 b13d 2a73 7cbc c882 f73d 2dc5 51bc
00000110: 6274 de3b 455b 233c 82db dbbd 1e52 753a
00000120: b952 483d 5b56 e43d 6033 823d b3c6 0abe
00000130: b375 cfbc 5441 adbd 351f 88be a245 d7bd
00000140: 790b f03c 945f 07be 839d 8fbd af00 33be
00000150: a619 4a3e 8cf8 d6bd 609a 96bc 18b8 953d
00000160: fb62 783c 4366 6a3d abc4 9dbd 1c32 35be
00000170: fe16 8aba db9c 273e c4fd f03d 0b5a 89bd
00000180: 9a28 2a3e 8c0f 2ebd 9541 613d eb52 853c
00000190: f1ca 97bd 2bf1 d8bd 6501 923e 20e6 103e
000001a0: 4aab 82bd 1e49 073e 47ad 1a3e 36da 01bd
000001b0: d3a8 4bbd 1064 91bd b141 82bb 6577 af3d
000001c0: 0e0a 0bbe 3107 8bbd 7c58 803d 3979 233d
000001d0: 54ed c93b adfe 62bd 6bb3 05be 9549 05be
000001e0: 41f0 153e 5e6f 72bd f369 803c 4b5d 1d3d
000001f0: 90d5 243d c0f8 223d 63d2 abbd 8b2d 84be
00000200: 2fda 2dbe 3f24 8a3e ac20 fbbd 9e2e aebb
00000210: 953f 403e 5bf5 eb3d 26b8 883d 01ec db3a
00000220: 3bbe 87be 284b ccbd b8dd c33e c523 2ebe
00000230: af52 babd cb71 343d 1aee 183e 426d 173d
00000240: 36d6 c2bc 9442 43bd cc9d 49bd ccff d73c
00000250: 2f84 f93d c877 f2bd 478b 4d3e 16dd 193d
00000260: 4c35 8a3d 300a 0abe 23d4 acbe 9201 21be
00000270: 4ca7 a93e 4adb f23d e60a f4bb 4fef f33e
00000280: 6897 1d3e e9c5 dd3d c489 0abd 7740 303e
00000290: 0893 203d a7b4 32bd 3a1a 3f3e cf32 053e
000002a0: 755c c2be 60c2 c73b 2a6e 483c d24d fbbd
000002b0: a50d d0bd 3299 21be 5386 8a3e 2466 6c3d
000002c0: 6510 03bd 05b3 3a3e f8f3 9a3d fbcd 543d
000002d0: 39d3 a4bd 0515 13be d6d9 a2bd 6a0c 833e
000002e0: 330e 70be 2907 5b3d 00da 093e fc41 ce3d
000002f0: a457 283d b35f 4abd b6ce 103e 438f d93d
00000300: a0ef f5b9 6156 48bd 99f6 56bd 811e 7c3e
00000310: 9bcd d23c 8394 cb3c 0061 a33b a0d7 59be
00000320: 1702 a73d 7362 883e db71 c7be 333c a0b9
00000330: 7871 043c 083b 123e 0c60 2cbc bffa 75bd
00000340: 0946 0bbc f3b4 d8bc d4cf 033e 3add e0bc
00000350: 693e b83b 76fd e13d c528 f63c 18c7 263c
00000360: 48bb 03be 85c2 373e 525f 8a3d 3612 36bd
00000370: 5b7c 393c a7a2 8abc 4416 02bb 39c7 02bd
00000380: f3fc 593d d9ac 6dbd 2b04 f0bd 3600 b4bd
00000390: 6baa 643e 45ff eabd 65df 573d 1d2d bcbd
000003a0: ef22 b33d aabc 75bc d58a 96bd 7fb1 94bd
000003b0: 0a7c 19bc a53a 2a3e 52b3 afbd 0981 27bd
000003c0: 54cd b73d f74d 393e 3944 103b 2e8b 72bc
000003d0: 275d 87be f083 91bd 038e 853e 2afc cebd
000003e0: 466c 38bd 05e0 063e 0b3d ff3d b9f6 4f3d
000003f0: e568 1dbe 37f4 38be 169f 67bd a4aa b73e

conv_blocks.7.bias f4 [64]
-0.08586279 -0.41035718 -0.21992727 -0.089718774 -0.43920577 -0.3936738 -0.30703717 -0.14364439
-0.0584035 -0.24021235 -0.42456234 -0.05041297 -0.09446071 -0.24949105 -0.11397002 -0.1022369
-0.14540179 -0.11743473 -0.26537615 -0.27122146 -0.104773834 0.07217994 -0.07983944 -0.09653527
-0.0068698353 -0.1181281 -0.19432871 -0.24262223 -0.044273626 -0.57604074 -0.074155815 -0.11879179
-0.32615378 -0.22031945 -0.32792228 -0.13874926 -0.116737 -0.09383158 -0.27418926 0.029373482
-0.042494673 -0.18470791 -0.0031232478 -0.13435842 -0.039169393 -0.07206738 -0.54655063 0.0024782345
-0.2957071 -0.40467155 -0.38575247 -0.37526184 -0.24882323 -0.5856469 -0.051843237 -0.18216124
-0.09654489 -0.47237176 -0.8753898 -0.03423159 -0.28546593 -0.3085825 -0.03106553 -0.049382247
00000000: d5d8 afbd 561a d2be 9d34 61be 7abe b7bd
00000010: 94df e0be 9d8f c9be fa33 9dbe 8417 13be
00000020: 8238 6fbd 3afa 75be 3c60 d9be d57d 4ebd
00000030: 9e74 c1bd 957a 7fbe 1d69 e9bd 9461 d1bd
00000040: 35e4 14be 9f81 f0bd 62df 87be 8add 8abe
00000050: aa93 d6bd 14d3 933d dc82 a3bd 49b4 c5bd
00000060: 5b1c e1bb 25ed f1bd 1bfe 46be f671 78be
00000070: 4358 35bd 6877 13bf 01df 97bd 1c49 f3bd
00000080: a1fd a6be 6c9b 61be 6ee5 a7be 4914 0ebe
00000090: cf13 efbd c52a c0bd 8962 8cbe a8a0 f03c
000000a0: e50e 2ebd 1224 3dbe 67af 4cbb 4195 09be
000000b0: 1670 20bd 1098 93bd beea 0bbf e069 223b
000000c0: ec66 97be 1c31 cfbe 5981 c5be 5222 c0be
000000d0: 84cb 7ebe f5ec 15bf 9359 54bd 7a88 3abe
000000e0: 54b9 c5bd b6da f1be 8c19 60bf 6c36 0cbd
000000f0: 9728 92be 87fe 9dbe 237d febc 0a45 4abd

conv_blocks.10.weight f4 [64]
1.8722744 1.4158013 1.4638841 1.7332772 1.6713194 1.7587888 1.5456148 1.4355516
1.8490343 1.8493603 1.8442638 1.5409262 2.1118393 1.6947148 1.8589115 1.595251
1.9413476 1.7193155 1.5427852 1.8154664 1.7743275 1.7690566 1.4548659 1.285772
1.8086957 1.6823449 1.4415941 1.45928 2.2272542 1.6702197 1.4811363 1.8808665
1.5703003 2.0072014 1.7098502 1.5383325 1.4324344 1.9297429 1.8205874 1.6115446
1.5816611 1.6741703 2.1891265 1.768858 1.6018074 1.4201709 2.0874763 1.7692016
1.8244865 1.5718837 1.4189997 1.7527398 1.5563908 2.044162 1.6379242 1.9471916
1.4291573 1.4121507 2.2673495 1.9562646 2.1064906 2.0004373 1.5900669 1.8041751
00000000: b0a6 ef3f fa38 b53f 8e60 bb3f 07dc dd3f
00000010: cbed d53f fe1f e13f b5d6 c53f 28c0 b73f
00000020: 28ad ec3f d7b7 ec3f d610 ec3f 123d c53f
00000030: 6028 0740 6aec d83f d0f0 ed3f 2f31 cc3f
00000040: 147e f83f 8812 dc3f fc79 c53f 3461 e83f
00000050: 2a1d e33f 7270 e23f 0c39 ba3f 2d94 a43f
00000060: 5783 e73f 1457 d73f 2886 b83f b0c9 ba3f
00000070: 558b 0e40 c2c9 d53f e095 bd3f 3cc0 f03f
00000080: 9aff c83f fd75 0040 5fdc da3f 14e8 c43f
00000090: 035a b73f d101 f73f 0209 e93f 1847 ce3f
000000a0: df73 ca3f 364b d63f a61a 0c40 f069 e23f
000000b0: 0608 cd3f 29c8 b53f 3699 0540 3375 e23f
000000c0: c688 e93f 7c33 c93f c8a1 b53f c759 e03f
000000d0: d037 c73f 8dd3 0240 80a7 d13f 933d f93f
000000e0: a0ee b63f 5bc1 b43f 411c 1140 e166 fa3f
000000f0: bed0 0640 2a07 0040 5087 cb3f 36ef e63f

conv_blocks.10.bias f4 [64]
0.1810423 -0.26842543 0.02729834 -0.00731073 -0.11143162 -0.12982103 -0.3815048 -0.34938675
0.14783464 0.43390998 -0.3366551 -0.32407942 0.371558 -0.16678035 -0.26131523 -0.17813572
0.15712179 0.25623864 0.20662865 -0.065436065 0.3792012 0.29251993 -0.35034886 -0.23492841
-0.231809 0.5045496 0.46675956 0.5299445 0.5422024 0.13603611 0.14310393 0.40631548
0.15798305 -0.13632354 0.23520198 -0.3366224 -0.2468146 -0.27114037 -0.14680393 -0.07821966
-0.16218072 -0.08343864 -0.15434483 -0.22910815 0.13144718 -0.2488953 -0.26557687 -0.1319981
-0.3538462 0.14683224 0.15862182 0.49381265 -0.003819929 -0.08216134 0.3412073 -0.13360678
0.06736619 -0.04282167 0.1700863 0.27043203 -0.2796624 -0.09487269 -0.264894 0.036348354
00000000: 2763 393e 0f6f 89be c5a0 df3c d98e efbb
00000010: 4336 e4bd ceef 04be 9954 c3be d2e2 b2be
00000020: f761 173e 7329 de3e 0f5e acbe bded a5be
00000030: da3c be3e 78c8 2abe 1ccb 85be 3669 36be
00000040: 89e4 203e b631 833e 7696 533e 5803 86bd
00000050: a926 c23e 2cc5 953e ed60 b3be 1391 70be
00000060: 575f 6dbe 2a2a 013f 1cfb ee3e 71aa 073f
00000070: c7cd 0a3f 0d4d 0b3e d689 123e 9508 d03e
00000080: 4fc6 213e 6698 0bbe cad8 703e c559 acbe
00000090: f7bc 7cbe e9d2 8abe c553 16be a131 a0bd
000000a0: b412 26be e1e1 aabd 920c 1ebe 549b 6abe
000000b0: 179a 063e 69de 7ebe b1f9 87be 832a 07be
000000c0: 542b b5be 315b 163e c26d 223e 03d5 fc3e
000000d0: c657 7abb 3444 a8bd b9b2 ae3e 37d0 08be
000000e0: 49f7 893d c765 2fbd 1a2b 2e3e 1176 8a3e
000000f0: e92f 8fbe 9d4c c2bd 30a0 87be 03e2 143d

conv_blocks.10.running_mean f4 [64]
0.3264566 -0.016943913 0.1508762 0.10836491 -0.12205187 0.18306376 0.016443621 -0.025511941
0.19932905 0.5220465 0.03371631 0.06787081 -0.023336617 -0.13145635 0.1795256 0.13383934
0.2900552 0.055396155 0.24149153 -0.111340925 0.4389354 0.73616505 0.37735984 0.009681236
0.31571925 0.1951939 0.82194966 0.27197963 -0.036505707 0.3558666 0.29474452 0.25595492
0.37884745 -0.10310079 0.34233427 0.74207985 0.1534022 0.047906674 0.021296335 0.13394982
0.38244876 0.16609554 0.085904285 0.24557279 0.520384 0.05581004 -0.065153845 0.24752276
0.015968978 0.16219051 0.35032263 0.0264297 0.26392338 0.29749098 0.24851628 0.075636156
0.14107943 0.03445583 -0.13218778 0.19658518 0.49152917 0.048519313 0.16519953 0.18844278
00000000: 5225 a73e f6cd 8abc 4a7f 1a3e 6cee dd3d
00000010: 55f6 f9bd 1175 3b3e c6b4 863c 6bfe d0bc
00000020: ea1c 4c3e d7a4 053f 1d1a 0a3d daff 8a3d
00000030: 6f2c bfbc 7e9c 06be 8fd5 373e 2e0d 093e
00000040: 1d82 943e 14e7 623d 8e49 773e b606 e4bd
00000050: 24bc e03e 5075 3c3f 4f35 c13e 0c9e 1e3c
00000060: f4a5 a13e e9e0 473e 4b6b 523f ea40 8b3e
00000070: 0287 15bd 2634 b63e c1e8 963e 860c 833e
00000080: 4bf8 c13e 8226 d3bd 7046 af3e f2f8 3d3f
00000090: 7715 1d3e ca39 443d a775 ae3c 242a 093e
000000a0: 53d0 c33e f314 2a3e 96ee af3d 6f77 7b3e
000000b0: e337 053f 1299 643d 616f 85bd 9b76 7d3e
000000c0: 60d1 823c 4515 263e 7d5d b33e 1983 d83c
000000d0: f720 873e bd50 983e 0d7b 7e3e 21e7 9a3d
000000e0: 2077 103e 8e21 0d3d 3c5c 07be a04d 493e
000000f0: b6a9 fb3e 30bc 463d 112a 293e 25f7 403e

conv_blocks.10.running_var f4 [64]
2.274998 0.7429479 1.0063038 1.53243 1.0057259 1.4841768 0.6737626 0.82881266
2.074234 2.6794152 0.81928897 0.69427127 1.0069505 0.9373393 1.389586 1.0135868
2.2393994 0.86429024 1.4829898 0.574867 2.8590627 2.7367804 1.7492443 0.89589816
1.525013 1.679942 4.6889057 1.6919829 0.9600187 1.3509505 2.5090647 1.5288072
1.7290004 0.69997495 2.1794658 3.0870442 1.0879118 1.5185226 0.5176035 1.4622192
2.7710483 1.2752773 0.85995394 1.5466387 3.318995 0.58322144 1.0571742 1.5231736
0.79359275 1.2439468 1.235993 0.96974856 1.7359382 2.708363 2.7125955 1.4359517
1.7098035 1.3505609 1.0335692 1.6651038 1.9404056 1.3845809 1.4011542 1.0144283
00000000: 9199 1140 d531 3e3f 90ce 803f ab26 c43f
00000010: a0bb 803f 81f9 bd3f b57b 2c3f 112d 543f
00000020: 40c0 0440 8a7b 2b40 ecbc 513f c3bb 313f
00000030: c1e3 803f 78f5 6f3f f4dd b13f 36bd 813f
00000040: 5252 0f40 2042 5d3f 9cd2 bd3f 7c2a 133f
00000050: e2fa 3640 6927 2f40 3de7 df3f 9559 653f
00000060: a033 c33f 5708 d73f 840b 9640 e592 d83f
00000070: c9c3 753f f2eb ac3f 8494 2040 f4af c33f
00000080: e34f dd3f 8f31 333f 5e7c 0b40 2292 4540
00000090: b240 8b3f f35e c23f aa81 043f 002a bb3f
000000a0: db58 3140 493c a33f f125 5c3f 42f8 c53f
000000b0: 6a6a 5440 004e 153f 7c51 873f 5af7 c23f
000000c0: e528 4b3f a639 9f3f 0535 9e3f 7141 783f
000000d0: 3933 de3f d255 2d40 2a9b 2d40 44cd b73f
000000e0: d7da da3f 2edf ac3f ff4b 843f 1f22 d53f
000000f0: 365f f83f f239 b13f 0559 b33f c9d8 813f

conv_blocks.11.weight f4 [128, 64, 3, 3]
-0.19534427 0.020818532 0.10519162 0.0165209 0.05322726 0.04761251 0.009322531 0.05847853
0.0075836875 0.030378452 0.005182647 0.12593946 -0.061716296 0.10050392 -0.0739496 -0.06890576
-0.07445235 -0.024581801 0.06446366 0.018079167 -0.1271541 -0.21122481 0.14133133 0.03947921
-0.20321725 -0.1893011 -0.004544817 0.075311765 0.11854888 0.058788132 -0.015362017 0.0449606
0.22101039 0.051265825 -0.051627163 -0.045323256 0.068996266 0.10373684 -0.18003608 0.024764797
-0.23338197 0.12970705 0.109153256 -0.13435644 0.07300012 -0.14710212 -0.14217085 -0.092255466
0.111600436 -0.0003699087 0.026126008 -0.06096107 0.009436395 -0.0080754645 -0.11736215 0.068157226
0.037884697 -0.09504467 0.023120036 0.22855836 0.059466396 0.03005344 0.06885245 0.043759115
0.15383285 -0.13648953 -0.11807963 -0.23473196 0.09800451 -0.008117516 -0.050094776 0.057378322
-0.010632444 -0.15153196 -0.024164664 0.10128584 -0.32678986 0.04683845 0.06457204 -0.10570515
-0.008817014 -0.07787284 -0.16911869 0.2138579 0.015622804 0.10262802 -0.02294962 0.0054037697
0.0765448 0.14839037 0.007801441 -0.036077637 -0.24897143 -0.15014824 0.16699274 0.18154866
-0.20451246 -0.0105503 0.049396526 0.21822083 0.15181631 0.07239443 -0.04823995 -0.21785533
-0.20272057 0.05482744 -0.123127684 -0.10843125 -0.23332515 0.022800503 0.3163982 -0.13160402
0.00035793285 -0.110412315 0.028554164 0.12869813 -0.06224112 -0.16372685 -0.02704645 -0.119870834
0.04563849 -0.17584886 0.07063012 0.016689362 -0.04471569 0.055675767 -0.06704586 -0.06334076
-0.08833738 0.07842434 -0.097775586 -0.08850154 -0.16899867 -0.0653151 -0.0360893 0.31301013
0.072654255 -0.0337442 0.053477127 -0.026842892 -0.01601737 -0.047837757 0.056019057 0.019636322
0.08885192 -0.09596602 0.18048893 -0.011393342 -0.09589491 -0.01879021 -0.0144179845 -0.018992612
-0.09491087 0.00041274153 -0.18057716 0.069826804 -0.06902535 0.055108905 0.17264624 0.044111986
-0.010667767 0.036165923 -0.2863012 -0.13809894 -0.18128654 -0.1399542 0.34062266 0.00089582085
0.06591934 -0.01592502 -0.022567786 0.0011454866 0.25563824 0.10404838 -0.113077655 -0.17496885
-0.18613145 -0.06520074 -0.078990825 0.0043441937 0.1307493 0.0056802155 0.31155127 0.014393773
-0.1767616 0.07474262 0.023822188 0.09754229 0.002952435 -0.16754574 0.03090571 -0.1171368
0.25032207 -0.23055287 0.12586254 -0.0025156343 -0.021755112 -0.03278106 -0.32833987 -0.23517984
-0.30525565 0.059306446 0.15569496 0.30755407 -0.09419013 0.051160157 0.008467549 -0.022708187
0.2155119 0.047827955 0.0493439 -0.23784815 0.11265694 0.050197665 -0.0015192942 -0.0658784
0.10758143 0.077720724 -0.034057785 0.09447204 -0.29124793 0.021505043 -0.013356194 0.14384167
-0.09217637 -0.05466798 -0.09890476 0.16976616 0.04123267 0.039662715 0.086840734 0.12186414
-0.28844136 -0.1185737 -0.003382575 -0.13100457 0.03734938 -0.02559632 0.26679316 0.24005921
0.15693435 0.05898009 -0.1550484 -0.019445213 -0.05643151 0.09251785 -0.100528225 -0.0071761054
0.058528513 -0.06679055 -0.16579178 -0.06207442 -0.10500111 -0.049467873 -0.0064844936 0.12585212
00000000: 5408 48be a08b aa3c b46e d73d d756 873c
00000010: d404 5a3d 5605 433d 87bd 183c 2f87 6f3d
00000020: 9580 f83b 3bdc f83c 32d3 a93b 46f6 003e
00000030: 3aca 7cbd 00d5 cd3d e372 97bd 771e 8dbd
00000040: 797a 98bd c65f c9bc 8605 843d c31a 943c
00000050: af34 02be 514b 58be 29b9 103e f4b4 213d
00000060: 2f18 50be 26d8 41be b0ec 94bb 0e3d 9a3d
00000070: c1c9 f23d d3cb 703d f8b0 7bbc 9b28 383d
00000080: 8c50 623e 1dfc 513d 0177 53bd e1a4 39bd
00000090: ea4d 8d3d fb73 d43d 615b 38be 8bdf ca3c
000000a0: affb 6ebe edd1 043e be8b df3d bc94 09be
000000b0: 1681 953d f0a1 16be 3c95 11be 6ff0 bcbd
000000c0: c58e e43d 4ef0 c1b9 3606 d63c 51b2 79bd
000000d0: 1c9b 1a3c f44e 04bc 915b f0bd 0496 8b3d
000000e0: fc2c 1b3d c8a6 c2bd 3b66 bd3c 340b 6a3e
000000f0: 0993 733d a232 f63c 8302 8d3d c23c 333d
00000100: 5c86 1d3e e9c3 0bbe bcd3 f1bd 935d 70be
00000110: 97b6 c83d 54ff 04bc 2e30 4dbd 8805 6b3d
00000120: b433 2ebc 322b 1bbe f9f4 c5bc f36e cf3d
00000130: 0051 a7be add9 3f3d 593e 843d f17b d8bd
00000140: 3d75 10bc cc7b 9fbd 732d 2dbe 91fd 5a3e
00000150: caf6 7f3c a42e d23d d700 bcbc 1b12 b13b
00000160: 85c3 9c3d a5f3 173e 3ba3 ff3b 25c6 13bd
00000170: 5ef2 7ebe 76c0 19be 2500 2b3e e4e7 393e
00000180: b76b 51be 2adb 2cbc 0354 4a3d 4875 5f3e
00000190: bc75 1b3e 8843 943d 4197 45bd 7815 5fbe
000001a0: fb95 4fbe bd92 603d 5e2a fcbd 3411 debd
000001b0: caec 6ebe 1fc8 ba3c f2fe a13e 34c3 06be
000001c0: efa8 bb39 da1f e2bd 6cea e93c 71c9 033e
000001d0: 8bf0 7ebd 03a8 27be 8490 ddbc d77e f5bd
000001e0: 6def 3a3d b911 34be 86a6 903d 21b8 883c
000001f0: cd27 37bd 460c 643d 574f 89bd cdb8 81bd
00000200: 3aea b4bd f19c a03d 913e c8bd 4c40 b5bd
00000210: fd0d 2dbe ecc3 85bd 60d2 13bd dd42 a03e
00000220: c1cb 943d 5c37 0abd d50a 5b3d a0e5 dbbc
00000230: dc36 83bc 86f1 43bd 3d74 653d 5adc a03c
00000240: fff7 b53d d589 c4bd 17d2 383e 24ab 3abc
00000250: 8d64 c4bd eded 99bc 6939 6cbc 6596 9bbc
00000260: a160 c2bd 3b65 d839 38e9 38be 5b01 8f3d
00000270: 2a5d 8dbd e0b9 613d 2dca 303e c5ae 343d
00000280: dcc7 2ebc b822 143d 1296 92be cf69 0dbe
00000290: 2ea3 39be 2750 0fbe 1866 ae3e 85d5 6a3a
000002a0: b800 873d 3075 82bc 14e0 b8bc 2724 963a
000002b0: 04e3 823e 5117 d53d 4295 e7bd 092b 33be
000002c0: 3e99 3ebe f787 85bd f1c5 a1bd bd59 8e3b
000002d0: 25e3 053e 1a21 ba3b a683 9f3e dcd3 6b3c
000002e0: fe00 35be a912 993d c026 c33c 41c4 c73d
000002f0: a47d 413b 1c91 2bbe f92d fd3c 6be5 efbd
00000300: 372a 803e 0d16 6cbe 1ce2 003e 57dd 24bb
00000310: c737 b2bc 6f45 06bd 2a1c a8be fcd2 70be
00000320: 784a 9cbe 51eb 723d 806e 1f3e ba77 9d3e
00000330: c1e6 c0bd 508d 513d 7abb 0a3c 8506 babc
00000340: 27af 5c3e 3fe7 433d d41c 4a3d 778e 73be
00000350: afb8 e63d 119c 4d3d 0e23 c7ba 41eb 86bd
00000360: a753 dc3d 0b2c 9f3d 2d80 0bbd 8f7a c13d
00000370: 731e 95be 582b b03c f0d3 5abc 3b4b 133e
00000380: f7c6 bcbd 88eb 5fbd 948e cabd 2ed7 2d3e
00000390: 97e3 283d 5f75 223d 8ed9 b13d e893 f93d
000003a0: 96ae 93be c5d6 f2bd 31ae 5dbb 1026 06be
000003b0: aafb 183d 60af d1bc 1d99 883e 15d2 753e
000003c0: 66b3 203e 1b95 713d 02c5 1ebe 914b 9fbc
000003d0: ba24 67bd 007a bd3d bee1 cdbd 8925 ebbb
000003e0: 98bb 6f3d 7cc9 88bd 52c5 29be bf41 7ebd
000003f0: d20a d7bd d39e 4abd e07b d4bb 61df 003e

conv_blocks.11.bias f4 [128]
-0.0601098 -0.09977186 0.4070152 -0.122836255 -0.11529635 -0.13879636 -0.11919042 -0.15238523
0.056974825 -0.104908824 -0.34563634 0.067259565 0.07490313 -0.20612878 -0.49214235 -0.5351647
-0.4255848 -0.05841688 0.037014116 -0.47529715 -0.19042863 -0.18420795 0.09490418 -0.23667075
-0.35765874 -0.28670385 -0.28423336 -0.69955146 -0.22666419 -0.75631285 -0.4889725 -0.02171101
0.1662193 -0.11231804 -0.13205346 -0.06353271 0.08590493 -0.04019476 0.08041577 -0.22662626
-0.30513868 0.1051385 -0.93720996 -0.19454159 0.19260891 -0.16907458 -0.36226293 -0.22979982
-0.1926991 -0.119996354 -0.054198522 -0.0856144 -0.012381436 -0.18928292 -0.21525517 -0.30842867
-0.3063875 0.044189986 0.13203613 -0.33222732 -0.57709813 -0.22219911 -0.010432011 -0.29050192
-0.3985737 -0.28774682 0.056187533 -0.015630152 0.034806214 -0.1303897 -0.32008108 -0.101305254
-0.10648564 -0.843342 -0.34562507 0.19485946 -0.16447496 -0.25507155 -0.022781383 0.09935157
-0.43637994 -0.41226178 -0.5399039 0.31730756 0.009570011 -0.37551633 0.05493406 -0.31428695
-0.033702508 -0.6818431 0.15309216 0.0018071042 0.061129585 -0.21524498 -0.30705854 0.05618124
-0.39598796 0.011604792 -0.36938936 0.015541503 -0.20278722 -0.19034806 0.09068423 0.056332532
-0.028871179 -0.15886481 -0.44383222 -0.1390528 -0.46870762 -0.25345376 -0.3301561 -0.4776327
-0.018040694 -0.13831861 -0.22246575 -0.1563387 -0.3079811 -0.19423577 -0.16618307 -0.8810824
-0.19658054 -0.49158993 -0.33220482 0.05706484 -0.07343592 0.032423723 -0.30668038 -0.62383157
00000000: b235 76bd 3055 ccbd 4c64 d03e 9391 fbbd
00000010: 7e20 ecbd a220 0ebe 1b1a f4bd e00a 1cbe
00000020: 6f5e 693d 70da d6bd 3ff7 b0be 62bf 893d
00000030: d066 993d 6c13 53be 15fa fbbe 8e00 09bf
00000040: 40e6 d9be 8a46 6fbd 1d9c 173d 265a f3be
00000050: b9ff 42be 02a1 3cbe 1f5d c23d d159 72be
00000060: 0c1f b7be d9ca 92be 0987 91be ce15 33bf
00000070: a81a 68be b89d 41bf 9b5a fabe 4adb b1bc
00000080: 6435 2a3e 0007 e6bd 0639 07be 701d 82bd
00000090: edee af3d 43a3 24bd 06b1 a43d b710 68be
000000a0: 233b 9cbe db52 d73d feec 6fbf e935 47be
000000b0: 453b 453e e321 2dbe 877a b9be a550 6bbe
000000c0: ea52 45be a6c0 f5bd 45ff 5dbd 9a56 afbd
000000d0: 82db 4abc 62d3 41be da6b 5cbe 5dea 9dbe
000000e0: d3de 9cbe 8f00 353d 7b34 073e b319 aabe
000000f0: b4bc 13bf 2a88 63be 07eb 2abc abbc 94be
00000100: da11 ccbe 8d53 93be e624 663d ce0a 80bc
00000110: f690 0e3d e184 05be abe1 a3be 2179 cfbd
00000120: 2515 dabd 43e5 57bf c5f5 b0be 3d89 473e
00000130: 206c 28be bd98 82be 06a0 babc d678 cb3d
00000140: 316d dfbe fa13 d3be 2437 0abf 2376 a23e
00000150: 89cb 1c3c ad43 c0be 8902 613d 38ea a0be
00000160: a40b 0abd 458d 2ebf 31c4 1c3e 5bdc ec3a
00000170: 0463 7a3d 2e69 5cbe c736 9dbe 4d1e 663d
00000180: efbe cabe 0722 3e3c 9a20 bdbe caa1 7e3c
00000190: 74a7 4fbe 9aea 42be a7b8 b93d f1bc 663d
000001a0: 4083 ecbc 75ad 22be fa3d e3be db63 0ebe
000001b0: 72fa efbe b1c4 81be 380a a9be 468c f4be
000001c0: 14ca 93bc 65a3 0dbe 10ce 63be 4117 20be
000001d0: b3af 9dbe bee5 46be e52b 2abe 9e8e 61bf
000001e0: 694c 49be adb1 fbbe c016 aabe d2bc 693d
000001f0: 9265 96bd bdce 043d 3605 9dbe 6db3 1fbf

conv_blocks.14.weight f4 [128]
1.4969708 1.8117988 1.48533 1.7518877 2.001561 1.630282 1.6375079 1.5069829
1.608365 2.4767604 2.3159962 1.6821423 1.6724578 1.9147106 1.8909278 1.5560824
1.4952607 2.219066 1.497314 1.7314774 1.6528215 1.5412682 1.7836215 2.1572154
2.1186268 1.7261561 1.8821876 1.6588807 1.8854405 1.4401197 1.622936 1.8553144
2.0422528 1.806824 1.5662019 1.5187961 2.1951096 1.833112 2.2414374 1.7030191
2.0512156 1.6521912 1.4342333 1.4975213 1.829616 1.9002073 1.4648651 1.5522019
1.5567511 1.418609 1.6354687 1.8749485 1.487256 1.7337725 1.6440393 1.767818
1.7410648 1.6861038 1.63944 2.1903586 1.4360601 1.610988 1.6284574 2.0027556
1.9619989 1.4830269 1.5004097 1.7435911 1.5239931 1.849033 1.9985764 1.658379
1.8300846 1.972346 1.439565 1.828307 2.0466905 2.0947511 1.8092455 1.6100839
2.0195956 1.6330327 1.97533 1.5355854 2.1599553 2.0442324 1.6767576 2.1316469
1.6122589 1.8884841 1.9136465 1.6783648 1.4991759 1.636784 1.5495659 1.6617477
2.2286355 1.9122794 1.7287633 1.6279612 1.7020983 1.7024195 2.0453577 1.5514085
1.963907 2.3505256 1.7131343 2.1424673 2.020726 1.6738044 1.9834894 1.6190844
1.7393351 2.1036615 1.4742934 1.5402431 1.8091639 2.089918 1.7350081 1.7282068
1.9518893 1.8250246 1.7290858 1.4970843 1.6934364 1.4913993 1.4776907 2.2199593
00000000: bd9c bf3f 06e9 e73f 4b1f be3f db3d e03f
00000010: 9319 0040 15ad d03f dc99 d13f d1e4 c03f
00000020: e8de cd3f 3e83 1e40 4839 1440 7050 d73f
00000030: 1913 d63f 3d15 f53f ec09 f23f b52d c73f
00000040: b464 bf3f 2d05 0e40 fca7 bf3f 0da1 dd3f
00000050: a88f d33f 4748 c53f b64d e43f d10f 0a40
00000060: 9597 0740 aff2 dc3f 86eb f03f 3456 d43f
00000070: 1d56 f13f d855 b83f 5ebc cf3f f17a ed3f
00000080: 45b4 0240 0246 e73f 4e79 c83f e967 c23f
00000090: ad7c 0c40 6aa3 ea3f b673 0f40 88fc d93f
000000a0: 1e47 0340 007b d33f f594 b73f c7ae bf3f
000000b0: db30 ea3f fe39 f33f b380 bb3f 8dae c63f
000000c0: 9f43 c73f fb94 b53f 0a57 d13f 50fe ef3f
000000d0: 685e be3f 42ec dd3f e16f d23f dc47 e23f
000000e0: 36db de3f 40d2 d73f 2bd9 d13f d62e 0c40
000000f0: d1d0 b73f db34 ce3f 4b71 d03f 262d 0040
00000100: c822 fb3f d3d3 bd3f 6d0d c03f fe2d df3f
00000110: 3512 c33f 1dad ec3f 5ad1 ff3f c345 d43f
00000120: 3640 ea3f d575 fc3f aa43 b83f f705 ea3f
00000130: fafc 0240 6710 0640 5b95 e73f 3b17 ce3f
00000140: 0e41 0140 3707 d13f 9dd7 fc3f 108e c43f
00000150: b53c 0a40 b4d4 0240 fe9f d63f e76c 0840
00000160: 805e ce3f d9b9 f13f 5ef2 f43f a8d4 d63f
00000170: ffe4 bf3f 2382 d13f 2d58 c63f 26b4 d43f
00000180: f7a1 0e40 92c5 f43f 1e48 dd3f 0861 d03f
00000190: 5bde d93f e2e8 d93f 24e7 0240 8e94 c63f
000001a0: 4e61 fb3f 036f 1640 fc47 db3f 2f1e 0940
000001b0: 9353 0140 393f d63f fbe2 fd3f 283e cf3f
000001c0: 88a2 de3f 64a2 0640 a5b5 bc3f b026 c53f
000001d0: af92 e73f 37c1 0540 bf14 de3f e135 dd3f
000001e0: 82d7 f93f 689a e93f af52 dd3f 75a0 bf3f
000001f0: 86c2 d83f 2ce6 be3f f824 bd3f d013 0e40

conv_blocks.14.bias f4 [128]
0.11658021 0.030903568 -0.18917039 0.5548096 0.053779475 0.08513464 0.18391465 0.2365751
-0.14955004 0.18435107 0.13501602 -0.18738908 0.35198686 0.21475038 0.09166074 0.055386607
0.11003677 0.08899557 -0.050989658 0.015560787 -0.19603762 0.14674623 0.08254906 0.09167404
0.016804524 -0.08841824 0.17802007 0.2045736 -0.12802659 0.11031558 0.18684989 0.0065749446
0.24008113 0.03899237 -0.20688187 0.13281243 -0.18118493 -0.13839042 -0.17931472 0.2356277
0.21973036 -0.19964047 0.15268618 0.20145406 -0.16522051 0.036859266 0.26757038 0.18070163
0.15634015 0.15045738 0.25067577 0.12445609 0.17830586 0.01583028 0.03172899 0.10771704
0.126907 -0.079326965 -0.19416754 0.007998639 0.15182999 0.104596406 -0.17175679 0.12428475
0.028772257 0.13301024 -0.16788925 -0.20992994 -0.13108678 0.06529002 0.16149947 0.20007853
0.13269989 0.18923093 0.19200137 -0.15348192 0.08720972 0.03490152 -0.22697814 -0.157609
0.14105211 0.18109356 0.027945211 -0.20613697 0.040167134 0.05079734 -0.18664573 0.11436567
0.22006236 0.15225726 -0.18546788 -0.1840656 -0.052781917 0.19160266 0.192564 -0.23181213
0.17349519 -0.18130368 0.096791685 -0.14450724 0.19589281 0.25661448 -0.17872733 0.20764358
0.0070605557 0.17951691 0.20980583 0.03313099 0.10271394 0.15835187 0.12441095 0.19237722
-0.16521895 0.0770835 0.26007313 0.21000277 0.10511942 0.17951514 0.13345024 0.13839133
0.03243462 0.12456989 0.3050886 0.21134521 -0.00823802 -0.16253978 0.18935011 0.17800595
00000000: 9bc1 ee3d 7b29 fd3c e2b5 41be 0008 0e3f
00000010: de47 5c3d 125b ae3d 1f54 3c3e be40 723e
00000020: a523 19be 87c6 3c3e a441 0a3e ece2 3fbe
00000030: 9f37 b43e 86e7 5b3e a0b8 bb3d 11dd 623d
00000040: f55a e13d 4f43 b63d 88da 50bd acf2 7e3c
00000050: 16be 48be a544 163e 7b0f a93d 99bf bb3d
00000060: a4a9 893c 9f14 b5bd e54a 363e be7b 513e
00000070: 6719 03be 23ed e13d 9455 3f3e a272 d73b
00000080: d4d7 753e 77b6 1f3d d7d8 53be fbff 073e
00000090: 8b88 39be 38b6 0dbe 479e 37be 6348 713e
000000a0: ff00 613e 8d6e 4cbe c459 1c3e f949 4e3e
000000b0: 912f 29be bef9 163d fcfe 883e d909 393e
000000c0: a217 203e 8011 1a3e 9358 803e d6e2 fe3d
000000d0: d095 363e 81ae 813c 42f6 013d c09a dc3d
000000e0: e9f3 013e 2d76 a2bd dbd3 46be b90c 033c
000000f0: 5279 1b3e a436 d63d 03e1 2fbe 0189 fe3d
00000100: ccb3 eb3c d633 083e 29eb 2bbe e0f7 56be
00000110: 9d3b 06be c6b6 853d 1e60 253e 63e1 4c3e
00000120: 7be2 073e c1c5 413e 029c 443e 5d2a 1dbe
00000130: 029b b23d e5f4 0e3d f56c 68be 4164 21be
00000140: f76f 103e 9770 393e 5bed e43c 9215 53be
00000150: 4b86 243d df10 503d 0f20 3fbe 8c38 ea3d
00000160: 0758 613e 54e9 1b3e 4beb 3dbe b17b 3cbe
00000170: da31 58bd 7d33 443e 7f2f 453e 2960 6dbe
00000180: b9a8 313e aca7 39be b83a c63d b5f9 13be
00000190: 2098 483e f962 833e 4c04 37be 85a0 543e
000001a0: 3c5c e73b 48d3 373e 57d7 563e 5cb4 073d
000001b0: b05b d23d fe26 223e 2bcb fe3d 89fe 443e
000001c0: 282f 29be f4dd 9d3d 4e28 853e f70a 573e
000001d0: da48 d73d d1d2 373e 2ea7 083e 75b6 0d3e
000001e0: 2ada 043d 801e ff3d 9334 9c3e e16a 583e
000001f0: c3f8 06bc d470 26be ffe4 413e 3147 363e

conv_blocks.14.running_mean f4 [128]
2.1695297 1.0778122 0.8299927 0.6445826 1.2397715 0.7987167 0.28309533 1.1485598
-0.6167636 0.17133719 0.27488226 -0.7829262 1.3544226 0.8728328 0.4848749 -0.14355645
0.33487234 -0.038968638 -0.48400226 -1.394523 0.06388269 1.8190292 0.2242133 -1.7874027
-0.63694984 0.08921331 0.014862125 0.22949868 -0.0021559887 -0.81594664 0.47724974 0.6094301
0.3215099 2.2836123 0.5383639 1.6129785 -0.9628409 -0.013371966 -0.71488243 0.42375427
-0.16911891 -0.8022072 -0.6628636 0.7368053 -0.78756416 -0.054214865 1.2942435 1.2529985
1.567424 2.617507 0.6921757 0.5826091 0.9713874 -0.5632584 0.21260342 -0.024618415
0.51912606 1.1171298 -0.73481154 -0.01959812 0.60937107 -0.8917025 -1.4671237 0.38772684
-0.11029446 2.154107 -1.1280755 -1.018585 -0.8317008 0.6633611 0.12641549 0.8507195
1.4052409 -0.06337451 1.1087655 0.41350242 -0.42856425 -0.6647257 1.9739246 -1.034766
-0.6005201 1.8738086 -0.6955475 0.8212236 0.0025448715 0.5473851 -0.76719075 0.28047076
1.0763727 -0.77674806 -0.78149086 -1.2933166 -0.20245539 0.71245927 0.7311674 0.81316334
0.23465177 -0.98865294 0.018501991 -0.8249916 -0.05370953 1.3812512 -0.9346413 1.1999764
0.0072574527 -0.010272217 -0.22002214 -0.4224832 -0.3413097 0.4031285 -0.53742266 0.6830779
-0.4811834 -0.5339515 1.2240838 1.1585014 -0.03505354 -0.4625834 0.89603007 -1.5300704
0.44359508 0.55648535 1.5222095 1.3174782 0.26463568 1.2532418 1.043369 -0.5347613
00000000: 93d9 0a40 c0f5 893f 677a 543f 5e03 253f
00000010: d5b0 9e3f b378 4c3f dff1 903e 0204 933f
00000020: 38e4 1dbf 0473 2f3e 5ebd 8c3e da6d 48bf
00000030: b85d ad3f f871 5f3f 8641 f83e 7600 13be
00000040: 6374 ab3e 949d 1fbd 25cf f7be bb7f b2bf
00000050: eed4 823d f3d5 e83f 2c98 653e 9dc9 e4bf
00000060: 250f 23bf 78b5 b63d 4580 733c b401 6b3e
00000070: 7d4b 0dbb e1e1 50bf 145a f43e 9c03 1c3f
00000080: f29c a43e b426 1240 37d2 093f 1476 ce3f
00000090: be7c 76bf 1716 5bbc 8902 37bf 52f6 d83e
000000a0: 822d 2dbe 735d 4dbf 6eb1 29bf 469f 3c3f
000000b0: ce9d 49bf 6810 5ebd c5a9 a53f 4162 a03f
000000c0: 5aa1 c83f 3c85 2740 6d32 313f df25 153f
000000d0: d8ac 783f b431 10bf b6b4 593e 8fac c9bc
000000e0: 72e5 043f 1cfe 8e3f 9c1c 3cbf 3d8c a0bc
000000f0: beff 1b3f 9d46 64bf b6ca bbbf 2284 c63e
00000100: 10e2 e1bd e4dc 0940 c764 90bf fe60 82bf
00000110: 58ea 54bf 08d2 293f 1073 013e c1c8 593f
00000120: efde b33f 7fca 81bd 07ec 8d3f 97b6 d33e
00000130: c66c dbbe 772b 2abf 90a9 fc3f 3673 84bf
00000140: afbb 19bf f6d8 ef3f 670f 32bf b63b 523f
00000150: dcc7 263b 6e21 0c3f 9d66 44bf dd99 8f3e
00000160: 95c6 893f f6d8 46bf c90f 48bf 668b a5bf
00000170: 7750 4fbe bb63 363f c92d 3b3f 792b 503f
00000180: 8e48 703e 5c18 7dbf 7d91 973c a632 53bf
00000190: 86fe 5bbd d7cc b03f a744 6fbf d498 993f
000001a0: edcf ed3b cd4c 28bc 7c4d 61be b84f d8be
000001b0: 25c0 aebe dc66 ce3e 8894 09bf 31de 2e3f
000001c0: ac5d f6be 0cb1 08bf c7ae 9c3f c649 943f
000001d0: 4d94 0fbd bbd7 ecbe 3a62 653f 59d9 c3bf
000001e0: e51e e33e d375 0e3f c3d7 c23f 20a3 a83f
000001f0: 547e 873e 3a6a a03f 1e8d 853f 1ee6 08bf

conv_blocks.14.running_var f4 [128]
16.939014 11.473793 20.079197 6.289619 21.692343 9.093772 5.361018 9.549794
7.554571 59.565464 102.659035 3.253738 11.485372 10.294116 54.97674 8.479013
6.57832 28.79736 5.4404736 14.304837 59.092873 12.736082 6.8551908 11.804356
50.469315 16.07496 38.496166 6.5423985 4.1609845 13.029813 12.182527 6.6199665
5.098632 23.332067 22.173857 13.601928 5.184087 4.6735 4.9725437 13.648614
27.274426 4.854836 4.6654 6.9144692 6.069098 33.808285 11.761748 12.311522
13.621345 24.169146 7.754836 26.6589 6.8960724 15.841064 29.74468 5.4536757
8.760854 9.299582 6.0121803 83.20628 9.743016 6.2494307 4.9746 50.275936
49.65217 18.923647 4.397361 3.1152494 4.5183067 11.274383 44.890583 9.909725
25.578653 34.706806 15.437089 6.3655767 32.091484 18.598608 121.84016 6.337121
46.42603 19.522003 19.103828 16.39424 76.389946 68.75763 5.2141824 6.009338
9.1222 32.98626 6.4485073 3.2791069 5.467664 14.4758625 10.361849 23.478022
104.79488 3.977417 7.3909965 4.523366 4.0642962 7.798221 5.333518 10.620922
29.105795 41.353798 38.356834 21.459284 46.94311 7.47281 49.041897 11.688636
5.3074975 46.450844 7.6958323 8.985065 25.847225 43.18471 10.437482 14.687389
132.57808 12.322982 12.88284 12.968581 11.439326 44.686104 10.234628 49.921505
00000000: 1a83 8741 a894 3741 32a2 a041 8f44 c940
00000010: eb89 ad41 1780 1141 768d ab40 f5cb 1841
00000020: 0cbf f140 0943 6e42 6d51 cd42 3e3d 5040
00000030: 15c4 3741 b3b4 2441 2fe8 5b42 0aaa 0741
00000040: 9981 d240 fe60 e641 5c18 ae40 9de0 6441
00000050: 1a5f 6c42 fec6 4b41 b95d db40 a4de 3c41
00000060: 94e0 4942 8599 8041 13fc 1942 545b d140
00000070: c926 8540 1d7a 5041 a1eb 4241 c4d6 d340
00000080: fe27 a340 13a8 ba41 0f64 b141 7fa1 5941
00000090: 0ae4 a540 508d 9540 141f 9f40 b960 5a41
000000a0: 0632 da41 d15a 9b40 f54a 9540 5543 dd40
000000b0: 0d36 c240 af3b 0742 1f30 3c41 fefb 4441
000000c0: 07f1 5941 695a c141 9e27 f840 6d45 d541
000000d0: a0ac dc40 0075 7d41 1bf5 ed41 8384 ae40
000000e0: 752c 0c41 16cb 1441 c863 c040 9e69 a642
000000f0: 65e3 1b41 56fb c740 ec2f 9f40 8f1a 4942
00000100: d29b 4642 a163 9741 2eb7 8c40 3f60 4740
00000110: f895 9040 df63 3441 f58f 3342 3c8e 1e41
00000120: 15a1 cc41 c5d3 0a42 51fe 7641 ceb2 cb40
00000130: ae5d 0042 f3c9 9441 29ae f342 b2c9 ca40
00000140: 41b4 3942 102d 9c41 a4d4 9841 6727 8341
00000150: a7c7 9842 e883 8942 95da a640 7f4c c040
00000160: 88f4 1141 eef1 0342 2c5a ce40 e3dc 5140
00000170: 1af7 ae40 229d 6741 22ca 2541 fdd2 bb41
00000180: fb96 d142 008e 7e40 0b83 ec40 6abf 9040
00000190: b70e 8240 078b f940 2eac aa40 4cef 2941
000001a0: abd8 e841 4a6a 2542 666d 1942 9dac ab41
000001b0: bfc5 3b42 4221 ef40 e72a 4442 a704 3b41
000001c0: 05d7 a940 aacd 3942 4244 f640 d4c2 0f41
000001d0: 1ec7 ce41 25bd 2c42 edff 2641 8cff 6a41
000001e0: fd93 0443 ef2a 4541 1d20 4e41 4f7f 4f41
000001f0: 7b07 3741 92be 3242 09c1 2341 9faf 4742
