trainings/n-lineas_0_Random_False/discriminator_weights.pth (torch, 426487 bytes, 23 tensors)

conv_blocks.0.weight f4 [16, 1, 3, 3]
000000 03 9a 91 be 10 41 76 3e 6a 8a d2 3e 07 44 65 be
       -0.28437814 0.24048257 0.41121227 -0.22389232
000010 c7 7e 77 be e5 78 3a 3d 73 73 68 be ae 53 7d bd
       -0.24169455 0.04552545 -0.2270029 -0.06184738
000020 82 9d 7a bd 29 1f 1c 3f fe a8 08 bd 96 91 8b be
       -0.061185367 0.60985047 -0.03336429 -0.2725951
000030 6e 0d f9 bd 09 f9 78 be 6b f9 0a be 1a 8b c4 be
       -0.12160765 -0.2431375 -0.13571708 -0.38387376
000040 66 96 99 bd 9b 10 f2 3e f4 4a 16 be e6 6a c7 be
       -0.07499389 0.47278294 -0.1467703 -0.38948745
000050 a2 a1 b4 be 14 8a 96 bd 7b c6 83 be 31 76 26 3e
       -0.35279566 -0.07350555 -0.25737366 0.16256024
000060 ba 75 28 3e 30 2e d1 3d 4d 48 2d 3e 4b e2 d1 be
       0.16451159 0.10213888 0.16922112 -0.4099296
000070 41 24 c1 3e 39 91 9f be 35 0d 19 3e 4f d7 03 3e
       0.37722972 -0.31165484 0.14946444 0.12875102
000080 6e d2 8f 3e 00 68 3e 3e 90 64 1c be 38 d5 e3 be
       0.28090233 0.1859436 -0.15272737 -0.4449861
000090 d2 47 91 3e e8 25 0c 3f 89 3c 8b be 6e 73 13 be
       0.28375107 0.5474534 -0.27194622 -0.14399502
0000a0 a1 e9 13 3d 39 ca 50 bd 12 db 12 be 68 1b 4f 3d
       0.036111478 -0.050974105 -0.14341381 0.050563246
0000b0 e4 13 40 bb 42 ec 03 bf ab 9b 55 3f 34 1d db be
       -0.002930873 -0.51532376 0.83440655 -0.42795718
0000c0 0a 8c 3d be d3 6f e0 3e c0 59 5f be 9c 65 d8 3e
       -0.18510452 0.43835315 -0.2181158 0.42265022
0000d0 f3 ae 6f bf 1c 04 0c 3f 87 ce 17 be cb cc 07 bd
       -0.93626326 0.5469377 -0.14824878 -0.03315429
0000e0 e1 d1 a0 be ee 1e 8b 3e 97 bb 44 3e b1 fe f4 be
       -0.31410125 0.27172035 0.19212185 -0.47850564
0000f0 6d 3f f3 bd 22 3e a8 3e 4c 44 fb 3d 69 9a 98 bc
       -0.11877332 0.32859904 0.12268886 -0.018628316
000100 f9 ad fe bc e8 9c c7 be 29 14 70 3e e0 b2 ee bd
       -0.031088816 -0.38986897 0.2344519 -0.116552114
000110 f5 16 2c 3e f9 53 4e 3e 9d ed 9f bd ab 37 8e 3d
       0.16805632 0.2014922 -0.07808993 0.069442116
000120 bc 1f e3 3e a1 33 3d bf c4 9b a8 3e 9f 13 39 3e
       0.4436015 -0.73906904 0.3293134 0.18073891
000130 2f 39 12 be dd 27 8d 3c 12 fe d4 be 2c e3 24 3f
       -0.14279626 0.017230922 -0.4160009 0.64409137
000140 4b 3b 91 be c9 b3 f4 bd 08 38 99 bd c2 f2 eb bd
       -0.2836555 -0.11948354 -0.0748139 -0.11520912
000150 d8 73 8c 3e 30 a3 12 3f 72 03 01 3e f2 c0 ab bd
       0.27432132 0.57280254 0.1259897 -0.08386411
000160 95 04 69 bf 1b 21 58 3e f7 48 f3 be a8 3f 9a 3e
       -0.91022617 0.21106379 -0.47516605 0.3012669
000170 4f c7 82 3e d3 1b 2d be d7 84 9a 3e af 36 67 be
       0.25542685 -0.16905145 0.30179474 -0.22579454
000180 c1 4c 93 3e 3d 16 5d bd bc 0a f2 bd 7b 10 20 bf
       0.28769496 -0.053976286 -0.11818454 -0.6252515
000190 6b 69 d8 bd d9 56 85 3d 3b 0c 1e 3f be 25 45 3e
       -0.10566982 0.065107055 0.6173741 0.19252679
0001a0 db f9 d4 bc 73 43 50 bd 54 25 32 3c 72 f6 4e 3d
       -0.025998047 -0.050845575 0.0108731575 0.050527997
0001b0 40 e7 ba 3e 6d c9 f7 be a5 c7 61 3e 92 62 90 be
       0.36504555 -0.48395863 0.22048815 -0.28200203
0001c0 24 8c 82 be 75 32 d2 3e 88 4e 9b 3c 92 db f7 3e
       -0.25497544 0.4105412 0.018958345 0.48409706
0001d0 9b 6b c3 be fb 97 5d 3e 61 e9 11 3e 36 4c 2c 3e
       -0.38168034 0.21640007 0.14249183 0.16825947
0001e0 d6 28 ff be 0d 14 3b bf ce 93 b8 bc 2a ad ec 3e
       -0.49835843 -0.7307747 -0.022531416 0.46225864
0001f0 9d c4 fe 3e a6 7b 25 be dd 44 b8 3d c3 e2 42 3e
       0.4975938 -0.1616045 0.0899751 0.19031815
000200 d6 42 b1 be 52 a3 a9 be 87 6f 35 3e 6f fa 16 3e
       -0.34621304 -0.33132416 0.17718326 0.1474397
000210 47 10 54 3e 99 7a a1 bd f6 24 b4 3e 5e 75 76 3c
       0.20709334 -0.07884712 0.3518445 0.015042631
000220 42 22 d9 be 95 29 50 3e 2e 18 0d 3e dc 55 12 be
       -0.4240895 0.20328362 0.13778755 -0.14290565
000230 fc 57 7f 3e 41 35 a1 bd 8c 25 d4 3e e7 7b e1 be
       0.24935907 -0.078714855 0.41434896 -0.44039842

conv_blocks.0.bias f4 [16]
000000 dd 73 c6 be 46 e7 9b be 41 f4 0d bf 03 70 3c be
       -0.38760272 -0.30449885 -0.55450827 -0.18402104
000010 1a 23 29 be 2c a2 bd 3e d6 27 3f be 93 c5 7b 3c
       -0.16517296 0.3703779 -0.1866754 0.01536693
000020 47 f5 bf 3e 99 f6 42 be 27 1d 90 3d 99 4c d9 bd
       0.3749182 -0.19039382 0.0703681 -0.10610313
000030 02 e5 9e 3c 04 24 a7 bd cd 63 c0 bd 9c 85 4e 3e
       0.019396309 -0.08161166 -0.093940355 0.20168155

conv_blocks.3.weight f4 [32, 16, 3, 3]
000000 18 db 01 bc 1a ce b1 be 5b 39 a8 3d db 2b 2f be
       -0.007925771 -0.34727556 0.08214065 -0.17106573
000010 b8 0a ec 3c f3 08 88 bd b4 8a a9 be 25 5e 9e be
       0.028813705 -0.06642332 -0.33113635 -0.30931202
000020 df a2 a0 bc 94 77 90 bd e3 1c 97 bd 41 ab 7e 3d
       -0.019608913 -0.07054058 -0.073785566 0.06217504
000030 46 35 0f 3d f9 ce 1d 3e c7 28 8c bd 49 77 3d 3e
       0.034962915 0.15410985 -0.06843715 0.18502535
000040 ff 30 14 3c 4b e6 a4 bc 43 4b 1e be eb 82 1f be
       0.009044885 -0.020129343 -0.15458398 -0.15577285
000050 6b dd db 3c 6f 5c c6 be 6f 66 be bd 1d db e0 3d
       0.026838979 -0.38742396 -0.092968814 0.109792925
000060 3a a7 c2 bd a7 d1 cd 3d 1f e5 c3 3d df 8d 76 be
       -0.09504552 0.10049754 0.09565186 -0.24077557
000070 2a c0 8c 3e 14 78 86 bb 64 d6 85 bd f1 80 12 3f
       0.2749036 -0.00410367 -0.065350324 0.57228
000080 7d cd e5 3d 6e c9 ea be df 6a c8 bd 03 61 6e be
       0.112208344 -0.45856804 -0.09786009 -0.23279195
000090 92 88 2b 3d 0d 8b 12 3e 74 72 bc be 8f bc e6 3c
       0.04187829 0.14310856 -0.3680607 0.028166084
0000a0 cb 5a ec bd 1f 5b 9b bd a8 f3 8e bc 40 2c 47 bc
       -0.11540755 -0.07585739 -0.017450169 -0.012156546
0000b0 62 07 04 3c 44 44 1c 3d 9a a6 94 3c fe 46 94 bd
       0.008058401 0.03815104 0.018145848 -0.07240103
0000c0 fc 37 0c bb 98 e0 12 3e 5b a2 85 bd fb 69 cb 3d
       -0.0021395674 0.14343488 -0.065251075 0.099323235
0000d0 26 6d 0c 3c 03 7e 7d bd b8 ce 13 bd c2 d4 0c 3e
       0.008570945 -0.061887752 -0.036085814 0.13753036
0000e0 6d 1d 4d bd e0 7b 80 be 48 11 ed bd e6 4b e4 bd
       -0.05007689 -0.2509451 -0.11575562 -0.11147289
0000f0 fd 53 16 be cf f7 14 be 02 63 c6 3c a2 b8 4f bd
       -0.14680476 -0.14547656 0.024217132 -0.05071319
000100 20 c8 a2 3c d6 0d 90 bd 1c a9 81 be 5a d2 10 be
       0.019870818 -0.07033889 -0.25324333 -0.14142743
000110 0f 8e 6d be 0a cb 36 3d 06 15 9a bc 66 08 ef bd
       -0.23198722 0.044627227 -0.018808853 -0.11671524
000120 03 4c 25 3e 0a f3 2e 3e 7e 6c 82 3d 3d 9a 9c 3d
       0.16142277 0.170849 0.063683495 0.07646606
000130 1c 6f 23 3d 87 c7 16 bd a7 3a dc bc 36 ce 34 be
       0.039900884 -0.036811378 -0.026883436 -0.17656788
000140 a7 62 ee bd 1e d1 9f 3d dc e4 b6 be d7 33 8c bd
       -0.1163991 0.07803558 -0.3572148 -0.06845825
000150 77 94 9f bc 5b 74 ae bc 45 d3 c4 3d 74 af 13 bc
       -0.019479973 -0.021295717 0.09610609 -0.009013999
000160 5d 38 35 bd b0 22 3a be 68 7e 18 3e 92 46 2c bd
       -0.044243205 -0.18177295 0.1489197 -0.04205949
000170 bb 59 c2 be c5 1d b8 3c 54 53 92 3d a4 12 86 be
       -0.37959084 0.022475133 0.071448 -0.26186097
000180 08 97 56 be 3e 38 6c be cd f8 44 be c2 22 8c 3c
       -0.20956051 -0.2306833 -0.19235535 0.017106418
000190 24 73 33 3c f8 81 88 bd 5f d5 1a bd 6b 33 0d be
       0.010952745 -0.066654146 -0.037801143 -0.13789146
0001a0 57 a6 1f bb 5f 8a 99 be 2d 44 f5 bd c8 6c 26 bd
       -0.002436062 -0.2998838 -0.11975894 -0.040631086
0001b0 6e 0b 46 bd 1b 70 a9 be 19 d3 38 be 28 cd 36 be
       -0.048350744 -0.33093342 -0.18049277 -0.17851698
0001c0 af 21 10 bf 2c 96 84 bd 9a 63 53 be 4a ee 92 be
       -0.563014 -0.064739555 -0.20643464 -0.28697425
0001d0 a1 01 ea bd d5 e7 74 3c fd c1 61 be 41 a6 a2 be
       -0.11426092 0.014947851 -0.22046657 -0.31767467
0001e0 c0 76 0e be 7e 04 fe bd 2f f6 0f bd 6e e1 d2 bc
       -0.13912487 -0.124032006 -0.03514689 -0.025742259
0001f0 48 36 9b be 81 6e c9 bd 29 f4 be 3c ea f9 9b bd
       -0.3031485 -0.0983553 0.023309784 -0.07616027
000200 b6 8d 0e be e7 5d fa bd 34 c1 a8 bd 2b 75 b5 3d
       -0.13921246 -0.12224942 -0.082399756 0.08860239
000210 49 2f ec bd 2e 1e 1f 3d 81 8f 03 3d 8d c4 0c 3e
       -0.115324564 0.03884714 0.032119278 0.13746853
000220 54 63 f8 bd 96 39 20 3e 86 6d f1 bc 06 7f 9c bd
       -0.1212832 0.15646967 -0.02947117 -0.07641415
000230 9e e9 a9 3d f1 d8 bc bd d5 e5 cd 3c 85 43 86 bc
       0.08296512 -0.09221066 0.025134007 -0.016389618
000240 53 6e 82 3b 8a 61 40 3d c6 35 2d 3d 32 69 58 bd
       0.003980437 0.04696802 0.04228761 -0.052834697
000250 88 f6 b8 bd 3c 43 15 be b0 5a 28 bd 6c 62 de bb
       -0.09031397 -0.14576429 -0.04110211 -0.006786635
000260 a4 2c 54 bd 8d aa 8e bd ce 95 97 be b9 ec 50 3c
       -0.051800385 -0.06966124 -0.2960648 0.012751752
000270 17 be 8d 3d 53 59 39 be 4c 04 88 be 93 8f 20 be
       0.069210224 -0.1810048 -0.26565778 -0.15679769
000280 2e 5d 7e bc 14 3e d4 bd 84 8a 00 be ef a2 27 bd
       -0.015525145 -0.10363403 -0.1255284 -0.04092687
000290 f6 1c 47 bd c9 b5 8f 3c 4e cf 00 3e c0 05 95 bd
       -0.048611604 0.017542737 0.1257908 -0.07276487
0002a0 c3 c6 1e bc cb b4 9c bd 75 1c 56 3d 6b 55 8d 3e
       -0.009690943 -0.07651671 0.052273232 0.2760423
0002b0 3b 5b 65 3e 26 b5 36 bd cb b1 9c bd d5 bb 93 3e
       0.22398083 -0.04460635 -0.07651099 0.28854242
0002c0 73 7a 5a 3e 49 0c e4 bd 18 1c 7c bd a5 eb 45 bd
       0.21335773 -0.11135156 -0.06155023 -0.04832043
0002d0 33 c0 db 3d 37 15 98 3d ea 01 8c ba 2b 6e 4c bd
       0.107300185 0.074259214 -0.0010681723 -0.04990975
0002e0 96 fc a2 bd 6b a0 86 bd 0d 10 5e bd 5d 67 48 bc
       -0.07958333 -0.06573566 -0.054214526 -0.012231675
0002f0 61 2e 11 bd c2 ff bc 3d 55 f5 a2 3d 74 f1 12 bc
       -0.03544462 0.092284694 0.079569496 -0.0089687
000300 07 07 6a 3e 1c d6 4e 3e 2c a0 b1 3c 31 a9 0f be
       0.22854243 0.20198864 0.021682821 -0.14029385
000310 ab ef a4 be 35 b7 10 be e4 e3 54 bd 58 52 45 bd
       -0.32214102 -0.14132388 -0.051975146 -0.048174232
000320 ad 08 d6 bc da a1 6a 3c 34 18 3d be 54 87 37 3e
       -0.026127184 0.014320815 -0.18466264 0.17922717
000330 9e 26 52 bd 5b 88 31 3d 5f 70 4d 3d bb ba 09 3d
       -0.05130636 0.04334293 0.050155994 0.033625346
000340 be 27 b7 bc 76 02 8c bc 50 41 16 bc 5a 04 08 3e
       -0.022357818 -0.017091017 -0.009170845 0.1328291
000350 c8 a3 15 3c 34 3e d9 bc e8 39 b9 bc bb 27 9f 3d
       0.009133287 -0.026518919 -0.02261062 0.0777125
000360 00 d2 a9 bc 24 24 53 be a2 f2 84 bd e0 8c 5f be
       -0.020730019 -0.20619255 -0.06491591 -0.21831083
000370 03 29 01 bf 94 e7 c6 bd 02 a4 a4 3e 0c 6f 00 3f
       -0.50453204 -0.09712139 0.32156378 0.50169444
000380 32 77 61 3e 24 74 b2 3d 8f 5e 23 3e 5a 14 b0 3e
       0.22018126 0.08713558 0.1595404 0.34390527
000390 12 3e de 3e 14 ce ca 3e 49 99 b3 3e 4f c4 d7 bc
       0.4340673 0.3961035 0.35077885 -0.026338724
0003a0 be 28 be 3d 6b f7 05 3e dd b3 79 bc 3d 50 ae 3c
       0.09285115 0.13082664 -0.015240637 0.021278495
0003b0 63 cf 28 3c 8e f9 c0 bd 22 21 b4 bd c8 51 ca 3d
       0.010303351 -0.09422599 -0.08795382 0.0987888
0003c0 b4 2c ca 3d d2 66 98 bd 27 e9 34 bc 4c a8 e1 bc
       0.09871808 -0.074414864 -0.011041916 -0.02754607
0003d0 1c 07 e7 ba 68 97 1d 3e 46 c1 a7 bb 04 45 be 3b
       -0.001762602 0.15389788 -0.0051194755 0.005806567
0003e0 5c a5 87 3e 83 33 23 3d dc 49 ca bd d9 55 4f 3e
       0.26493347 0.039844047 -0.09877369 0.20247592
0003f0 6d ff 53 bd 9c cb 40 3d 44 92 f3 bd 0c 7d 52 3c
       -0.051757265 0.047069177 -0.11893132 0.012847196

conv_blocks.3.bias f4 [32]
000000 06 1f 1d be 4e 8c bf bd 70 3c 3d be 1f 52 1b be
       -0.15343866 -0.09352933 -0.18480086 -0.15168045
000010 cb 56 0e bd 01 39 bd bc c1 94 03 be 36 43 2c be
       -0.03475074 -0.02309847 -0.12849714 -0.16822514
000020 23 c8 d4 bd 48 00 26 be 20 d8 8d be 02 cd 8c bd
       -0.103897355 -0.16211045 -0.27703953 -0.0687504
000030 07 11 0a be f0 dd 35 be 9e f0 cf bd 51 09 0a be
       -0.13483058 -0.17760444 -0.10153316 -0.13480116
000040 ae 8f f8 bd 1b 25 fa bd ea 18 2a be f0 f9 e4 bd
       -0.1213678 -0.122141086 -0.16611066 -0.11180484
000050 d1 a2 b7 bd e5 97 84 bd 0d f5 02 be cd 7f 03 3a
       -0.08966602 -0.06474284 -0.12788792 0.0005016297
000060 ec 87 1f be f7 00 97 bd b2 dd db bd f7 e4 13 be
       -0.15579194 -0.07373231 -0.107356444 -0.14442812
000070 fe 16 38 bd c4 68 09 be 02 32 a9 bd ce 47 dc bd
       -0.044943802 -0.13418871 -0.08261491 -0.10755883

conv_blocks.6.weight f4 [32]
000000 31 4e bf 3f f8 20 e9 3f 41 51 b7 3f 44 5e b8 3f
       1.4945737 1.8213186 1.4321672 1.4403768
000010 45 03 b7 3f 6a bb c6 3f 86 96 d2 3f b2 17 c6 3f
       1.4297873 1.5525944 1.6452186 1.5475981
000020 11 b7 cf 3f df 27 b5 3f 8b 87 c9 3f a0 64 d5 3f
       1.6227742 1.4152793 1.574449 1.6671333
000030 55 0e 41 40 0e f0 cb 3f 32 bf 1c 40 cb 5c b9 3f
       3.0164998 1.5932634 2.4491696 1.4481443
000040 2a a5 b9 3f 33 ec ac 3f 57 b4 d4 3f bb ae c6 3f
       1.4503529 1.3509582 1.6617535 1.5522074
000050 28 bd ba 3f f1 76 c1 3f a1 44 bf 3f b1 5c b0 3f
       1.4588976 1.5114423 1.4942819 1.3778287
000060 92 7a b6 3f ef 62 bf 3f bc ee b9 3f ce 83 ee 3f
       1.4256155 1.4952067 1.4525981 1.8633974
000070 d6 d6 b2 3f 5f 13 ad 3f d6 15 cd 3f c2 d9 f2 3f
       1.3971813 1.3521537 1.6022289 1.8972704

conv_blocks.6.bias f4 [32]
000000 97 a9 89 3d 6d 82 c3 3c 7d bb 7c bd 61 ee fb 3c
       0.067218 0.023865903 -0.06170224 0.030753316
000010 c2 3b 16 bd dd 5e b4 3d 02 d5 00 bb 1c 9b 92 3c
       -0.036678083 0.08807156 -0.0019658213 0.017896228
000020 89 e8 78 3d 78 b0 b3 3d f5 b2 4d 3d 41 b4 a7 3d
       0.060768638 0.08773893 0.050219495 0.081886776
000030 36 b6 cf 3d f9 1f f9 bb 92 7c 3c 3d 5b 43 30 bd
       0.10142176 -0.0076026884 0.046017237 -0.043032985
000040 a8 0a a9 3d 27 37 9c bc ee 8f 76 bd 67 5a 90 3d
       0.08253986 -0.019069267 -0.060195856 0.07048493
000050 0a f9 e7 bd a1 75 34 3d e6 2d 1b bd 31 9d 93 bd
       -0.11326797 0.044057492 -0.03788557 -0.07207716
000060 f1 3f 9b 3d 0e 70 af 3d 46 db 38 3d 08 8c 3b 3d
       0.07580555 0.085662946 0.04513099 0.04578784
000070 bd 9f 15 bb 0a 5c 94 3c cc fe 67 3d cf 4e 0f 3e
       -0.0022830807 0.018110294 0.056639478 0.13994907

conv_blocks.6.running_mean f4 [32]
000000 94 21 c5 3c 6d d3 21 bb 5a 2b 77 3c 32 e2 31 bb
       0.024063863 -0.002469267 0.015086019 -0.002714288
000010 82 91 a1 3c ba 46 a9 3c 1b 72 05 3d d6 b7 a5 3c
       0.019722704 0.020663608 0.032579523 0.020229261
000020 e6 73 ff 3c 29 96 57 3b 52 9b 0f 3c c0 52 7a bc
       0.031183194 0.00328959 0.008765059 -0.015278518
000030 67 4a 97 3c c3 0d dc 3c 4e 31 28 3d 63 10 e0 bc
       0.018468095 0.02686203 0.041062646 -0.027351564
000040 7f ca cf 3a 85 ef 95 bc af d1 77 3c 58 3a ab ba
       0.0015853195 -0.018302688 0.015125676 -0.0013063652
000050 82 24 92 bc c4 50 5b 3b 77 fd 54 bc 4a 94 1e 3b
       -0.017839674 0.0033464888 -0.012999884 0.0024197274
000060 a7 0b f5 3c c2 23 a2 3c ac ea 0d 3d 33 49 a9 3c
       0.029912783 0.019792441 0.03464763 0.020664787
000070 7e b3 97 3c 6f bc 04 3d f7 58 29 3d 4c 02 cf 3d
       0.018518206 0.032406267 0.04134461 0.1010786

conv_blocks.6.running_var f4 [32]
000000 96 d2 21 3d 99 a5 0c 3d f5 49 f6 3c bc 10 a0 3d
       0.03950747 0.034337614 0.030064562 0.07815692
000010 d4 82 ec 3c 90 6d bc 3d 43 ec 4a 3d 4c 8d 4b 3d
       0.028870977 0.09200585 0.049541723 0.049695298
000020 6b 9f 9c 3c 39 9a e7 3c c0 c2 58 3d 06 2c 04 3d
       0.019118985 0.028271781 0.052920103 0.032268547
000030 16 dd e9 3c 81 3d f4 3c 63 bf 5c 3d bd 62 44 3d
       0.028547805 0.029814484 0.053893458 0.047945727
000040 1b 82 0e 3d 51 0e 20 3d cd ca bb 3c 88 9c 8a 3c
       0.034792047 0.039076153 0.022923851 0.016920343
000050 9e 9b a0 3c 0d d0 bc 3c bf e8 93 3d 12 40 ec 3c
       0.019605454 0.023048425 0.07222127 0.028839145
000060 0a dd 9e 3d 38 5d a0 3d 09 7d cd 3d 4c 96 fa 3c
       0.077570036 0.0783028 0.10033614 0.030589245
000070 76 cc 2a 3d 43 08 1d 3d 3a 00 d9 3d 22 da ff 3d
       0.041698895 0.038337957 0.10595746 0.124927774

conv_blocks.7.weight f4 [64, 32, 3, 3]
000000 97 02 2c bc e2 41 35 be c3 a8 46 bd 12 66 26 bd
       -0.010498664 -0.17700914 -0.048500787 -0.040624686
000010 2d 4a d5 3d 8f 79 86 ba be 7f 67 3e 49 fb b7 3e
       0.104145385 -0.0010259616 0.22607324 0.35933903
000020 81 a5 bf bc 43 78 ba be e9 57 41 3c 71 d1 6a be
       -0.023394348 -0.36419877 0.011800745 -0.22931458
000030 2b e5 8c bc f2 20 dc bc 11 4b 0c bd 65 da c1 be
       -0.01719912 -0.026871178 -0.034251276 -0.37861934
000040 96 ba 2e 3d 6a e7 9b bc e4 d9 7b bd bd 56 c6 bd
       0.04265841 -0.019031245 -0.061487094 -0.09684513
000050 d0 8a 52 ba 53 48 08 3d 59 72 35 3e d5 88 65 3d
       -0.0008031549 0.0332721 0.17719401 0.056038696
000060 b7 d2 11 3e 89 9f 30 3e 18 3c 1e bd 18 08 01 be
       0.14240538 0.17248358 -0.03863153 -0.12600744
000070 1e 7d 89 3d d7 63 93 3d 64 ec bf 3d 11 83 da 3d
       0.06713317 0.07196777 0.0937126 0.1066953
000080 2f b5 98 bb d6 97 09 3d 76 3f 07 3e a9 6d 43 3d
       -0.0046602706 0.033592068 0.13207802 0.047712002
000090 21 2c 45 3e d1 ea 1e bd ca b3 dd 3d 88 d8 11 3e
       0.19255115 -0.038798157 0.10825308 0.14242756
0000a0 1d da 47 3e 4a 04 b4 3c 8f c1 1f bd 36 cb 35 3e
       0.19516797 0.021974701 -0.03900295 0.177533
0000b0 83 9b de 3c e2 b2 cc 3d f6 89 69 3b 1a e4 aa 3d
       0.027173763 0.09995057 0.003563521 0.08344288
0000c0 44 41 6e bd 1d 3d f2 bd c4 d7 4b bd 28 88 9f be
       -0.05816771 -0.11828063 -0.049766317 -0.31158566
0000d0 e5 4e 35 be bc 34 88 3c 40 08 47 3e 1f 54 32 3e
       -0.17705877 0.016626708 0.19436741 0.17414902
0000e0 22 f1 ec 3d 3f 96 07 be 52 12 08 3e d6 50 65 bc
       0.1156943 -0.13240908 0.13288239 -0.013996324
0000f0 3a ed 0a be f9 4f ab bc f4 b4 e5 3c cb e0 b8 3c
       -0.13567057 -0.020912157 0.028040387 0.022568127
000100 4f 08 f7 bd da 5b 0b bc a7 ff 0c 3e 57 73 85 3e
       -0.120621316 -0.008505786 0.13769399 0.2606456
000110 f3 e3 e3 bc 85 a0 99 bd d2 dc 0d 3e a5 26 66 bd
       -0.027818656 -0.0750132 0.13853768 -0.056189198
000120 8f ce 0c bd ee 4d 33 bd 05 31 97 3d e1 9a 48 3e
       -0.034376677 -0.04377549 0.073823966 0.19590332
000130 28 5c 6a bd f5 03 cf 3d 51 bc 13 3d 4f 2c 6d 3d
       -0.057216793 0.101081766 0.036068264 0.057903584
000140 c7 8e bf 3c 56 55 45 be a3 b7 0c be 82 b8 e8 3c
       0.023383511 -0.19270834 -0.13741927 0.028408293
000150 9a 97 fc 3d 65 19 55 bd f6 a8 f0 bc 1a cb 8a bd
       0.12333603 -0.05202617 -0.029377442 -0.0677702
000160 b3 ac 11 3d 64 79 21 3d e6 92 b8 be 62 a9 a4 bd
       0.03556509 0.039422408 -0.36049575 -0.0804012
000170 15 4e df bc 10 1a bc bd fa ff 1a bc 14 24 b4 bd
       -0.027258912 -0.091846585 -0.009460444 -0.08795944
000180 80 d8 bf bc 1d af 63 bd 95 74 07 bc 7c db 3a 3d
       -0.023418665 -0.055586923 -0.008267541 0.045619473
000190 3d 76 14 be 2f 21 88 bd f9 e6 fe 3d 36 42 01 be
       -0.1449823 -0.06646954 0.12446398 -0.12622914
0001a0 08 22 97 bd a4 e1 0e 3e 62 da 9e 3a 99 d0 07 bd
       -0.07379538 0.13953263 0.0012119527 -0.03315792
0001b0 48 52 0c bf 3b 03 06 bd 23 b8 94 b9 64 4f 26 bf
       -0.5481305 -0.032717925 -0.00028365952 -0.6496489
0001c0 f9 63 da 3c 3e 1f 72 be 72 aa 0f bf 5f 0b 85 bd
       0.026658999 -0.2364473 -0.56119454 -0.064963095
0001d0 1e 23 4f bf 57 6c 80 3e 3d 1f 36 3e bc fa ea 3d
       -0.8091296 0.25082657 0.17785354 0.11473605
0001e0 31 3e 86 3e 58 ba c8 3d a3 e0 f6 bc 2a 5c 16 3e
       0.26219323 0.09801167 -0.030136412 0.14683595
0001f0 df 70 2b 3d e5 f9 7c bb 85 e0 26 bf ea f6 ae 3c
       0.04185569 -0.0038601097 -0.6518634 0.021357972
000200 1d 75 05 bf db ec 93 be 30 14 1c 3d 83 ca c1 bc
       -0.52131826 -0.28891644 0.03810519 -0.023656135
000210 51 25 11 bf 13 11 e9 3c 9d ea de 3d 9c 73 05 be
       -0.56697565 0.028450524 0.10884593 -0.13032383
000220 70 fa 15 3d e1 1b 56 bc 6b 4e 12 3e fb d2 01 bc
       0.03661579 -0.01306817 0.14287727 -0.007923837
000230 bc 9e 93 bc 76 36 d9 3c fc d5 e1 3c b8 ab 87 bb
       -0.018020026 0.026515227 0.027567856 -0.0041403435
000240 a6 a2 d8 3c ed 1c 1c be 7e 23 22 bc 71 a1 63 3c
       0.026444744 -0.1524541 -0.009896157 0.013893471
000250 ef 00 bc 39 4d 55 3b bc 12 d5 0d 3e fb 60 91 bd
       0.0003585885 -0.0114339115 0.13850811 -0.07098576
000260 16 fb 1a bd aa 98 b9 bd b8 e1 cd bd ca c5 26 be
       -0.03783711 -0.090623215 -0.10052818 -0.16286388
000270 a6 c0 97 3d b8 28 8f bd cf 95 01 3d 5b f1 f1 bd
       0.07409792 -0.06990188 0.03163701 -0.11813613
000280 45 08 b6 3d ae 35 38 3d 6d c1 53 3e e1 4e 20 3d
       0.08888296 0.044973068 0.20679255 0.039137725
000290 b9 08 8d 3d 69 18 e1 3c 28 47 d8 3d 1b fc b9 bc
       0.06886429 0.02747746 0.10560447 -0.022703221
0002a0 6a 41 be 3d 94 f5 3b bc d2 56 24 3d 37 b1 30 3c
       0.092898205 -0.011472125 0.04012186 0.010784439
0002b0 43 94 a3 bd b9 57 7d bc 8a 0c d7 bc 8a 2e 98 3c
       -0.07987263 -0.015462809 -0.026251096 0.018576879
0002c0 4a 09 40 bd 27 ce 15 3d 56 cb 0b bd 9c 24 22 bd
       -0.04688386 0.036573555 -0.034129463 -0.039585695
0002d0 57 8f 0c 3d db 85 5c 3d 3e a9 06 3e 1c 23 2b 3a
       0.034316387 0.053838592 0.13150498 0.0006528364
0002e0 94 b1 89 bd 15 39 65 3d 6c 48 08 3d 3a f7 17 bd
       -0.067233235 0.05596264 0.033272192 -0.037101008
0002f0 fe 09 4a 3c 5e 59 2f 3e f5 57 9f 3e ab c1 f5 bb
       0.012331484 0.17123935 0.31121793 -0.0074998937
000300 77 44 1d bc b0 ed 84 3d 2a b3 95 bd 80 8b 68 be
       -0.009598843 0.06490648 -0.073095635 -0.22709465
000310 96 d6 9d be fe 1b 0d bd 9e 86 00 be 04 e1 8e bd
       -0.3082778 -0.034450524 -0.12551352 -0.06976512
000320 67 b3 e8 bd 01 24 bf bc b4 f4 59 bd c8 9c 58 3d
       -0.11362343 -0.023332598 -0.053211883 0.052883893
000330 2b 6f 3e be 37 2a 1d be 28 53 11 bd 58 a9 80 be
       -0.18597095 -0.15348135 -0.035479695 -0.251292
000340 c6 84 8b bd 88 fa b8 bb 1b 2a 8a 3c dd f4 9e bc
       -0.06812434 -0.0056451 0.01686578 -0.01940387
000350 b3 ba a3 3c 16 28 2d 3c 5d 1e 56 3e e8 30 32 3d
       0.019986486 0.010568639 0.2091002 0.043503672
000360 c3 80 0d bc 01 14 b0 bd 5c 8a 00 be b1 dc 43 bc
       -0.008636656 -0.085975654 -0.1255278 -0.011954472
000370 f6 91 18 be 68 e9 87 bd 0c 30 b2 bd 57 90 57 bc
       -0.1489943 -0.066363156 -0.087005705 -0.013156972
000380 26 03 a6 bd 74 0f 5b 3d e4 3d 83 bd 00 37 15 3d
       -0.08106069 0.053481534 -0.06408289 0.036429405
000390 65 83 21 bd 94 14 93 3c 63 4f 45 bd 8d d8 09 3c
       -0.03943195 0.017954148 -0.048171412 0.008413446
0003a0 bf 85 18 3c 21 85 b2 bc 1c 5f 84 bd fc ae 0d be
       0.009309231 -0.021791996 -0.06463453 -0.13836282
0003b0 a4 f4 f0 bc 3d 19 8a bc 03 5f db bd cf 51 a7 bd
       -0.029413529 -0.016857738 -0.107114814 -0.081699006
0003c0 e7 a9 77 be f6 81 8a bd 63 93 25 bd 45 be 54 3e
       -0.24185906 -0.06763069 -0.040423762 0.20775707
0003d0 99 ce 3d 3c 2a 42 78 be 7a cd 84 bc 97 d1 24 3d
       0.011584901 -0.2424399 -0.01621126 0.040238943
0003e0 c1 cb f3 bd f0 1a e3 bd b7 85 ae 3c 4b 10 88 bd
       -0.11904097 -0.11089122 0.021303995 -0.06643733
0003f0 ac c8 10 3c fb 4b cc 3b f1 32 17 3b 3b dd de 3d
       0.008836906 0.0062346435 0.0023071135 0.1088204

conv_blocks.7.bias f4 [64]
000000 a8 14 63 bd dc a5 4a be 9c 0e b3 be e9 ee c1 bd
       -0.05543962 -0.19789833 -0.34972084 -0.094693966
000010 f2 bf 7c bd a3 6a 0f be 29 7d c3 bd 07 89 44 be
       -0.06170649 -0.14005522 -0.09545357 -0.19192897
000020 80 dd 72 be 0a 16 be bd 87 cf bf bc 6e 93 87 bd
       -0.23717308 -0.09281547 -0.023414386 -0.06619917
000030 13 29 8a be 45 15 20 be f5 dd 35 bd 2c ae 30 be
       -0.26984462 -0.15633114 -0.044401128 -0.17253941
000040 6d aa f0 bd f6 ee 4b 3a 82 dc 62 be 2d 84 d1 bd
       -0.11751256 0.00077794434 -0.2215443 -0.10230289
000050 b3 18 e1 bd a8 fa be bd 0e c7 42 be 94 65 1e be
       -0.10991039 -0.09325153 -0.19021246 -0.15468436
000060 0d f4 99 be d7 36 bd bd 46 c3 8e be b5 80 26 bc
       -0.30069008 -0.092389755 -0.27883357 -0.010162522
000070 01 ba f5 bd bd 87 59 be 30 84 0d be 70 40 01 be
       -0.11998368 -0.21243186 -0.13819957 -0.12622237
000080 3e 8d 57 be 75 a5 1b be 7d a8 d0 bd 27 bf 30 be
       -0.21049973 -0.15199836 -0.101883866 -0.17260419
000090 62 11 18 be 5a 20 b5 bd 80 75 ee bd 84 b7 45 be
       -0.14850381 -0.08844061 -0.11643505 -0.19308287
0000a0 34 a2 18 be 4c d0 da bd 40 d7 fd bd a8 1d 12 be
       -0.14905626 -0.10684261 -0.12394571 -0.14269125
0000b0 51 5d c3 bd 41 5d 3b be b2 09 22 bd 33 a4 98 be
       -0.09539283 -0.18297292 -0.039560027 -0.29812774
0000c0 f2 d5 05 3d 52 ed 08 be b4 af 61 be 5a b5 a1 be
       0.032674737 -0.1337178 -0.22039682 -0.31583673
0000d0 5d f8 68 bd a4 47 fd bd 4f ab bc bd 94 f9 ba bd
       -0.056877483 -0.1236718 -0.09212362 -0.091296345
0000e0 f2 f9 89 be 14 11 89 be 27 81 12 be b0 f9 69 be
       -0.26948506 -0.26770842 -0.1430708 -0.22849154
0000f0 06 a9 57 be f4 88 65 be 7a 62 fd 3b 8a c8 22 bd
       -0.21060571 -0.22415525 0.0077326866 -0.03974203

conv_blocks.10.weight f4 [64]
000000 6e b8 dc 3f 14 3b e4 3f 51 d4 e0 3f 77 11 d4 3f
       1.7243783 1.7830529 1.7564794 1.656783
000010 8f 10 ea 3f 20 f6 e5 3f 82 10 b5 3f 3c d6 da 3f
       1.8286303 1.7965736 1.4145663 1.7096629
000020 56 43 02 40 7e 7a dd 3f 97 4b a2 3f 0a d2 b3 3f
       2.0353599 1.7303007 1.2679318 1.4048474
000030 6e a8 01 40 1d 60 f6 3f 9a a9 cb 3f 45 d5 cd 3f
       2.0259051 1.9248081 1.5911133 1.608071
000040 74 8d b2 3f 0e d6 e1 3f 26 85 d1 3f de 58 dd 3f
       1.3949418 1.7643449 1.6368759 1.7292745
000050 23 97 dd 3f 35 9d bf 3f e8 ea b7 3f 16 90 da 3f
       1.7311748 1.4969851 1.4368563 1.7075222
000060 ed bb f5 3f 28 10 01 40 ff 8e 04 40 58 5b e8 3f
       1.9197975 2.016611 2.0712278 1.8152876
000070 4f 67 f5 3f b1 b1 c7 3f 00 74 e4 3f ab a6 e7 3f
       1.9172152 1.5601102 1.78479 1.8097738
000080 56 04 c8 3f 57 ff c5 3f e3 81 f7 3f de 45 cf 3f
       1.5626323 1.5468549 1.9336513 1.6193197
000090 e6 37 c7 3f 19 6f cf 3f 7f 48 04 40 60 8e b4 3f
       1.5563934 1.6205779 2.0669248 1.4105949
0000a0 a1 76 c1 3f af 4c ef 3f 24 a3 e8 3f d9 95 a9 3f
       1.5114328 1.8695277 1.8174787 1.3248855
0000b0 5e 65 f1 3f 27 b1 d1 3f 87 a6 c4 3f 43 5f e9 3f
       1.885906 1.6382188 1.536332 1.8232197
0000c0 9a 7b c5 3f 21 c9 c7 3f 20 5a fc 3f 79 52 01 40
       1.5428345 1.5608255 1.9715004 2.0206587
0000d0 f3 43 ce 3f 6e 49 00 40 ae 5d db 3f b9 c8 d0 3f
       1.6114486 2.0044818 1.7137964 1.6311256
0000e0 ca ed be 3f 08 c3 ee 3f 0f ac dd 3f 7e 54 bc 3f
       1.4916317 1.8653269 1.7318133 1.4713285
0000f0 c5 bc e9 3f 45 3c f6 3f d7 b7 01 40 9e e1 d3 3f
       1.8260733 1.9237143 2.0268457 1.6553228

conv_blocks.10.bias f4 [64]
000000 7d 58 bb 3d e1 4f c0 3d f4 20 b2 3e 61 c7 39 3e
       0.09147737 0.09390236 0.34790766 0.18142463
000010 fc c2 cb bd f4 4b 49 3e 6b d2 e7 3d f3 bf 9e 3e
       -0.099493 0.1965788 0.11319431 0.3100582
000020 1d 17 c4 3c 58 ab 64 3e 69 c7 18 bd 10 42 0a 3e
       0.023936803 0.22330987 -0.037299547 0.13501763
000030 ad 2d 9d 3d 92 20 22 3d d5 83 bf 3c e6 95 e0 3e
       0.076747276 0.039581843 0.023378292 0.43864363
000040 d4 9c 25 3e 54 2a e8 bc d7 a8 b0 3d 27 ee 9a 3e
       0.16173106 -0.028340496 0.08625954 0.3025982
000050 f8 23 71 3d 21 34 08 3e 08 09 6d 3e 1d 28 dd 3b
       0.058872193 0.13301136 0.23147976 0.0067491666
000060 56 b1 9b bd dd fb 38 3d 01 e8 96 ba 06 a3 c6 3d
       -0.076021835 0.04516207 -0.0011513234 0.09699063
000070 53 d8 b3 bd 9b 12 55 3d 6f c7 96 3e 06 ec 05 3e
       -0.08781495 0.052019697 0.2944903 0.13078317
000080 21 ca 01 3e fb a3 38 3e fa d5 51 3e 05 36 ae bd
       0.12674762 0.18031304 0.20491782 -0.08506397
000090 bb 8d 18 3d 96 40 8c 3b 53 3a 1d bd 58 d0 bc 3a
       0.03724454 0.00428016 -0.0383857 0.0014405353
0000a0 89 5f c3 3d 89 62 8d bd a4 96 06 3e f3 61 45 3d
       0.09539706 -0.0690356 0.13143402 0.048189115
0000b0 be 6e 52 3e 2c 6d 9a be 79 7b fe 3d aa 6d cc 3e
       0.20550057 -0.30161417 0.12425894 0.39927417
0000c0 22 73 13 3d 15 5b 78 3d d2 69 03 3d 83 cb c7 3d
       0.03599847 0.060633738 0.03208334 0.09755614
0000d0 e2 05 68 bd 8e af 92 3e 67 9e dd 3d 05 5d c3 bd
       -0.056646235 0.28649563 0.108212285 -0.095392264
0000e0 59 41 2f 3f cb b1 11 3f fc f3 ee 3d e9 6a fd 3d
       0.6845909 0.56911916 0.1166763 0.12373907
0000f0 8e 7a c1 3d 66 e1 8a 3e 16 99 98 3c cc 42 5d 3e
       0.094472036 0.2712509 0.018627685 0.21607512

conv_blocks.10.running_mean f4 [64]
000000 8d 0c a0 3c 6e e0 48 3e bc be 9e 3d 9f 29 09 3e
       0.019537235 0.19616863 0.077512234 0.13394783
000010 d5 db 61 3d 08 36 0d 3d 69 12 a8 3d 57 66 e3 3d
       0.05514129 0.034475356 0.082066365 0.11103504
000020 51 e7 00 bd 57 b5 90 3d fd 61 9e 3e a6 7f 24 3e
       -0.0314706 0.07065838 0.30934134 0.16064319
000030 7a fe 93 3d ef 97 a7 3d 12 40 0f 3e 32 1f 93 3d
       0.07226272 0.08183276 0.13989285 0.071836844
000040 c8 79 f6 ba 5c d3 27 3d d9 ec 1f 3e 0e f8 e7 3d
       -0.0018804604 0.040973052 0.15617694 0.113266096
000050 a2 3b e2 3c c6 29 aa 3d 8f 5b 46 3d 14 78 3e 3d
       0.027616326 0.08308749 0.04842716 0.046501234
000060 4d 3b 1b 3d 6f 59 a9 3c ac 1b a1 3d f8 58 be b9
       0.03789835 0.020672528 0.07866606 -0.0003630591
000070 58 9d d1 3d ac 48 05 3d bf 02 9f 3d d1 a0 a2 3d
       0.10235089 0.03254001 0.07764196 0.079408295
000080 a6 ef 00 bd ee 68 07 bd aa e4 95 3c d2 9e 85 bd
       -0.031478547 -0.033059053 0.018297512 -0.06524433
000090 6f 29 0a 3e 2d 22 b0 3c 45 1f ec 3b fc f6 b6 3c
       0.13492368 0.021500671 0.007205876 0.022334568
0000a0 5b e4 34 3d 13 c1 22 bd 1f 9c be 3c 85 bf ff 3c
       0.04416309 -0.03973491 0.023267804 0.031219253
0000b0 18 df 11 3e 3c 84 84 3d 00 d8 83 3d b0 86 a1 3d
       0.1424526 0.06470534 0.06437683 0.07887018
0000c0 a0 eb 9d 3e 42 93 8a bd 9c 20 92 bb b8 a4 a8 3d
       0.3084383 -0.067663684 -0.0044594537 0.082345426
0000d0 38 86 4a 3d a3 4f f3 3d 8a d6 f3 3d dd fc 16 3e
       0.049444407 0.11880424 0.119061545 0.14744897
0000e0 19 3b db 3d c0 1b 1c 3d ef 74 cf 3d da 31 60 3e
       0.10704631 0.038112402 0.10129725 0.21894017
0000f0 07 15 c5 3d a9 2d 8a 3d d2 26 45 3d b2 4e 39 3d
       0.09623151 0.0674699 0.048132725 0.045241065

conv_blocks.10.running_var f4 [64]
000000 62 99 27 3e cf b5 1a 3f 89 1c c3 3e cd d2 46 3e
       0.16367105 0.6043367 0.38107708 0.19416352
000010 8a ec 93 3e 06 15 98 3e c8 7c bb 3e 59 5a bd 3e
       0.28891402 0.2970354 0.36618638 0.36982992
000020 b4 eb 02 3e 96 64 5e 3e 35 f4 fb 3f e2 d9 38 3f
       0.12785226 0.21718058 1.9683901 0.7220746
000030 77 5b b9 3e 69 06 89 3e 20 9c ae 3e 41 9e 8b 3e
       0.36202595 0.26762703 0.3410349 0.27269176
000040 f2 9e 46 3e 88 d3 85 3e ad c3 10 3f 3d 0c 05 3f
       0.1939657 0.26137948 0.5654858 0.519718
000050 22 34 82 3e c5 e6 e8 3e 6f 2d 6e 3e 98 cb ad 3e
       0.254304 0.45488563 0.23259519 0.33944392
000060 f9 c5 7f 3e d5 34 71 3e ef 8a e7 3e 22 e8 3c 3e
       0.24977864 0.2355531 0.45223185 0.18447927
000070 8e 35 aa 3e 51 59 51 3e b7 5a ad 3e 25 eb 80 3e
       0.33243984 0.20444228 0.33858272 0.251794
000080 95 68 0e 3e a9 5b 17 3e d5 78 57 3e c4 bb 15 3e
       0.13907082 0.1478106 0.21042188 0.14622408
000090 e7 dd 25 3f 6a c0 1b 3e c3 5e 49 3e e9 81 84 3e
       0.6479172 0.15210119 0.19665055 0.25880364
0000a0 26 7e 83 3e 61 50 30 3e 99 85 37 3e dd c1 4a 3e
       0.2568218 0.17218162 0.17922057 0.19800515
0000b0 f6 ed b0 3e 8f fb b2 3e a5 5f c7 3e 0d 70 c2 3e
       0.3455655 0.3495755 0.38940158 0.37976113
0000c0 eb 95 ce 3e 7e ae 46 3e 63 be 5d 3e 92 f4 6d 3e
       0.40348753 0.19402501 0.21654658 0.23237827
0000d0 a1 a7 52 3e 37 77 d5 3e 69 0c b5 3e 6d c8 e9 3e
       0.20571758 0.41692516 0.3536103 0.45660725
0000e0 9e 7f 8e 3e 40 cb 47 3e 9b 03 90 3e 69 e5 5f 3f
       0.2783174 0.19511127 0.2812775 0.8745943
0000f0 3c a6 e4 3e 48 71 eb 3e c9 6a 73 3e 86 ea 93 3e
       0.44658077 0.45984864 0.23771204 0.28889865

conv_blocks.11.weight f4 [128, 64, 3, 3]
000000 dc 29 d7 be dc e6 1a bf ce cf 05 3e c6 75 9d be
       -0.42024124 -0.60508513 0.13067552 -0.30753917
000010 b1 be 2e 3e 3f f4 a6 bd 95 99 28 be cf 80 af bc
       0.1706493 -0.08152055 -0.16464837 -0.021423725
000020 49 46 51 bc 87 6e 65 3d 71 20 29 3d 9c 57 69 be
       -0.012773105 0.05601361 0.041290704 -0.22787327
000030 d4 15 5a be 78 f1 08 3e db b3 2c bd 8a 98 c5 bd
       -0.2129739 0.13373363 -0.04216371 -0.09648235
000040 16 fc 93 bd e8 a2 d2 3d 82 a8 2e 3e eb ed 58 bd
       -0.07225816 0.10284978 0.17056468 -0.05296127
000050 d6 5e 78 be 97 a5 15 be 4a 99 ef 3d 94 7e 98 bd
       -0.24254927 -0.14613949 0.116991594 -0.07446018
000060 c4 40 58 3e 08 3a 07 be 76 68 5d 3d af a0 bb 3c
       0.21118456 -0.13205731 0.0540547 0.022903768
000070 53 eb 82 3d af 06 df 3c 9b 10 c0 3d 75 f3 34 be
       0.06392541 0.027224867 0.09378167 -0.17670996
000080 db 5c 53 bd 6a ee e0 bc e2 f5 53 3e 0a 28 2b 3d
       -0.051602226 -0.027457435 0.20699266 0.04178623
000090 1b 85 bb bc f7 d3 b9 3e 29 d3 3b bd e4 3e 88 3d
       -0.022890618 0.3629453 -0.045855675 0.066526204
0000a0 bc 3a 09 be 3d 9c 0c 3c 3d 8d 8c bd 44 b7 20 be
       -0.13401312 0.008582172 -0.068628766 -0.1569491
0000b0 b4 d5 4f 3d 4a f3 5e be a9 41 e5 be af 1b 83 be
       0.050740913 -0.21772495 -0.44776657 -0.25607058
0000c0 45 82 18 be 2a fc 78 3d 46 30 b7 3c 9f 0f 23 be
       -0.14893444 0.060787357 0.022361886 -0.15923928
0000d0 06 f7 03 bc ae e0 d7 bb 97 d9 fc be d6 33 46 be
       -0.0080545 -0.006588063 -0.49384758 -0.19355711
0000e0 34 dc e0 bc e5 3c 08 be 93 e0 b6 be 3c cc e6 bc
       -0.027448751 -0.1330448 -0.35718212 -0.028173558
0000f0 ff 95 71 be cb 14 c6 bb bf 3e 59 3c 90 5f 18 be
       -0.23592375 -0.006044959 0.013259589 -0.14880204
000100 8d fb 45 be d5 c1 74 be 3c 77 e2 be f9 ea dc 3d
       -0.1933424 -0.23902066 -0.44231594 0.10787005
000110 27 0d a6 bd a2 1a cb be f0 79 39 be a6 fc 31 3d
       -0.08107977 -0.39668757 -0.18112922 0.043453835
000120 05 ba 90 bd 9e 99 84 be 2d bc b0 3d c5 2e d0 3d
       -0.070667304 -0.2589845 0.08629642 0.101651706
000130 25 4e e1 bc 46 45 63 3e c1 7f 04 be 43 c9 ea bd
       -0.027503083 0.22194394 -0.12939359 -0.11464169
000140 42 3f 18 3c a9 61 d6 be 68 3a 31 3d c5 70 02 bd
       0.009292426 -0.41871384 0.04326859 -0.031845827
000150 c7 b9 87 be 4b 3a 17 3e c5 6b f6 bd ef b6 d6 be
       -0.26508924 0.14768331 -0.12032274 -0.41936442
000160 92 b8 2f bd a5 07 1c 3d 37 10 3b 3d 08 85 49 3e
       -0.04290063 0.038093228 0.04566976 0.19679654
000170 e2 7e 4a 3e 1a 98 6d 3d 7d ac 4e bd 15 be 92 3d
       0.19774964 0.058006383 -0.050457466 0.071651615
000180 5a c0 83 3b b8 15 9e bb 0a 32 a0 3c 1f 2c 28 be
       0.004020733 -0.0048243664 0.01955511 -0.16423081
000190 1d 38 d3 be 86 47 cc 3d 4e 09 9e bd a1 04 19 be
       -0.4125375 0.099745795 -0.077166185 -0.14943172
0001a0 b4 56 bf 3d 8a 40 3b 3e 8c 0b 02 be 86 f7 39 bd
       0.09342709 0.18286338 -0.12699717 -0.045402072
0001b0 88 b4 53 3d f8 e2 85 3d e8 eb b0 3d 62 2d 23 be
       0.05168584 0.065374315 0.086387455 -0.15935281
0001c0 09 82 2f 3e 2e 0d 8b bc 62 d1 af 3d 56 f7 13 3e
       0.17139448 -0.016974058 0.085848585 0.1444982
0001d0 63 a4 41 bc a6 38 f0 bd 68 08 b3 3d 95 0e 21 be
       -0.011818978 -0.11729555 0.08741838 -0.15728219
0001e0 2c 44 23 be 35 a4 bc 3d c7 1b 4a be b3 6e a6 bd
       -0.15943974 0.092110075 -0.19737159 -0.08126583
0001f0 c4 fd 13 3e 50 83 fc 39 15 2f 84 bd 94 8f d1 bb
       0.14452273 0.0004816302 -0.06454293 -0.0063952897
000200 d9 ff 9f bc b1 5f 7f bd db 9e 7d bd 84 1c 8b 3c
       -0.019531177 -0.062347118 -0.061919075 0.01698137
000210 38 67 12 bf c8 e4 e4 be e3 73 91 3d 53 91 8a be
       -0.5718875 -0.44705796 0.07102182 -0.27064
000220 a7 7a f4 3d e1 5d 2f be 58 f2 af be 4d 61 5b be
       0.119374566 -0.17125656 -0.3436458 -0.21423836
000230 16 c8 ad bb 9d 2a 0f be 9a 23 c9 bd d7 9f 81 3d
       -0.005303393 -0.139811 -0.098212436 0.06329315
000240 88 df b2 3d 15 d3 1f be 11 b6 1d 3e 21 bc 47 bc
       0.087340415 -0.15607865 0.15401484 -0.0121908495
000250 47 df 2e 3e 75 4f 1e be 6c 61 02 be 0b ce ab 3e
       0.17077361 -0.15459998 -0.12732476 0.33555636
000260 18 90 94 bd 0d c3 14 be fb 5e 97 3e 80 63 a9 bc
       -0.07254046 -0.14527531 0.29564652 -0.020677328
000270 59 5b b0 3e 26 57 44 be 62 90 be bd e7 f2 83 bd
       0.34444693 -0.1917387 -0.093048826 -0.06442814
000280 f0 7b 4e be 14 c8 46 3d fa 89 56 bf 70 bb dd bd
       -0.20164466 0.048530653 -0.83804286 -0.108267665
000290 c1 d9 cc bd fc dc 1a bf 8d 3c bd be 03 fe 02 be
       -0.10002471 -0.60493445 -0.3696026 -0.1279221
0002a0 22 83 46 be 0b 6c 04 be 9e 1a ef 3c 0e 97 70 be
       -0.1938596 -0.1293184 0.029187497 -0.23495123
0002b0 49 87 71 3d a0 7e 87 bd ca 08 14 bd 0d 2d 9a bd
       0.05896691 -0.06615949 -0.036141194 -0.07528124
0002c0 5e 9b e5 3d 15 08 9c be ae 4f 1d be 6f 46 c3 3d
       0.112112746 -0.30474916 -0.15362427 0.095349185
0002d0 f2 fc 6f 3b bb 6c 80 3e e7 91 52 bd 41 e4 7f bd
       0.0036619273 0.25082955 -0.051408675 -0.06247354
0002e0 ed 13 88 be 01 c3 5f 3d 7a 5a 2c 3d 10 7c 3e be
       -0.26577702 0.05462933 0.042078473 -0.18602014
0002f0 09 46 18 39 73 7d 8d be df 5c 16 be a8 cc cf be
       0.0001452194 -0.27634773 -0.14683865 -0.40585828
000300 95 38 83 be 94 63 aa 3d 2d 20 c6 bc be 13 20 be
       -0.25629106 0.08319774 -0.024185264 -0.15632531
000310 3f 43 74 3d 9a 58 ad 3d 60 c4 1e bf 06 d6 00 bd
       0.059634443 0.08464165 -0.62018394 -0.03145411
000320 2b dc 9a be fc 78 df be 2c 8b 73 bd 41 a1 af bd
       -0.302461 -0.4364699 -0.059458897 -0.085756786
000330 78 b3 f8 be 0a 79 1f be 1b de f4 3d 8d 3b e5 3c
       -0.48574424 -0.15573516 0.11956426 0.027982498
000340 d3 46 10 3f 6a ab 37 bc a5 60 2f 3e b1 11 89 be
       0.5635807 -0.011210302 0.1712671 -0.2677131
000350 81 7e 96 3d 00 41 9b be 1b 06 f4 3d 46 fd 08 3d
       0.073483475 -0.3032303 0.11915227 0.033444665
000360 d1 59 5f 3e 92 c9 f5 bc 83 82 02 bb 12 96 28 3f
       0.21811606 -0.030003343 -0.0019914217 0.6585399
000370 0a 8d f0 3c 88 7a 80 bd 8e 60 5b 3e 60 de a3 3d
       0.029364128 -0.06273371 0.21423551 0.08001399
000380 93 08 f3 bc 80 1f 17 be 29 82 cd 3d 02 18 5d 3c
       -0.029667174 -0.1475811 0.10034592 0.013494493
000390 5f da 6b bd a3 9a 32 be 5c 87 4f bd 0c 82 74 3d
       -0.0575813 -0.17441802 -0.050666198 0.059694335
0003a0 d3 84 bc bd 3a 64 18 bc 10 39 41 be 73 d3 f6 3d
       -0.09205022 -0.00930124 -0.18869424 0.120520495
0003b0 2c 63 1e 3e c2 b0 a7 3d a1 04 d4 bd b0 cc 43 bd
       0.15467519 0.08188011 -0.103524454 -0.047802627
0003c0 5d 40 1c bc 36 a6 fa 3d 13 83 19 bd 0d f2 80 3e
       -0.00953683 0.122387335 -0.037478518 0.2518467
0003d0 2b a9 a7 3e 9d f6 45 be 24 b1 b5 3c e1 89 02 bd
       0.32746252 -0.19332357 0.022179194 -0.031869773
0003e0 02 9e d2 bc 44 1c 09 be fa 39 ce ba 9b 62 5a 3d
       -0.02571011 -0.13389689 -0.0015733831 0.053316694
0003f0 53 2a 9b 3e 56 6f 89 bd 82 2d 32 bc f2 40 19 3f
       0.30305728 -0.06710689 -0.010875108 0.59864724

conv_blocks.11.bias f4 [128]
000000 d4 1e 02 be e9 bc ab bb f1 90 ca bd 6f a8 69 be
       -0.12707072 -0.0052410257 -0.09890927 -0.22818159
000010 4b 3a b9 be ac f9 36 be fc 49 a6 be 4c ab 08 3d
       -0.36177287 -0.1786868 -0.3247832 0.033366486
000020 53 9f 95 be 67 7a 31 bd 3a 46 25 be e0 26 8b bd
       -0.29223117 -0.043329623 -0.1614007 -0.06794524
000030 bf 59 af be 88 e9 c5 bd c1 3a ab be 4e 29 dc be
       -0.34248158 -0.09663683 -0.33443263 -0.43000263
000040 1c 36 63 be fc dd 58 be 22 56 62 be 3e f9 b6 bd
       -0.2218861 -0.2117843 -0.2210317 -0.08934258
000050 a8 63 46 be 3f d2 12 be 6e 7a a8 be 28 bb 63 be
       -0.19373953 -0.14338015 -0.32905906 -0.22239363
000060 27 c7 26 be a3 c9 ff bd 7d 32 fa bd c9 0a 79 be
       -0.16286908 -0.12489631 -0.12216661 -0.2432052
000070 71 b9 5f bd 0c d7 cb bd c2 bd e5 bd 99 4d d6 3c
       -0.05462021 -0.09953126 -0.11217834 0.026160048
000080 fb 2c 14 bd 08 49 93 bc 25 c7 51 bd 32 13 36 be
       -0.03617571 -0.01797916 -0.05121531 -0.1778076
000090 eb 16 04 3c b0 b3 55 be bd b4 44 be 96 f9 61 be
       0.008062105 -0.20869327 -0.19209571 -0.22067866
0000a0 75 37 36 be 75 e9 27 be 6d bb 09 bd 3b 9c 13 be
       -0.17794593 -0.1639765 -0.03362601 -0.14415066
0000b0 62 07 60 be 5f eb a0 ba 1f 7d 19 be 51 19 79 be
       -0.21877816 -0.0012277177 -0.14989136 -0.24326064
0000c0 75 49 46 be 45 9b e8 bd d5 8a 47 3d 57 bd cd 3c
       -0.19363959 -0.1135774 0.048716385 0.025114698
0000d0 9e ca dc bd 95 29 33 3c a9 5e 0f be 27 99 86 be
       -0.10780834 0.010935207 -0.14000954 -0.2628872
0000e0 fe c7 87 bc 7d 4d 35 be 24 08 ad be 93 9c ed be
       -0.016574856 -0.1770534 -0.33795273 -0.4640852
0000f0 e7 e5 0f be 13 33 47 be 96 b9 01 be 38 4e 3d be
       -0.14052545 -0.19453077 -0.12668452 -0.1848687
000100 70 98 00 be 3d d3 9a be e7 b2 47 be db 7b 0a be
       -0.1255815 -0.30239287 -0.1950184 -0.1352381
000110 99 34 73 be 41 fc 74 bd 19 73 07 3d 0c 08 b3 be
       -0.23750533 -0.05981088 0.03306875 -0.34967077
000120 e9 b1 b1 be 65 a6 2d be 2e d0 18 3c d4 0f f9 bd
       -0.34706047 -0.16958006 0.009326978 -0.12161222
000130 d7 d3 3f 3e fc b4 89 be 73 58 6a bb 54 10 7e 3d
       0.18733154 -0.26895893 -0.0035758286 0.06202729
000140 60 a9 03 3e bf d4 5d bd f6 f6 0c be ed f8 cc 3d
       0.1285758 -0.05415797 -0.13766083 0.10008416
000150 c3 08 77 be 9d 1e 43 be 0f 50 72 bd 3c 9a 6f be
       -0.24124436 -0.19054647 -0.05915838 -0.2339868
000160 a6 7d 29 be ec 2d 4a be 11 8d e7 3c 0b 14 f4 bd
       -0.16551837 -0.1974408 0.028265508 -0.119178854
000170 95 14 11 be 99 fa 99 3d c7 7a f4 bd 87 14 6f be
       -0.14168008 0.07518501 -0.119374804 -0.23347674
000180 21 d6 a9 be 4b 8d 2a be 31 32 45 3d dd bf d0 bd
       -0.3317118 -0.16655461 0.04814357 -0.10192845
000190 69 51 22 be 55 c7 ad be a1 90 85 bd f3 4e 3e be
       -0.15851368 -0.3394114 -0.065217264 -0.18584804
0001a0 9d 27 75 be c4 15 8d bd 75 95 78 bd c6 74 22 be
       -0.23940893 -0.06888917 -0.06068941 -0.15864858
0001b0 4e ec 2b bc cd ea 3f 3e 40 33 85 be 70 82 bc bd
       -0.010493351 0.18741913 -0.26015663 -0.092045665
0001c0 37 09 ac bd 00 c7 d3 3a d2 5c 1f be 77 6a e6 bd
       -0.08400195 0.0016157329 -0.15562752 -0.11250775
0001d0 d4 d0 43 3d 2c 23 ab 3a fd 92 99 be 89 62 60 be
       0.047806576 0.0013056747 -0.29994956 -0.21912588
0001e0 c3 b3 83 be 66 bf 28 be 8d e5 4b be fe e8 b3 be
       -0.25723085 -0.16479263 -0.19911785 -0.35138696
0001f0 f6 5e 24 be 74 58 b5 be 41 83 92 be b7 aa 88 be
       -0.1605185 -0.35419047 -0.28615764 -0.26692745

conv_blocks.14.weight f4 [128]
000000 f2 0a e0 3f 5d da f2 3f f5 70 d7 3f 29 76 d6 3f
       1.750334 1.8972889 1.6831347 1.675481
000010 5b 58 03 40 68 46 0e 40 47 b9 ff 3f c6 b6 bf 3f
       2.0522678 2.2230473 1.9978417 1.4977653
000020 99 6c 11 40 dd 18 e6 3f c2 e3 f4 3f f8 5f 11 40
       2.2722533 1.7976338 1.9132006 2.2714825
000030 4d e7 b2 3f c5 6d ad 3f 20 5e dc 3f 8b 3c a5 3f
       1.3976837 1.3549124 1.7216225 1.2909101
000040 27 b2 18 40 3d fd d1 3f 12 04 01 40 f9 fb c3 3f
       2.3858736 1.6405407 2.0158734 1.5311271
000050 90 f3 20 40 23 06 dc 3f e7 6c 02 40 51 8b 06 40
       2.5148659 1.7189373 2.0378969 2.1022532
000060 5d d7 1a 40 06 60 02 40 85 b0 d4 3f 95 1d e5 3f
       2.4193947 2.0371108 1.661637 1.7899653
000070 d3 9c 07 40 e8 72 d3 3f f9 ac d4 3f 97 bc b6 3f
       2.1189468 1.6519442 1.6615287 1.4276303
000080 c3 88 ec 3f 27 81 d7 3f 41 5b bd 3f 91 ba c8 3f
       1.8479236 1.6836289 1.4793473 1.5681936
000090 ec 76 31 40 20 39 f4 3f d7 ab f0 3f 0b 12 d1 3f
       2.7728834 1.9079933 1.8802441 1.6333631
0000a0 ee 4a 26 40 42 6e 03 40 e6 96 00 40 f5 ec e1 3f
       2.5983233 2.0536046 2.00921 1.7650439
0000b0 75 48 e0 3f a1 30 ec 3f 81 7b cc 3f ef f7 c8 3f
       1.7522112 1.845234 1.597519 1.5700663
0000c0 a8 09 d3 3f 34 b8 0e 40 0b 1e b5 3f 47 cb b9 3f
       1.6487322 2.2299929 1.4149793 1.451516
0000d0 99 3f c5 3f e2 73 e1 3f 15 02 29 40 56 5d ed 3f
       1.5410033 1.761349 2.640752 1.8544109
0000e0 aa b9 b5 3f 65 f9 ca 3f 84 a7 01 40 ec e8 d8 3f
       1.4197285 1.5857359 2.0258493 1.6946082
0000f0 d8 3e c0 3f 38 5f fc 3f 37 cf 1e 40 b7 30 dd 3f
       1.5019178 1.9716558 2.4813974 1.7280492
000100 e3 4d 04 40 83 d6 f5 3f fe fe e2 3f 64 99 ce 3f
       2.0672538 1.9206089 1.7734067 1.6140561
000110 e3 5a ea 3f cc bf f5 3f 87 7f 51 40 bd b0 fe 3f
       1.8308986 1.9199157 3.2734087 1.9897686
000120 40 5c fd 3f 86 22 bc 3f a9 c3 2e 40 ae 08 18 40
       1.9793777 1.4698036 2.7306921 2.3755298
000130 1e ee be 3f 6e 32 06 40 58 b9 54 40 8d 2e 9f 3f
       1.4916418 2.096828 3.3238125 1.2436081
000140 41 6e bf 3f 10 09 9e 3f 91 6f 0b 40 50 5b cb 3f
       1.4955522 1.2346516 2.1786845 1.5887241
000150 b4 6f da 3f f0 45 06 40 67 98 0a 40 3e 75 e5 3f
       1.7065339 2.0980186 2.165552 1.7926404
000160 6c f8 2e 40 5c 6a ef 3f ee 62 c6 3f 04 ae ed 3f
       2.7339125 1.8704333 1.5498941 1.856873
000170 fc 13 e4 3f 42 c7 48 40 11 b5 0e 40 9b 98 0d 40
       1.7818599 3.1371617 2.2298014 2.2124393
000180 c4 bd 25 40 15 20 ef 3f 78 e6 07 40 ad ad 53 40
       2.5897074 1.8681666 2.1234417 3.3074753
000190 90 de be 3f 57 42 cb 3f bc 98 fc 3f 28 77 1a 40
       1.4911671 1.587962 1.9734111 2.4135227
0001a0 1c 54 05 40 3f 34 00 40 63 ea 11 40 77 e9 03 40
       2.0832586 2.0031888 2.2799308 2.0611246
0001b0 5a 99 fa 3f 69 32 c2 3f 32 0e fc 3f 76 54 c5 3f
       1.9578049 1.5171634 1.9691832 1.54164
0001c0 a1 43 0c 40 a0 de da 3f 08 17 ff 3f ff 02 f8 3f
       2.1916277 1.709919 1.9928904 1.9375914
0001d0 1b df b7 3f 5b 8e cd 3f 08 00 0e 40 bb 84 ff 3f
       1.4364961 1.6059068 2.218752 1.9962381
0001e0 b3 ff c6 3f 82 5b 0e 40 a1 a3 01 40 d6 bf b5 3f
       1.5546783 2.2243352 2.025612 1.4199169
0001f0 e4 a2 19 40 63 d8 ab 3f 78 4e 00 40 f7 c4 10 40
       2.400567 1.3425411 2.0047894 2.2620218

conv_blocks.14.bias f4 [128]
000000 f8 c1 61 3c ef fd 8c bd e9 33 c2 bc c2 fb 38 3c
       0.013779156 -0.068843715 -0.023706393 0.0112904925
000010 db e5 87 3c 03 96 be 3b d1 b9 b6 3c a9 bf 81 bd
       0.016589096 0.0058162226 0.022305401 -0.063353844
000020 95 b1 05 bd 24 27 92 bd 54 37 68 3d 5c f4 50 3c
       -0.03264006 -0.07136372 0.05669339 0.012753572
000030 9d e5 d9 ba 91 a2 9d 3d 34 0e 84 bc c5 16 b1 3d
       -0.0016624216 0.07697023 -0.016120054 0.08646921
000040 84 92 70 bd f1 58 1f bd c8 15 85 3c 9d e1 7a bd
       -0.05873348 -0.03890318 0.016245738 -0.061250318
000050 60 82 98 bd fd 07 5b 3d 24 cd 64 bd c7 76 14 bd
       -0.07446742 0.053474415 -0.0558597 -0.036246087
000060 b7 72 aa 3c 52 b0 85 bd b7 23 42 3d f0 15 54 bd
       0.020806653 -0.06527771 0.04739734 -0.051778734
000070 1f b5 4e bc ae 6e 12 3d c0 ca 37 3d 91 02 97 bd
       -0.012616425 0.035750084 0.04487109 -0.073735364
000080 c3 b8 8d bd 49 f5 89 bd b6 77 2d 3d 5d bd 92 3d
       -0.06920006 -0.067362376 0.042350493 0.071650244
000090 76 e0 64 3d c3 65 5e 3d 80 9d be 3c 47 c0 a1 bc
       0.055878125 0.054296266 0.023268461 -0.019745005
0000a0 42 67 79 bd ec 69 65 bd 21 72 4b bd 19 2b 6f bd
       -0.06088949 -0.056009218 -0.04966939 -0.05839071
0000b0 30 0b f3 bc 46 18 64 bd 21 fc 10 bb 3e 1b 07 bd
       -0.02966842 -0.05568721 -0.0022122937 -0.032984965
0000c0 9c 4b 61 3d ce d7 3d bd da 14 a5 bc 9a 58 15 3d
       0.055003747 -0.046348386 -0.020151544 0.03646145
0000d0 0d 9a 25 bc 75 fa 1a bd 0d 14 6a bb e0 7e 91 3d
       -0.010107529 -0.03783651 -0.0035717518 0.071042776
0000e0 c7 d7 44 bd 55 cf 94 bd 83 50 a0 bd 0f 2b 4d bd
       -0.048057344 -0.07266108 -0.078278564 -0.050089892
0000f0 43 28 cb bc 99 52 54 3c b9 22 10 3d 8f 87 75 3d
       -0.024799472 0.012959146 0.035189364 0.059943732
000100 b2 3d 37 bd 92 42 30 3d c4 7b 6d 3d 7e 22 77 3d
       -0.04473657 0.043032236 0.05797936 0.06033563
000110 98 83 8e bc ba f0 54 3b 8c 0c 7f bd 2c df 12 bc
       -0.017396733 0.0032492117 -0.062267825 -0.008964341
000120 94 ab 0a 3d c5 90 87 bd 97 b0 53 3d 6e 9f a4 bd
       0.033855036 -0.066194095 0.05168208 -0.08038221
000130 48 27 37 be 78 20 bd 3c 49 f1 64 bd 18 73 a1 bc
       -0.17886078 0.023086771 -0.05589417 -0.019708201
000140 06 eb 82 bd 11 7c 87 3d ca 15 ee bc 09 30 9e bc
       -0.063924834 0.06615461 -0.029063124 -0.019310014
000150 d1 75 ea bc bc 7f 91 bd 49 54 24 bd db a6 70 3d
       -0.028620632 -0.071044415 -0.040119443 0.058752876
000160 75 4b 9d bc 59 5f 7b 3d cc 9a 81 bd f6 63 86 bd
       -0.01920102 0.061370227 -0.06328353 -0.06562035
000170 f7 ad 8b 3d c8 88 5f bd 67 67 b9 3b 59 2f 43 3d
       0.068202905 -0.054573804 0.0056580785 0.047652576
000180 5f 3c d8 bc bf 30 5e 3d f2 e7 30 3c e7 c7 4b 3d
       -0.026395975 0.054245707 0.010797488 0.04975119
000190 54 0e 52 3d 95 b5 e2 bc 5c ae 7b bd 56 8e 65 3d
       0.051283196 -0.027674476 -0.06144558 0.056043945
0001a0 ed 04 88 bc 28 59 22 3c a3 1e 6a 3c d9 d3 83 bd
       -0.016603911 0.009908952 0.014289531 -0.06436891
0001b0 8c 85 47 bd a2 40 6e bd eb 86 46 3d 14 d5 68 3d
       -0.048711345 -0.058167107 0.04846851 0.056843832
0001c0 c5 7c 8c bd e5 24 62 3d 46 03 9c bd 5c b3 91 bd
       -0.068597354 0.055210967 -0.07617812 -0.07114288
0001d0 25 fc 5a bd d9 c4 60 bd b3 77 d3 bc 99 72 34 3d
       -0.05346312 -0.05487523 -0.025813913 0.0440546
0001e0 1e ec 37 bd 09 2c 2e 3d a5 a2 0e 3d 5c b3 27 bd
       -0.044902913 0.042522464 0.03482308 -0.040942535
0001f0 ff 4f 0d bd db 92 e5 3d 7c cb 72 3c 93 12 61 bd
       -0.03450012 0.11209651 0.014819022 -0.054949354
