trainings/n-lineas_5_Random_True/discriminator_weights.pth (torch, 426026 bytes, 23 tensors)

conv_blocks.0.weight f4 [16, 1, 3, 3]
000000 3f 44 d3 3e e7 43 a4 be 71 94 d1 be 2a eb e1 3d
       0.41263005 -0.32083055 -0.40933564 0.11031182
000010 2f 52 aa bc 7c b2 d5 bd 13 8a 04 bf fc 72 b0 3e
       -0.020791141 -0.10434434 -0.51773185 0.34462726
000020 8b 96 de 3e 41 fa 83 3e 22 57 f1 bd 54 97 a0 bd
       0.4347423 0.25776866 -0.117841974 -0.078413635
000030 a5 3d 2a bc 66 e3 bd 3e e7 8f 8b bd a6 b4 24 be
       -0.010390674 0.37087554 -0.068145566 -0.16084537
000040 46 7e a7 be d1 59 a0 be 0b 07 6c bd 6b 78 96 bc
       -0.32713526 -0.31318524 -0.057623904 -0.018367967
000050 c0 62 10 be d0 48 a0 bd 61 42 38 3d 30 00 f9 bd
       -0.1410017 -0.07826388 0.04498518 -0.12158239
000060 0a 31 e1 bd 26 29 af bd 6b 35 a4 bd bc 0c 1f bd
       -0.109956816 -0.0855277 -0.08018001 -0.038830504
000070 06 f4 9f 3e c3 dc d1 bb 3c 61 05 be 73 1f 6d be
       0.31240863 -0.0064044907 -0.13025373 -0.23156528
000080 26 a8 b5 3d 63 49 5c be 60 91 2b be 9a 81 69 be
       0.088699624 -0.2151237 -0.16754675 -0.22803345
000090 21 df 4c be 0a a9 5c be 2f 1c 54 3e fe 7b f2 bc
       -0.20006992 -0.21548858 0.20713876 -0.02960014
0000a0 cb 7e 9e be 12 7a b3 3d ef 4d b2 be fb 57 37 3c
       -0.3095611 0.087635174 -0.34825084 0.01119041
0000b0 60 03 87 3e c4 ef 9b be e5 04 3f 3d f8 da 02 3e
       0.26369762 -0.30456364 0.046635527 0.12778842
0000c0 32 73 ef be da 00 3d bd 5d f0 80 3e 7c b3 82 3e
       -0.46767575 -0.04614339 0.25183383 0.2552756
0000d0 45 e9 2d 38 8d 92 c3 3e e0 7d 80 3c 01 6f 10 bf
       4.1463663e-05 0.38197747 0.015685022 -0.5641938
0000e0 c5 00 a0 3e bf c4 c7 3e 26 e2 44 be 88 07 8d 3e
       0.31250587 0.39017293 -0.19226894 0.27544808
0000f0 33 af 8a 3e b4 4a e6 bd e2 0c 01 bd 4e d9 37 3d
       0.2708679 -0.11244717 -0.031506427 0.044884972
000100 e0 d1 20 3e f8 d1 a3 3e 04 36 96 bd 77 88 21 3e
       0.15705061 0.3199613 -0.073345214 0.15774713
000110 fe fc 1d 3e c8 7d 28 bc e1 03 93 bc b9 e0 5a 3e
       0.1542854 -0.010283895 -0.017946186 0.21374787
000120 5c c4 40 3d 3e c1 46 be b7 b2 90 3e 4e b7 95 be
       0.047062263 -0.19409654 0.2826135 -0.29241413
000130 3c c4 43 be 38 70 81 be cc ec 63 3e d2 2f a5 3e
       -0.19117826 -0.2528093 0.222583 0.32263047
000140 6e 91 4a be 2c f0 25 be ae c4 c8 3e ec d0 8a bd
       -0.1978204 -0.162049 0.39212555 -0.0677813
000150 32 35 ee bd f0 23 01 3f 71 41 0a be 71 36 33 be
       -0.1163124 0.5044546 -0.13501526 -0.17501236
000160 c0 72 0c 3f 8c 4d ff bd ac e9 3b 3e 37 1b cd 3e
       0.54862595 -0.12465963 0.18350857 0.40059826
000170 66 0f 53 be 5b 43 4f 3e dd 6b 8f 3e a8 90 29 bd
       -0.20611343 0.20240538 0.2801198 -0.04139772
000180 a7 b5 86 3e d9 94 18 3c ec 7b 6a be 48 3c 34 3e
       0.26310465 0.009312832 -0.22898835 0.1760112
000190 5a 78 dc 3e 1a 7c d0 3e 44 c1 cf bd 5c e4 79 3e
       0.4306057 0.40719682 -0.10144284 0.24403518
0001a0 45 61 3c be 73 68 bf bc a4 28 ef bd 5c 67 5b bc
       -0.1839648 -0.023365235 -0.116776735 -0.013391342
0001b0 1a 31 49 3d 12 56 77 be 9b 9c 52 be 4e 7d 73 bc
       0.049119093 -0.24153927 -0.20567553 -0.014861418
0001c0 ae b1 11 be f5 c0 3e be f6 21 ee 3d 8a 1e 34 3d
       -0.14227936 -0.18628295 0.11627571 0.043974437
0001d0 b6 f3 9d bd b6 09 9b bc 06 ba 4f be 14 a1 4c be
       -0.077125 -0.018925529 -0.20285806 -0.19983321
0001e0 c6 95 ef 3e 65 42 fa 3e 94 9b dc 3e 41 f7 3e be
       0.46793956 0.4887878 0.43087447 -0.18649007
0001f0 72 25 13 ba 9f 1a a3 3c ad 33 c0 3e a0 44 b6 3d
       -0.0005613185 0.019910155 0.37539425 0.08899808
000200 6f 8c 6e 3e cc ed 95 3e 2e 5e a4 be df dd 2f be
       0.23295759 0.29282987 -0.32103103 -0.17174481
000210 d6 de ca bd 74 e5 81 3c c2 b4 cc bd ca 56 91 be
       -0.09905784 0.015856482 -0.09995414 -0.28386527
000220 23 66 de 3e 1d 58 e7 3d 37 9e 3a be 27 b3 3c bb
       0.434373 0.11296103 -0.18224417 -0.0028793307
000230 23 3b 85 bd 87 d4 95 bd 6b 19 d1 3d 6e 60 8c be
       -0.0650542 -0.07315927 0.10209926 -0.2741732

conv_blocks.0.bias f4 [16]
000000 3e c1 ae bd e5 1c eb be 75 1e d0 be 36 62 e3 be
       -0.08532952 -0.45920482 -0.40648237 -0.44410866
000010 fb c8 c5 be df 9c e7 be f6 70 58 be 36 57 52 3e
       -0.38629898 -0.4523687 -0.21136841 0.20541081
000020 f3 f5 05 be 6f b2 b3 be 98 f6 2a 3e de 24 7e bd
       -0.13082103 -0.35097072 0.1669563 -0.062046878
000030 30 a8 0d bf 19 bc c4 be 00 95 8e be a4 5a d0 be
       -0.5533476 -0.38424757 -0.27848053 -0.40694153

conv_blocks.3.weight f4 [32, 16, 3, 3]
000000 72 bf 2e bf 75 03 2c bf b7 5a 18 bf 7f 8b 2b 3d
       -0.6826087 -0.67192775 -0.5951342 0.04188108
000010 ed 96 11 3e fc c2 35 3d 86 34 38 be 8b 52 4c bd
       0.1421773 0.044375405 -0.17988786 -0.049883407
000020 19 2a 58 be 1a 51 01 3e cd b8 57 3e 73 bd 86 bb
       -0.21109809 0.12628594 0.2106659 -0.0041119396
000030 ee b3 e9 bd 03 ae 00 3e bb 01 09 be ca 68 d6 3d
       -0.11411272 0.1256638 -0.13379566 0.10469206
000040 90 39 f5 3d b9 dc 03 bd a2 c3 87 bd a8 5a be bb
       0.1197387 -0.03219292 -0.06629111 -0.005809147
000050 81 ce 19 bc a0 4f ef 3d f3 ab 0e 3e 2f d9 56 3e
       -0.009387613 0.11685109 0.13932781 0.20981286
000060 91 50 2c 3d 01 de 44 3d 42 9d d5 bd e4 6b 17 bd
       0.04206902 0.048063282 -0.10430385 -0.036968127
000070 52 5a 88 3d 0f 2b 0d be 3f 36 84 3d e9 b6 3b 3e
       0.06657852 -0.13785957 0.06455659 0.18331493
000080 5a d4 2e 3d 66 6e 95 bc 9b d3 0a 3e e3 69 b7 bd
       0.042682983 -0.018241119 0.13557284 -0.08955743
000090 09 66 8b 3d 3c 13 31 3d b1 93 59 bd 12 aa 93 3c
       0.06806571 0.043231234 -0.053119365 0.018025432
0000a0 17 5b de 3d fa 3d 7c 3d 62 27 cf 3d 8a 62 10 bd
       0.10857218 0.061582543 0.101149336 -0.035250224
0000b0 28 45 ad bd af c9 be bc 5b 68 e4 bd 0a a7 3f 3d
       -0.08460456 -0.02328953 -0.11152717 0.04679016
0000c0 1d d6 e4 bc a3 25 40 3d ea 9b f7 3c 6f 9b 34 bd
       -0.027934128 0.046910893 0.030225713 -0.044093546
0000d0 d4 10 94 3c 71 4e a3 3d 6f 9b 8a 3d ad e2 44 3d
       0.01807443 0.07973946 0.06767928 0.048067737
0000e0 38 52 10 3e 90 07 99 3d 04 d9 48 3e 88 46 97 3b
       0.14093864 0.074721456 0.19614035 0.0046165623
0000f0 e0 77 0d bd ec 26 91 3d c8 81 9d 3d 1c c1 99 3d
       -0.03453815 0.07087502 0.076907694 0.07507536
000100 3d 95 cc 3d 38 fb 57 3d 61 e4 4e be 7e 2c 67 be
       0.099894024 0.052729815 -0.20204307 -0.22575566
000110 79 53 99 bd 8c 48 f2 3d 79 dd 95 3d ea de 64 3d
       -0.07486624 0.118302435 0.07317633 0.05587665
000120 24 11 d5 bd a2 01 8a 3c 85 ee 2b be 84 33 13 3e
       -0.1040366 0.016846482 -0.16790207 0.1437512
000130 99 99 69 3e 8a 62 f1 3c 4c 89 4b bd 40 c6 2e bd
       0.22812499 0.029465932 -0.049691483 -0.042669535
000140 37 46 11 be 40 8a 1c 3e 9a cc 39 bb 38 15 40 3d
       -0.14186941 0.15287113 -0.0028350712 0.046895236
000150 17 a1 03 3d 6c 1b 3f 3d 79 a3 85 bd f4 04 22 3d
       0.03213605 0.04665701 -0.065253206 0.039555505
000160 d9 23 7e bd f8 8b 32 3d 95 fb f6 3c 84 95 9e 3d
       -0.062045906 0.043590516 0.03014926 0.077433616
000170 94 c9 10 3e 91 f7 4e bd 8d 19 c8 bd ba f1 f8 bc
       0.14139396 -0.050529066 -0.097704984 -0.030388702
000180 72 5a 84 3b 6e 50 60 3d 41 a0 bf 3d 22 6d 6d bb
       0.0040391022 0.054764204 0.09356738 -0.0036228378
000190 64 a5 f6 3d 9b a4 c6 3d 82 e7 39 be 90 9a e0 bd
       0.120432645 0.09699365 -0.1815472 -0.109669805
0001a0 e3 1c ad bd e2 d5 d5 3b e8 70 26 bc ca 49 a8 bb
       -0.08452775 0.006525741 -0.010158755 -0.0051357495
0001b0 d4 66 98 bd dc 31 e7 3d 43 57 ec bd 02 14 8b 3e
       -0.07441488 0.11288807 -0.11540081 0.27163702
0001c0 f1 6d 47 3e a9 02 c5 3d 4a 66 1e bd 44 1e 95 3d
       0.19475533 0.09619648 -0.03867177 0.07281163
0001d0 15 18 50 bd 45 1e 0d 3d 63 6c 67 3d f8 8e 3f 3d
       -0.050804216 0.034452695 0.05649985 0.046767205
0001e0 88 4a d9 3d cd e4 66 3d 0f 71 f4 bc d6 71 5b 3d
       0.10609919 0.056370545 -0.029839067 0.05357536
0001f0 9d 6d 7f bc c6 59 7d bd 9a 9d 1b bc 2b 46 bd 3d
       -0.015590099 -0.061853193 -0.009498024 0.09241899
000200 0c d2 8e 3c 8f e5 0e be f1 c3 bf 3d 2b 19 c2 bd
       0.017434143 -0.13954757 0.09363545 -0.09477457
000210 98 17 53 bd 4d 5b 59 3c 7d f9 b4 bd cd b9 cf 3d
       -0.051536173 0.013266397 -0.088366486 0.101428606
000220 e7 d0 9b 3d d5 0c 95 3e 56 0d 21 3e ff 4e a3 3d
       0.07608204 0.29111353 0.15727744 0.07974052
000230 74 d9 b8 3c 95 f6 00 bd bf 95 1b bc fc 90 13 3d
       0.022564627 -0.03148516 -0.0094961515 0.03602694
000240 a2 ad a3 bc 9f e4 d2 bd 23 f0 b2 bc 52 66 b6 3c
       -0.019980256 -0.10297512 -0.021843022 0.022265587
000250 aa c0 b0 bc 60 64 9d 3b 6d ed 61 3d d7 4e b3 3c
       -0.021576244 0.0048032254 0.055158067 0.02188818
000260 e3 f8 ed 3c 9a c6 71 3d cd d2 d1 3d c9 fa 38 bd
       0.029049342 0.05902729 0.10245285 -0.045161042
000270 8f 7b 5d bc d4 c3 c5 3d c4 62 e3 bc 55 9a 50 3a
       -0.013518228 0.09656492 -0.027757056 0.00079575676
000280 2b fc f9 3d bd 5e 5b bd 3a 9c d3 bd 8f e2 c8 3c
       0.122063 -0.053557146 -0.10332532 0.024522094
000290 c6 e1 b7 bc bd 0c 1e 3e 97 62 16 3e 96 cc 6b 3e
       -0.022446524 0.15434547 0.14686047 0.23027262
0002a0 f5 b6 db bd c4 b5 28 be f6 63 43 bb 04 eb d5 3c
       -0.10728256 -0.16475588 -0.002981422 0.02611304
0002b0 d2 a4 99 bd 50 eb 04 3d bb 84 83 3e af 0f b0 3d
       -0.0750214 0.032450974 0.25687203 0.085967414
0002c0 a6 29 52 3d 68 37 b8 3d 1c b6 e7 3d d4 57 f5 3d
       0.05130925 0.08994943 0.113140315 0.119796425
0002d0 79 39 6b bc 05 3d a3 3c c2 d8 89 bd fa cb 4f 3d
       -0.014356964 0.019926557 -0.067307964 0.050731637
0002e0 5a 88 da 3c a2 da cf bc 54 d2 48 3d 10 be 85 3d
       0.026676346 -0.025372807 0.04902871 0.06530392
0002f0 b6 09 11 3d 97 86 5d bd 4d 4c df bc 83 10 34 be
       0.03540965 -0.054083433 -0.027258063 -0.17584424
000300 eb 78 a0 3e 5d 08 b5 3e e8 ca 7b 3d a5 8c 83 3e
       0.31342253 0.35357943 0.061472803 0.2569324
000310 21 92 cb 3e 58 04 6f 3e d5 6d 91 3c f0 63 ad bc
       0.39759925 0.23341501 0.017752567 -0.021165818
000320 bb 9a 6d bd 06 c5 7f bb 1d 2d 10 3e d1 9b 61 bd
       -0.05800889 -0.0039027347 0.1407971 -0.05508024
000330 f9 d6 46 3c c3 8e 05 bd f4 7c 2c bd f6 17 c3 ba
       0.012136214 -0.03260685 -0.042111352 -0.001488446
000340 10 21 25 bd 39 38 f1 bc 69 a8 9a 3d e0 e3 20 bd
       -0.040314734 -0.029445754 0.07551653 -0.03927982
000350 37 6f ca bc 8b 99 ee 3c ba a8 a9 bc 1c 8d 29 3d
       -0.024711234 0.02912595 -0.020710338 0.041394338
000360 a6 28 8a bd b0 d7 45 bd 6c be 77 bd 05 24 8e 3d
       -0.06746034 -0.0483014 -0.060484335 0.06940464
000370 ec ae 32 bd 65 67 68 bd d7 bd 17 3e ae 8c c1 3d
       -0.04362385 -0.05673923 0.14818512 0.09450661
000380 b4 ea 25 3e cc af 51 be ae 97 16 3c 4c 26 56 bd
       0.16202813 -0.20477217 0.009191437 -0.052282616
000390 f5 f9 07 3e 7b 92 45 3e 98 84 82 3d f5 ff 0d be
       0.13278945 0.19294159 0.063729465 -0.13867171
0003a0 53 2c ad 3d 45 a9 31 bd f8 b1 25 3d 6c 3d 96 bc
       0.0845572 -0.04337432 0.040452927 -0.018339835
0003b0 cd 60 75 bb 5e b8 16 3d e6 37 92 3d a3 66 39 3d
       -0.003744173 0.03679692 0.07139568 0.045263898
0003c0 36 8d ca 3d 1b ff d1 bc 5d eb 82 bd c1 2d 5c 3c
       0.09890215 -0.02563434 -0.06392548 0.013438643
0003d0 44 f9 7b bc ff 20 30 bd e4 20 41 3d 64 07 2c bd
       -0.015379254 -0.043000218 0.047150508 -0.041999236
0003e0 9a ec 0b bc 87 01 59 3e b0 56 74 3d f7 e5 b8 3d
       -0.008540297 0.21191989 0.059652984 0.09028237
0003f0 07 e6 50 bd 4c e3 12 bc 31 29 3f bd 35 1d 35 3e
       -0.05100062 -0.008965325 -0.046670143 0.17686923

conv_blocks.3.bias f4 [32]
000000 6c c9 2d be e3 88 6e be 78 1c ae bd d6 05 2f be
       -0.16971368 -0.23294406 -0.08501524 -0.1709207
000010 ed 12 12 be c9 43 70 be 58 68 1c be 78 43 4a bd
       -0.14265032 -0.23463358 -0.15274179 -0.04938075
000020 c3 8d 10 be 85 78 20 be d1 44 79 be 7a 32 4d be
       -0.14116578 -0.15670975 -0.24342658 -0.20038787
000030 45 8d 6f be 39 76 4a be 14 52 61 be 48 74 5e be
       -0.23393734 -0.19771661 -0.22003967 -0.21724045
000040 07 1d 3c be b3 6d 65 be a8 26 88 be f4 d4 ec bd
       -0.18370448 -0.22405128 -0.26591992 -0.11564055
000050 66 63 eb bd 20 0f 54 be d6 18 11 be ae 75 60 be
       -0.11493568 -0.20708895 -0.1416963 -0.21919891
000060 c3 5a 62 be 39 6b 43 be b6 ec a7 be 29 e0 28 be
       -0.22104935 -0.19083871 -0.32797784 -0.1649176
000070 c7 48 d0 3c 05 60 95 be 2e 0e 82 be ae 7d 59 be
       0.025425328 -0.2917482 -0.25401443 -0.21239349

conv_blocks.6.weight f4 [32]
000000 2c ec 94 3f 28 43 9b 3f 20 a9 b5 3f 30 eb 9e 3f
       1.1634574 1.212987 1.4192238 1.2415524
000010 0a da a8 3f ab c8 91 3f 1a 4d 9c 3f b3 42 92 3f
       1.319154 1.1389364 1.221103 1.1426605
000020 41 d2 a8 3f 0c 0e 8b 3f 70 db 96 3f 98 c6 a7 3f
       1.3189164 1.0863662 1.1785717 1.3107481
000030 83 57 90 3f de 53 9b 3f 6a 43 a3 3f 2e 86 a0 3f
       1.1276706 1.2134969 1.2754948 1.2540948
000040 44 46 96 3f a4 9b 9e 3f d5 23 bf 3f f2 55 8d 3f
       1.1740193 1.2391248 1.493281 1.1041853
000050 bf 34 95 3f 90 14 d1 3f 1c 75 ae 3f f5 1d a6 3f
       1.1656722 1.63344 1.3629489 1.2977892
000060 70 e9 94 3f 71 a3 92 3f 18 65 9d 3f 61 12 a0 3f
       1.163374 1.1456128 1.2296476 1.2505609
000070 31 62 9b 3f cf af 91 3f 0b fa 9f 3f 80 cc 02 40
       1.2139341 1.1381778 1.2498182 2.0437317

conv_blocks.6.bias f4 [32]
000000 ad 78 0a 3e b0 dc 1b 3e 27 aa ed 3d 44 80 96 3c
       0.13522597 0.15220904 0.116047196 0.018371709
000010 0d ce 30 3d d1 76 f6 bd d1 79 8e 3d 3c 72 99 3d
       0.043165255 -0.12034381 0.069568284 0.074924916
000020 fd 48 21 bd 5f 0a 5e bb 90 c7 e0 3d 2f 5c 28 3e
       -0.039376248 -0.0033880693 0.109755635 0.16441415
000030 3a df bc 3d 27 1f 38 be 15 43 d5 3d ac f3 ee 3d
       0.092222646 -0.17980634 0.104131855 0.116675705
000040 ef 64 eb 3b 7c 14 0c 3e 96 d7 ec bd c7 a8 fd bd
       0.007183663 0.13679689 -0.11564557 -0.12385707
000050 74 6e 52 3d 7f eb 00 3e 39 81 20 3e 37 be 0f 3e
       0.051374868 0.12589835 0.15674295 0.14037405
000060 ef b5 56 bd f5 37 d7 bc 26 00 0b 3e b2 c4 8a bc
       -0.0524196 -0.0262718 0.13574275 -0.016939495
000070 d3 97 04 3e 47 3d 19 3e 11 ea c9 3d ee ea 01 3e
       0.12948541 0.14964782 0.09859098 0.12687275

conv_blocks.6.running_mean f4 [32]
000000 fb f5 aa 3d e5 dd bc 3d ea 6d bc 3d e9 00 0a bc
       0.08347698 0.092220105 0.09200652 -0.008423069
000010 c3 02 80 3d 21 63 26 bd 9d c7 b6 3d 60 28 c7 3e
       0.06250527 -0.04062188 0.08924792 0.3889799
000020 01 c1 50 3e 33 91 34 3b 01 f8 93 3b df 3e f7 3d
       0.20386125 0.0027552366 0.0045156484 0.120725386
000030 bb 50 15 3d c7 1c 2d bd e6 b0 ec 3d 03 77 db 3d
       0.036453944 -0.042263772 0.11557178 0.10716059
000040 1e 82 ae bc 8e 8e e8 3d bc 08 0d bd ae 54 ce bc
       -0.02130228 0.11355315 -0.034432158 -0.025186863
000050 6f ef 36 3e e6 59 ff 3c 59 0e e4 3d b7 02 1d 3e
       0.17864774 0.031170797 0.11135549 0.15333067
000060 32 ab b7 bc 18 22 81 bc 0c 3d 7a 3d 6b ca be 3d
       -0.0224205 -0.015763327 0.061093375 0.09315952
000070 29 e3 b1 3e 97 bf a3 3d e3 cd 45 3e 17 ef 30 bc
       0.34743622 0.07995527 0.19316821 -0.010799191

conv_blocks.6.running_var f4 [32]
000000 24 af 35 3e 46 4e 1b 3e e2 ed 86 3e b8 fd d5 3d
       0.17742592 0.15166578 0.26353365 0.10448784
000010 3f 44 09 3e 9d de 73 3e 7d 6f 45 3e c7 a8 21 3f
       0.1340494 0.23815389 0.1928081 0.6314816
000020 73 29 db 3e 97 13 28 3e 73 45 bb 3d 23 61 76 3e
       0.4280506 0.16413723 0.09144106 0.24060492
000030 2f 33 ec 3d 1e 11 cb 3d d6 af 66 3e c1 42 50 3e
       0.115332 0.09915374 0.22528014 0.20337965
000040 af 79 bf 3d 28 b5 3b 3e 96 6e 05 3e 75 29 cf 3d
       0.09349381 0.18330824 0.13030466 0.10115329
000050 b2 5a c8 3e c0 e2 dc 3d 59 d8 9b 3e 6f cc ea 3e
       0.39131695 0.10785437 0.30438498 0.45859095
000060 09 d5 60 3e dc f9 7a 3e f7 d9 10 3e 9f 07 58 3e
       0.21956266 0.24509376 0.14145647 0.21096657
000070 c3 71 22 3f f9 72 82 3e 66 64 bc 3e b4 5b 27 3d
       0.63454837 0.25478342 0.36795348 0.04085894

conv_blocks.7.weight f4 [64, 32, 3, 3]
000000 60 30 33 bd 58 bc 97 3c 94 a0 e5 3d ac 5b 3a 3b
       -0.043747306 0.018522426 0.112122685 0.0028435988
000010 07 8f b4 bd 6a b9 37 bd f9 96 61 be 26 ad 60 be
       -0.08816343 -0.04485456 -0.22030248 -0.21941051
000020 3b e8 80 3e c1 83 ad bc ed 34 cb 3d c8 90 14 3d
       0.25177178 -0.02118099 0.09922204 0.036270887
000030 48 24 e6 bd 0f f4 b0 be c4 81 cb 3c c0 1c 9c bd
       -0.11237389 -0.34561202 0.02484215 -0.07622671
000040 57 0d b1 3a 24 eb ae 3d cc 67 1f 3d 4a 5f 3d 3e
       0.0013508004 0.08540943 0.038917348 0.18493381
000050 8b ec 56 3e 9b 34 57 be ad 2c 70 be 45 64 0a be
       0.20988671 -0.21016161 -0.23454542 -0.13514812
000060 34 02 ca bc 64 d9 bd 3b 93 fe 42 bd f9 99 cc bd
       -0.024659254 0.0057937372 -0.047606062 -0.099903055
000070 b6 d8 f7 bc be 00 a0 3c 62 d2 85 bd ee 64 32 3e
       -0.030254703 0.019531604 -0.06534268 0.17421314
000080 03 26 d8 bd a3 52 1a be 53 fd 99 be 1b e8 10 bd
       -0.10554125 -0.15070586 -0.30076084 -0.035377603
000090 c5 45 04 3e 89 4b 2e bc ca 32 8f bd a3 b5 0f be
       0.1291724 -0.010638126 -0.06992109 -0.14034133
0000a0 5d ab 1d bd 50 a4 5c 3e 0d 1c 5a 3e da 47 2b 3c
       -0.038493503 0.21547055 0.21299763 0.0104541425
0000b0 2c bc fe bc 28 fe c8 bc a4 b8 32 3d ea 0e ef 3b
       -0.031095587 -0.024535254 0.04363312 0.007295479
0000c0 3f cf 44 bd 94 72 22 bd f9 bd 58 3d 42 eb 51 be
       -0.048049208 -0.03966005 0.052915547 -0.204999
0000d0 7b 09 ac bd 37 89 a2 3d 89 db 15 3e ac e8 7a 3e
       -0.08400246 0.07936328 0.14634527 0.2450282
0000e0 dc 6a 17 bd cc e4 3c be de 2e 9a be da 5d c8 ba
       -0.036967143 -0.18446654 -0.30113882 -0.0015286759
0000f0 ab b4 61 bd 2c c0 af 3d 56 0a b1 3d f2 99 29 3d
       -0.05510394 0.08581576 0.086445495 0.04140658
000100 a3 1a fc bd 98 6b c6 bd 41 62 22 bd 4b 5e 94 3d
       -0.12309768 -0.09688491 -0.039644483 0.072445475
000110 bd a1 8e 3d 54 d1 31 bd 8b db bc 3d 8c 4b 34 3c
       0.06964443 -0.04341252 0.09221562 0.01100434
000120 ef ea aa bc fb 51 80 bb 35 53 4e 3d af 6d e4 3c
       -0.020863978 -0.003916023 0.05037232 0.027884332
000130 b0 63 7f 3d 6a f0 66 bc 50 d9 be bc 73 d4 d4 3c
       0.06235093 -0.014095405 -0.023296982 0.02598021
000140 32 e6 c6 bc a2 27 a4 bd ad db a7 3d 28 be 0c 3d
       -0.024279688 -0.08015372 0.08196197 0.034361035
000150 19 0d 99 3c dd ba 94 bd 2f fa 2f 3b b0 f6 93 bd
       0.018683003 -0.07262204 0.0026852002 -0.07224786
000160 c3 fb a7 be 28 52 ae 3d b1 b8 dd 3d c0 71 e4 bc
       -0.32809266 0.08511764 0.10826243 -0.027886271
000170 de 04 02 be 61 76 37 bd 0f 88 01 be b9 ce 0b be
       -0.12697169 -0.04479063 -0.12649558 -0.13653077
000180 8d 10 17 bd ae ea 72 be 77 dc e4 3d 4d 85 10 be
       -0.03688102 -0.23722336 0.11174863 -0.1411335
000190 60 62 8c 3c 2c 5c 06 3e 83 09 b7 bd a3 68 8f be
       0.017136753 0.13121098 -0.08937361 -0.2800952
0001a0 37 08 87 3e e8 67 d1 bc 80 c3 db bc b6 86 55 bc
       0.26373455 -0.025562242 -0.02682662 -0.013032606
0001b0 eb 18 2d 3b 5d f6 7e 3d bb b6 8a 3d ee 6e 04 3d
       0.0026412557 0.06224667 0.06773134 0.032332353
0001c0 9a 00 26 be 65 64 3a 3c f6 55 5e bd cd 02 7a be
       -0.16211167 0.011376475 -0.054281197 -0.24415131
0001d0 f8 56 0e 3e 4d 04 7e bd ba 56 1d 3d 3a fa 0b bd
       0.13900363 -0.06201582 0.038412787 -0.03417418
0001e0 01 57 41 be c4 05 6e be ba 64 10 3d e2 05 f4 bc
       -0.18880846 -0.23244387 0.03525231 -0.029787961
0001f0 cc 7e 29 be fb 2a 2d 3c ab 6a 9d 3d d7 c7 9d 3c
       -0.16552275 0.010569329 0.07686361 0.01926033
000200 16 36 56 3d 40 d3 19 bd 85 6f 94 bc 92 74 bc bc
       0.052297674 -0.03755498 -0.018119583 -0.023004804
000210 cd 08 4e be 32 a7 60 be d6 ed 0c 3d e3 2b 01 3e
       -0.20120545 -0.2193878 0.034406506 0.12614398
000220 02 26 4b 3e f6 ab 7a bb 8a 2a 9a bd b0 87 02 be
       0.19838718 -0.003824947 -0.07527645 -0.12747073
000230 25 49 bf 3c d0 3b 5a be 64 ff 86 bd 77 36 8b 3d
       0.023350308 -0.21311879 -0.06591681 0.06797498
000240 2f 75 03 3e 6f e7 99 bb 36 9d a6 bd f9 89 d4 3d
       0.1283767 -0.0046967785 -0.08135454 0.10377879
000250 9f d9 df 3d c7 36 3c bd 2a 7e e7 3b 39 9c 3a be
       0.1093018 -0.045950677 0.0070646005 -0.18223657
000260 63 22 14 3e 91 6f 2a 3c fd db 1b 3e 41 bb 0a 3d
       0.14466242 0.010402576 0.15220638 0.033869985
000270 a9 68 35 bd 1e dd 09 be 2e 26 8d bd 01 60 2a be
       -0.044289265 -0.13463256 -0.06892048 -0.16638185
000280 92 8c 81 be a9 48 51 3d 13 62 22 bd 9a d4 3a 3d
       -0.2530256 0.051094685 -0.039644312 0.04561291
000290 eb 53 55 3c 48 b6 8d be 93 e8 2b be 9e 76 c5 3d
       0.013020496 -0.27678132 -0.16787939 0.09641765
0002a0 a3 b2 3c bd 84 90 cd bc e4 20 ff 3d d0 60 01 be
       -0.0460688 -0.025093324 0.12457445 -0.12634587
0002b0 72 a6 a3 3b fe 34 24 3d c2 14 58 bc 87 7d 5e 3d
       0.004994207 0.0400896 -0.013188543 0.05431893
0002c0 c7 0c b1 3d 53 1b 97 be b8 cf 48 be 03 44 ac 3d
       0.08645015 -0.29513034 -0.19610488 0.0841141
0002d0 fe 1e cd 3c e5 57 40 bd 94 cb e0 3c 7f 6d a0 bd
       0.025039192 -0.046958823 0.027440824 -0.07833385
0002e0 8c 02 46 3d e8 e6 be 3d 4b 62 0a 3e ba 32 23 3e
       0.048342273 0.093213856 0.13514058 0.1593732
0002f0 a2 c5 26 bd 9d 03 06 be 15 ca 1d 3d c3 81 c6 bc
       -0.04071582 -0.13087316 0.0385228 -0.024231797
000300 1f 76 32 bd dc 54 ab 3d d8 8c 14 3e e6 87 36 3d
       -0.04356968 0.08365795 0.14506853 0.044563197
000310 71 38 26 3d c1 2f 34 3a 77 d3 cd 3d 17 b2 f4 3d
       0.04058117 0.0006873571 0.10050099 0.119480304
000320 ab 5c 14 3e b7 50 04 be 87 5f 80 be 69 54 9f bd
       0.14488475 -0.12921415 -0.25072882 -0.07779772
000330 58 d7 4b bd 47 ca f1 3d c8 61 10 3c b8 46 4f bd
       -0.049765915 0.118061595 0.008812375 -0.050604552
000340 0f ef a0 bc fc ad 8c 3c c8 72 8e bb c2 9d 1e 3d
       -0.019645242 0.017172806 -0.004347179 0.03872467
000350 0a f1 80 bc f4 f9 ab bd 29 48 7e ba 8f bc 8b 3d
       -0.015739936 -0.08397284 -0.0009700084 0.06823074
000360 68 e1 a4 3d 1b 46 a6 3d 68 24 a1 bd 2c 7a ce bd
       0.08050805 0.0811884 -0.07868272 -0.10081896
000370 dc ae 1b 3d eb aa 2f 3e 98 20 64 be 80 f3 95 bd
       0.038008556 0.17155044 -0.22278059 -0.073218346
000380 e9 89 5f 3d e0 0d 50 bd 80 47 06 bc 36 9f 8d 3b
       0.05457488 -0.050794482 -0.008195758 0.004321958
000390 5e f6 25 bd 87 b4 7e 3c 63 22 99 3d 42 cf 31 be
       -0.040518157 0.015545971 0.07477262 -0.17364219
0003a0 fa 10 fa bd 3c 14 83 3d 10 22 33 3d e4 80 2d 3d
       -0.12210269 0.06400344 0.043733656 0.042359248
0003b0 ca 54 eb 3c ec d6 0b 39 69 7f 8e be 31 7d a9 3d
       0.028726954 0.00013336138 -0.2783158 0.082758315
0003c0 64 07 2d be 72 e1 b1 bd 71 67 f9 bc 06 61 2a be
       -0.1689735 -0.086855784 -0.030444833 -0.16638574
0003d0 00 dd 54 3e 67 68 08 bd b4 49 02 be 30 76 30 be
       0.2078743 -0.03330269 -0.12723428 -0.17232585
0003e0 26 d5 73 3d 19 c6 23 be f7 ee a2 3c 98 60 22 3c
       0.059529446 -0.15993537 0.019889338 0.009910725
0003f0 d5 3a 8a 3d 90 6a dd bd cb df 00 3d 55 e9 c8 3d
       0.067495026 -0.10811341 0.031463426 0.098101296

conv_blocks.7.bias f4 [64]
000000 6c 2c a9 3c a8 7f 4d be 02 86 70 be 32 cf b8 be
       0.020651065 -0.20068228 -0.2348862 -0.36095577
000010 9c 96 2a bf bb f1 bc be 39 1e 84 bd 3a d9 a4 be
       -0.6663606 -0.36903176 -0.06451077 -0.3219698
000020 97 97 8b be 00 f9 4f be 6b 99 89 be 0d e2 9d be
       -0.2726409 -0.2030983 -0.2687486 -0.30836526
000030 8d 7b 72 be a6 f9 23 be 12 f1 c7 be 99 e8 96 bd
       -0.23679943 -0.16013202 -0.3905111 -0.07368583
000040 64 b1 20 be d2 1d 83 be 7e 3b aa be 58 d2 a0 be
       -0.15692669 -0.2560869 -0.33248514 -0.3141048
000050 7c 88 a5 be 44 0f 02 be ea 71 e8 bd ba b4 93 be
       -0.32330692 -0.12701136 -0.113498524 -0.2884882
000060 99 8c b9 be 8a 13 0d be 87 06 1f bd 82 ea fd bc
       -0.3624008 -0.13776985 -0.038824584 -0.030995611
000070 1b 62 04 bf 63 7f 9b bd 31 77 e2 be d3 dc 4d be
       -0.517122 -0.075926565 -0.4423156 -0.20103769
000080 55 24 64 be a8 64 28 be f7 cd 80 be 65 c1 80 be
       -0.22279485 -0.16444647 -0.2515714 -0.25147548
000090 37 a9 cc be 43 9e 6f bd 7d cc e6 be c7 7d 7f be
       -0.3997285 -0.05850054 -0.45077887 -0.24950324
0000a0 9b e7 45 bb c2 c4 33 be 1f fa ad be 77 fe 7b be
       -0.0030197862 -0.17555526 -0.3397989 -0.2460879
0000b0 33 6f 8b bd 29 b7 2a be 2a a4 8e be 4d d3 92 be
       -0.06808319 -0.16671433 -0.27859622 -0.28676835
0000c0 32 5b 39 be 56 d0 71 be 73 fa 18 be 96 f1 20 be
       -0.18101195 -0.2361463 -0.14939289 -0.15717158
0000d0 2d 2c d0 bd 99 fa cc bd 74 78 ef 3c e7 ab 4e be
       -0.10164676 -0.10008735 0.029232241 -0.20182763
0000e0 4e 4b 82 be 8b 29 00 bf c2 75 9d bc 87 9c 01 bf
       -0.25448078 -0.5006339 -0.01922119 -0.50629467
0000f0 17 81 53 be f3 1a e6 be 43 dc 04 bf ac 4b f3 be
       -0.20654713 -0.44942436 -0.5189859 -0.4751867

conv_blocks.10.weight f4 [64]
000000 ba 1b a5 3f a5 2f ae 3f 04 6d b3 3f ee d7 d5 3f
       1.2899086 1.360829 1.4017644 1.6706522
000010 bf 51 c5 3f cc ec ac 3f 26 16 a1 3f 3c 82 b7 3f
       1.5415572 1.3509765 1.2584884 1.4336619
000020 45 86 af 3f 27 99 a0 3f 6c 79 aa 3f 38 43 b1 3f
       1.3712851 1.2546738 1.3318305 1.3848639
000030 2f 15 9d 3f a1 ce af 3f bc 7f a0 3f ff 1b a8 3f
       1.227209 1.3734933 1.2538981 1.3133544
000040 80 75 99 3f 30 b0 e1 3f 71 45 a5 3f 46 e8 96 3f
       1.1988983 1.7631893 1.2911817 1.1789634
000050 de 86 ac 3f 6f 5d 9e 3f cc 39 a9 3f d1 31 9b 3f
       1.3478658 1.2372264 1.3220763 1.2124578
000060 66 68 a2 3f 78 fc b5 3f 33 10 b4 3f 5a f5 8f 3f
       1.268811 1.4217672 1.4067444 1.124675
000070 43 0f 92 3f 30 f1 bf 3f 73 29 e3 3f 22 7a d1 3f
       1.1410908 1.499548 1.7747024 1.6365397
000080 63 f2 ab 3f 58 ec b2 3f e6 1d bb 3f 4a d8 9e 3f
       1.3433346 1.3978376 1.4618499 1.2409756
000090 51 27 bd 3f 91 70 a6 3f c7 47 b8 3f 44 dc d5 3f
       1.4777623 1.3003103 1.4396905 1.6707845
0000a0 08 4c a0 3f 95 c5 9e 3f e0 91 b2 3f ed c8 ce 3f
       1.2523203 1.2404047 1.3950768 1.6155068
0000b0 24 01 9c 3f 36 6c 9a 3f 37 61 bd 3f 4b e3 a4 3f
       1.2187848 1.2064273 1.4795293 1.2881864
0000c0 e3 9e d6 3f d3 cd 91 3f 72 26 9e 3f 74 3d db 3f
       1.6767238 1.1390938 1.2355483 1.7128129
0000d0 a7 bb b8 3f e3 17 a3 3f 4c 43 c4 3f ba bd a9 3f
       1.4432267 1.2741665 1.5333037 1.3261025
0000e0 21 24 a3 3f ac 26 bd 3f e9 4f a8 3f fb 6f bc 3f
       1.2745401 1.4777427 1.3149387 1.4721674
0000f0 9e d0 b0 3f 3d d9 ba 3f 2e 4f cc 3f 7f a4 b3 3f
       1.3813665 1.4597546 1.5961664 1.4034575

conv_blocks.10.bias f4 [64]
000000 ee a9 cf 3e f2 d7 58 3e f9 4f 60 be 48 19 47 3e
       0.40559334 0.21176127 -0.21905507 0.19443238
000010 b5 d5 3d be 27 45 84 3e 01 99 54 be 68 32 ae 3e
       -0.18538554 0.2583401 -0.20761491 0.34022832
000020 50 d9 b0 be a0 f2 ab 3d 94 19 7b 3e eb ad 0e 3f
       -0.34540796 0.083958864 0.24521476 0.5573413
000030 d8 be 91 3e 57 fd 9a 3c b5 88 94 3e 25 5b 07 3e
       0.28465915 0.01891963 0.2901055 0.13218363
000040 08 27 61 3e 1e 9f f7 bc 4b 18 06 3e 4d ff ca be
       0.21987545 -0.03022724 0.13095205 -0.39647904
000050 48 46 97 be 54 1e 4d be b2 13 7d be d7 2e 9f 3e
       -0.29545808 -0.200311 -0.24714544 0.31090423
000060 9b 75 9b 3e 9d 14 e1 3e 53 06 bb 3c d0 8f 0b 3e
       0.30363163 0.4396104 0.022830164 0.13629079
000070 48 e2 81 3e b0 73 88 3e 5a 91 30 3d 6f f2 cd be
       0.2536795 0.26650763 0.043107368 -0.40224025
000080 8e e1 cf be ab e5 d3 bd f8 58 e5 bc e0 68 10 3e
       -0.40601772 -0.1034654 -0.027996525 0.14102507
000090 58 e4 8a 3e 47 73 94 3e b6 5a 9d 3e f4 fb 12 be
       0.27127337 0.289942 0.3073327 -0.14353925
0000a0 83 55 f8 be 11 fe 9d be 88 f7 0d 3e e3 c7 73 be
       -0.4850274 -0.308579 0.13863957 -0.2380672
0000b0 7e 1e 8b 3e ba 44 b5 be c8 97 09 3e c7 54 05 3e
       0.271717 -0.35403997 0.13436806 0.13020621
0000c0 52 ed 64 3e c0 3e 1c bf 71 39 25 be 71 72 63 be
       0.22356156 -0.6103325 -0.16135193 -0.22211625
0000d0 09 8b 07 be ba 26 8f be bf 0d 8f bd 7f c4 aa be
       -0.13236631 -0.27959234 -0.06985044 -0.3335304
0000e0 eb 16 49 be 6b 9d ad 3e e3 31 24 3e 5f 75 c3 3e
       -0.19637649 0.33909163 0.16034655 0.38175485
0000f0 ab f6 90 3e 68 14 e3 be 06 a8 6a 3e ce 58 bc 3e
       0.28313193 -0.44351506 0.22915658 0.36786503

conv_blocks.10.running_mean f4 [64]
000000 e2 77 ca 3e 57 10 d0 3d dc cd 44 be 55 d4 2f 3e
       0.39544588 0.101593666 -0.19219154 0.17170842
000010 f4 b5 d9 3e df 27 34 3c 74 fb 9d bd c4 af 86 3c
       0.42521632 0.010995834 -0.077139765 0.016441233
000020 70 ac 00 3f 06 23 57 bc b0 f7 54 3b c2 a6 fd 3d
       0.5026312 -0.013130909 0.0032496266 0.12385322
000030 f8 90 9f 3f bf 3c d5 3e d1 cf 03 3e f5 c4 f6 3d
       1.2466116 0.41647908 0.12872244 0.12049285
000040 71 93 07 3f 6f b6 44 3e 53 48 c1 3c 4d 8f 6a be
       0.5295935 0.19210218 0.023594057 -0.22906227
000050 2c 02 84 be b0 3b 1c bd 7e cb 64 be be 3f 0c 3e
       -0.25782907 -0.03814286 -0.22343251 0.1369619
000060 a0 db 77 3e 99 ec 06 3e ea 7b 31 3e dc bb c9 bd
       0.24204874 0.13176192 0.17332426 -0.098502845
000070 61 80 2e 3f 00 44 3d 3e a1 53 42 3e cc cd 2e ba
       0.6816464 0.18482971 0.18977214 -0.00066682394
000080 dc 14 3a 3e 20 96 17 be a7 e1 49 3e 1a c7 50 3d
       0.1817202 -0.14803362 0.19714986 0.050971128
000090 e2 16 76 3d a7 72 9f 3d 4a 4d b8 3d 92 ed 96 3d
       0.060080417 0.0778554 0.08999117 0.07369532
0000a0 78 a1 16 3e fe 0c 9c be 6b 4e 38 bd ee 8f c3 3d
       0.14710033 -0.30478662 -0.04499666 0.09548937
0000b0 93 aa 55 bc 39 43 de bc be f7 9d 3e 34 ee 29 be
       -0.013041156 -0.027131664 0.30853075 -0.16594774
0000c0 71 ff d2 3d f2 48 7c bd 59 f3 1f bd 17 86 65 3d
       0.10302628 -0.061593004 -0.039050434 0.05603608
0000d0 f4 34 ff 3d 74 de 0f be 71 54 5f 3e 53 97 a8 3d
       0.12461272 -0.14049703 0.21809556 0.08231988
0000e0 68 12 89 bd 86 52 69 3e fe 7f e8 3c 58 ae e7 3d
       -0.06692964 0.22785386 0.028381344 0.1131255
0000f0 48 ab b1 3d 8c f5 b8 3d f4 ad 78 3e e0 fb 86 3e
       0.086752474 0.09031209 0.24285108 0.2636404

conv_blocks.10.running_var f4 [64]
000000 3b d2 90 3f 05 77 18 3f f9 ef fe 3e a1 c7 7f 3f
       1.1314157 0.5955661 0.4979246 0.99913985
000010 a1 8b d4 3f 79 e5 3f 3f 06 e9 8c 3f d2 1e 0e 3f
       1.6605111 0.7495952 1.1008613 0.5551578
000020 cc 78 a8 3f d1 ef e6 3e 2e a8 4c 3f 9f 0d 10 3f
       1.3161864 0.4510484 0.7994412 0.56270784
000030 fe 73 c2 40 e9 53 71 3f 07 48 1f 3f 5c 20 26 3f
       6.076659 0.9426866 0.6221928 0.64893126
000040 92 21 aa 3f da 01 26 3f 88 fa e3 3e 52 a4 a7 3e
       1.3291495 0.64846575 0.44527078 0.32742554
000050 02 7f aa 3e 36 83 08 3f 69 6e c0 3e 69 01 18 3f
       0.33300024 0.5332521 0.37584236 0.5937715
000060 05 58 98 3f 6c b3 09 3f c2 7a f7 3e 6b bc ce 3e
       1.1901861 0.537894 0.48335844 0.40378127
000070 08 22 36 40 aa 8a 1a 3f 4b d3 71 3f 4c b1 bb 3e
       2.845827 0.60367835 0.9446303 0.36658704
000080 70 4c 82 3f 27 5a bc 3e fe a2 fe 3e 65 a2 d8 3e
       1.0179577 0.3678753 0.49733728 0.42311397
000090 f8 d3 08 3f 15 3d 27 3f 57 2c 16 3f 92 4a a9 3e
       0.5344844 0.6532758 0.5866141 0.33064705
0000a0 00 fb 21 3f df cf a3 3e df c4 7b 3f 48 66 12 3f
       0.6327362 0.3199453 0.98347276 0.5718732
0000b0 47 72 d7 3e d2 b7 f2 3e 4f d9 69 3f 83 dc 24 3f
       0.42079374 0.4740587 0.9134721 0.64398974
0000c0 7a fe 29 3f b9 a4 0f 3f 1e 42 ec 3e 87 56 cc 3e
       0.66403925 0.5611072 0.46144193 0.39909765
0000d0 bd 12 f7 3e fb 4b c4 3e b6 a6 4b 3f 92 6f 0e 3f
       0.48256484 0.38339218 0.79551256 0.5563899
0000e0 89 21 20 3f b8 2c 8b 3f 73 cb f1 3e 12 48 19 3f
       0.6255117 1.0873022 0.47225532 0.59875596
0000f0 d5 ff a2 3f d9 e8 1f 3f dc d8 78 3f 36 9c 86 3f
       1.2734324 0.6246467 0.972059 1.0516422

conv_blocks.11.weight f4 [128, 64, 3, 3]
000000 fd 57 ec 3c d3 c6 bc 3d bb 64 63 bd 31 6c 0e be
       0.02885055 0.0921761 -0.055515986 -0.13908459
000010 0e 60 a8 bd 01 5b 1a 3e 53 2f 6a 3d 17 00 18 3e
       -0.08221446 0.15073778 0.05717404 0.14843784
000020 e2 b0 72 bd e8 aa 88 3d 2c 4a 1e 3e 5a 4f f0 bd
       -0.05925072 0.06673223 0.15457982 -0.11733885
000030 fb 65 c1 bc 9f 87 82 be 13 a5 52 bd 5a 39 82 be
       -0.023608198 -0.25494096 -0.05142696 -0.2543438
000040 df a6 c3 3d c8 f2 65 3c ae 83 b6 bd 78 69 43 3e
       0.095533125 0.014034934 -0.08911835 0.19083202
000050 9b c2 c9 3c 83 6a e1 bb 0c 8f 12 be 84 80 b0 3d
       0.024628928 -0.0068791523 -0.1431238 0.086182624
000060 75 2e b6 3c 1b 7f 92 3c 26 dd ae bd 23 c8 3a 3e
       0.02223895 0.017882874 -0.085382745 0.18240409
000070 a7 67 20 3e 83 45 35 bd 0f 4e fc bd 17 d7 47 bc
       0.1566454 -0.044255745 -0.12319576 -0.0121972775
000080 4a c6 73 3d 48 60 73 bc 86 be b6 bd 60 18 54 bd
       0.059515275 -0.014854498 -0.08923058 -0.05178106
000090 e1 1f 92 3d d1 d1 0b 3d d7 ff c6 bd 9f 1a 52 bd
       0.07134987 0.034135643 -0.09716766 -0.05129492
0000a0 68 d6 c0 bc a5 d2 14 3d b0 ba f4 3a 36 33 8d bd
       -0.023539737 0.0363337 0.001867136 -0.06894533
0000b0 e1 e3 05 3c 9b d7 3c 3d fb 60 c4 bd aa e3 c6 ba
       0.008172006 0.046104055 -0.0958881 -0.001517405
0000c0 58 72 14 bc 8f 31 18 3e 28 19 d4 bd dd b1 77 bd
       -0.009060465 0.14862655 -0.10356361 -0.060472358
0000d0 63 60 b9 3c 24 08 ba 3d f6 e9 31 bd af 6d 80 bb
       0.022628969 0.09083584 -0.043436013 -0.0039193253
0000e0 e9 86 c0 3c fa be c4 3d c2 1e 58 3e b2 fa e1 bd
       0.02350183 0.096067384 0.21105483 -0.110341445
0000f0 dc d3 15 bd 60 ab 87 bc 0c 3f 98 3c fa 38 e3 3d
       -0.036578998 -0.01656121 0.01858475 0.11094852
000100 93 17 7a 3d c7 b0 6a be 4c 8b 52 be b6 63 93 be
       0.06105764 -0.22918998 -0.2056095 -0.2878701
000110 67 f5 a5 3e c3 f9 a2 bc 35 6b 49 3c b0 b9 a6 bc
       0.3241379 -0.019894486 0.012293627 -0.020352215
000120 c9 bf 9e bd 34 79 26 bd 4a 31 9d ba 46 2c b8 bd
       -0.07751424 -0.040642932 -0.0011992839 -0.089928195
000130 a7 a6 c3 3d 54 76 1f 3d 35 09 97 3d 6f b2 a6 bd
       0.09553271 0.038931206 0.07374803 -0.08139502
000140 58 96 4e bd 36 81 89 3d 96 51 46 3d e7 27 ee bd
       -0.050436348 0.06714098 0.04841765 -0.116287045
000150 6e b0 43 3d e7 f4 1e be b6 0d 34 3e 95 cd 43 3d
       0.04777568 -0.1552311 0.17583355 0.04780348
000160 04 c0 36 bd 45 ed 80 3d ab 0a 5a bd 20 63 d0 bd
       -0.044616714 0.062952556 -0.05323283 -0.101751566
000170 95 4b 52 3d e1 ed fa bd 04 b5 d0 bd 43 61 8e 3d
       0.051341612 -0.12252403 -0.10190776 0.06952145
000180 4e 55 ed 3d ac 6c 2d bd 9c 17 c4 bd 06 62 a3 3d
       0.11588536 -0.042339966 -0.09574816 0.07977681
000190 b3 84 c1 bd a8 f1 59 be 2c 84 7c 3e f3 8f c4 3e
       -0.094491385 -0.21283591 0.24659795 0.38391075
0001a0 85 03 8a 3c f8 4c 78 bd 2b 7f 56 be c9 b9 cd bc
       0.016847381 -0.060620278 -0.20946948 -0.025113003
0001b0 f5 ff 68 3d d1 11 26 3e d1 58 43 be cf 61 b1 3b
       0.056884725 0.16217734 -0.1907685 0.005413271
0001c0 bb ca 38 be 20 29 91 3d 23 4f 96 3d b1 47 57 bd
       -0.18046086 0.07087922 0.07339313 -0.052558605
0001d0 4e 95 ad bc 6f 4f 6b bd 11 6c dc 3c 40 72 11 3d
       -0.021189358 -0.0574488 0.026906999 0.035509348
0001e0 5f 82 e4 3c e7 79 3e 3d ae 38 06 bd 24 20 84 3c
       0.027894197 0.046502974 -0.032768898 0.016128607
0001f0 b3 fd ab bc 4e 8a 9e 3c db 34 f8 3d 68 d9 47 be
       -0.020994997 0.019353058 0.121194564 -0.19516528
000200 5e f9 92 bd 42 a1 8c be 27 0d cb 3d ba 8a b2 3e
       -0.07176469 -0.2746678 0.09914618 0.34871465
000210 ee af 7f 3d f1 bf a8 bd 1e 34 7d 3c d7 37 72 3d
       0.06242364 -0.08239735 0.01545432 0.059135284
000220 8c e6 95 bc 2d e0 82 bd 44 b7 3e 3d df 3d 21 bd
       -0.01829841 -0.063904144 0.046561494 -0.039365645
000230 81 14 fa 3b 41 f5 b2 bd 5e f4 57 bd e7 fc 0e 3d
       0.007631839 -0.08738185 -0.05272328 0.034909155
000240 d1 75 a1 bc 0e 1f af 3d 8d f9 14 be f5 eb fd bc
       -0.0197095 0.08550845 -0.14548321 -0.030996302
000250 43 e4 87 be 86 f8 3b 3e 25 46 62 bb e1 84 e0 3d
       -0.26541337 0.18356523 -0.0034526673 0.10962845
000260 56 3c db bd 86 30 b3 bc fe 60 a3 3a 81 fe 25 3d
       -0.107048675 -0.021873724 0.0012464819 0.040525917
000270 a3 29 a5 3c ad 9c 0e bd 22 5d d1 3a 5b 21 4f 3d
       0.020161455 -0.034817386 0.001597319 0.05056892
000280 48 a2 ac 3b 3d ce 33 bd 1e 6e 0c 3d 00 4c a5 be
       0.005268369 -0.043897856 0.034284703 -0.32284546
000290 24 2f 81 bd 98 ef 1b be a1 0b 69 3d 3f 69 8f bd
       -0.063078195 -0.15228117 0.056895856 -0.07002496
0002a0 89 0c 9b 3e 75 c8 65 3c c8 84 32 be 34 7b 2a be
       0.30283 0.014024843 -0.17433465 -0.16648561
0002b0 54 7b 52 3e 1e 9a e6 3d 7a 9c c0 3d 22 c8 24 be
       0.20554858 0.11259864 0.094048455 -0.1609197
0002c0 2c a7 4b be 34 09 9d 3d 90 c5 bb 3c f6 f4 04 3d
       -0.1988799 0.07667771 0.022921354 0.032460175
0002d0 0d 9f ef 3c ef 0f 6c bd 91 32 2d 3d 20 cf 95 3c
       0.029250646 -0.057632383 0.042284552 0.018287241
0002e0 c4 5f 65 3e ea 32 32 be 1f 3e dc bc e2 e6 df 3b
       0.22399813 -0.17402235 -0.02688509 0.0068329433
0002f0 b2 fc 83 3d 8d 1a b5 bd ac f2 34 3d f3 a8 3b 3d
       0.06444682 -0.08842955 0.044176742 0.04581542
000300 cb 27 da 3c 31 e3 09 be cc c0 85 3c 1f a1 b9 3c
       0.026630303 -0.13465573 0.016327284 0.022659836
000310 62 de c5 3d 8c 58 01 bd 71 7a 39 3d df 37 32 3d
       0.09661557 -0.031578586 0.045282785 0.043510314
000320 d9 23 9a bc dc 7e bc bd e4 2a 20 be b2 08 ce 3d
       -0.018815922 -0.09203884 -0.15641361 0.10060252
000330 bd c2 80 bd 8a e4 2f bb b1 c1 9d 3d 3f be 49 3e
       -0.062871434 -0.00268391 0.07702959 0.1970148
000340 87 4f b3 ba 85 09 9a be a5 6b 96 be fd 35 96 be
       -0.0013680317 -0.30085388 -0.29379 -0.29338065
000350 2f 98 a8 3d c7 6d 64 bd 65 68 5f bd e9 34 d2 3d
       0.08232152 -0.055768754 -0.054542918 0.10263998
000360 75 84 02 be 37 25 86 3d df 45 9e 3d c2 46 e2 3c
       -0.12745841 0.06550067 0.077281706 0.02762163
000370 ba d8 cc bb f5 33 40 bd 12 48 25 bc 87 bb 85 bc
       -0.0062514218 -0.04692455 -0.010087984 -0.016324772
000380 6a a7 33 3d f6 ee 1b 3d 97 f5 c8 bd bf ab 10 be
       0.04386083 0.038069688 -0.098124675 -0.14128016
000390 2f 55 23 be c9 80 03 3d c7 45 ec 3d 46 b3 cf bb
       -0.15950464 0.03210524 0.115367465 -0.0063385097
0003a0 d7 bf f0 bd 62 34 3e 3d 27 be 37 bc d8 dd 44 be
       -0.117553405 0.046436675 -0.011214769 -0.19225252
0003b0 35 fe 0a 3d ab 15 8a bd 08 6f 07 3e f8 dc 6c bc
       0.033933837 -0.06742414 0.13225949 -0.01445698
0003c0 bf 28 7d bc db e9 49 bd 3b ca 18 3b 36 13 85 3d
       -0.015451609 -0.049295288 0.0023313898 0.06497805
0003d0 f0 cd 1a be a6 19 84 bd 82 4f e8 bd 48 5b 85 3d
       -0.15117621 -0.064502046 -0.1134329 0.06511551
0003e0 93 7a 98 3d 69 2e ef bc 64 80 a2 3d ae c4 a6 bd
       0.07445254 -0.029196935 0.07934645 -0.081429824
0003f0 41 c5 90 3d 47 5a d5 bd d6 13 9d bd f3 17 d3 3d
       0.07068873 -0.1041761 -0.07669799 0.10307302

conv_blocks.11.bias f4 [128]
000000 69 f8 94 bd 9c 8b 08 bd 6b 3c d8 bd 32 69 cd be
       -0.07273943 -0.033336267 -0.10558399 -0.4011932
000010 12 2e ce bd 0c 45 85 be d5 d8 e4 be 2f 70 dd bd
       -0.10067381 -0.2602924 -0.4469668 -0.10812413
000020 ba 61 cc be 35 ea 59 be 64 65 47 be 56 32 a1 be
       -0.3991831 -0.21280749 -0.19472271 -0.31483716
000030 38 c0 1e 3e 9d 88 e8 bd 8e 46 91 be 57 0e 92 be
       0.15503013 -0.11354182 -0.2837414 -0.28526565
000040 76 e8 2b bd 33 1a cc bd c2 7b 92 be 52 a2 37 be
       -0.04196974 -0.099659346 -0.28610045 -0.17933014
000050 98 97 cb be d7 ec 3c bd f8 35 ab be c1 21 49 be
       -0.39764094 -0.046124306 -0.33439612 -0.19641782
000060 3c a9 c4 bd 2a ea ed bd 10 80 ad bd 45 70 65 3d
       -0.096025914 -0.11616929 -0.084716916 0.05601527
000070 63 7d e8 be 34 b4 38 3d 15 1e e8 bd 2d f7 fa 3c
       -0.45408162 0.04509373 -0.11333863 0.03063544
000080 13 c8 83 be 22 aa 5f bd 64 e0 69 bd 89 c7 0c be
       -0.25738582 -0.05460561 -0.05709876 -0.13747992
000090 3e 7d f0 bd c1 58 f2 be d0 52 ca be 8a 1d 9e be
       -0.11742638 -0.4733334 -0.39516306 -0.30881912
0000a0 8e 57 fe 3c 62 cb 58 be e2 d6 aa be fd 0d 48 be
       0.031047609 -0.21171334 -0.33367068 -0.19536586
0000b0 fc 51 37 be c9 24 e9 be 23 bd 21 be c0 60 05 be
       -0.17902368 -0.45535877 -0.15794806 -0.13025188
0000c0 64 0b 89 bd 85 88 20 bd 24 39 19 bd 32 44 94 bd
       -0.06691626 -0.039192695 -0.03740801 -0.0723957
0000d0 a2 a9 ab be 92 49 bf be b8 d1 b6 be 34 95 d0 be
       -0.33527857 -0.37360817 -0.35706878 -0.40738833
0000e0 8a b3 04 be d4 fc d6 3d 50 17 ad be ae 55 55 be
       -0.12959114 0.10497442 -0.3380685 -0.20833465
0000f0 3b 3a b0 be 5d 43 68 be 30 2b bf 3d cb 62 f5 3d
       -0.34419426 -0.22681947 0.09334409 0.11981734
000100 7c 66 4b 3d ac 71 54 be ce 9e 31 be 88 00 d4 3d
       0.049658284 -0.20746487 -0.17345735 0.10351664
000110 c5 a5 f2 bd 79 5b 89 3e a3 34 ab 3a e8 a9 25 3e
       -0.11848024 0.268276 0.0013061952 0.16178095
000120 d8 71 21 be 1d c6 26 3e 9f 28 70 be 35 ae b8 3d
       -0.15766084 0.16286512 -0.23452996 0.09017602
000130 d3 56 6e be 7d af 82 3d fd da b7 3c a1 9b bb be
       -0.23275308 0.06381128 0.022443289 -0.36642173
000140 37 5d 05 be 1a 76 08 be c4 af ca bd 47 cb e0 be
       -0.1302384 -0.13326302 -0.09896806 -0.43905088
000150 a3 09 96 3d ad b2 1c 3e 04 4b 88 be 8a a6 2a bd
       0.07326057 0.15302534 -0.26619732 -0.04166273
000160 ee cd 1f 3d 5c b2 a4 bd b6 6f e9 be 66 6b af be
       0.03901475 -0.08041832 -0.4559304 -0.34261626
000170 d8 aa 9f 3e 1a fd 08 3e 80 e4 a5 3a d9 23 3b be
       0.3118503 0.133778 0.0012656599 -0.18275394
000180 f5 19 d6 be 25 64 b4 be 66 4a ff 3d 7f 45 c4 3d
       -0.4181668 -0.35232654 0.12465362 0.09583568
000190 a4 1c ac bd cc 17 59 be d8 4a be 3d aa 73 55 be
       -0.084039 -0.21200484 0.09291619 -0.20844904
0001a0 e8 17 ce be ae e5 c9 bc 8b 1e 82 be ad 16 88 3d
       -0.40252614 -0.024645653 -0.25413927 0.0664495
0001b0 fb cd b9 3c 11 34 af be 48 2e 44 be 76 42 86 be
       0.022681227 -0.3421941 -0.1915828 -0.2622258
0001c0 5e 0b 31 3d a9 d3 92 bd fc 6a 1f bc 11 4b 7e be
       0.04322373 -0.07169277 -0.009730097 -0.24833323
0001d0 1c 33 ca be a9 9d 9e be a1 92 1a be a3 59 4c 3d
       -0.39492118 -0.3097966 -0.15094997 0.04989017
0001e0 66 04 c2 3c 4f a1 a1 be 9a e1 19 be 2b 00 59 be
       0.023683738 -0.3156838 -0.15027466 -0.2119147
0001f0 7e d7 94 be 83 2c 10 bd d5 4c df be 86 7e 6e be
       -0.29070657 -0.0351987 -0.43613306 -0.23290452

conv_blocks.14.weight f4 [128]
000000 a9 7a cb 3f 71 fd c7 3f 68 f4 be 3f 50 f6 bc 3f
       1.5896808 1.5624219 1.4918337 1.4762669
000010 b5 b3 e8 3f 32 8e b2 3f b8 41 f9 3f cd 7b cb 3f
       1.8179842 1.3949645 1.9473181 1.5897156
000020 54 46 22 40 d6 7f 0c 40 05 5a e4 3f aa 46 e6 3f
       2.5355425 2.1953025 1.7839972 1.7990315
000030 42 e0 be 3f 66 b3 d2 3f 50 84 e6 3f 06 87 ec 3f
       1.4912188 1.6460998 1.8009129 1.8478706
000040 4d c9 b9 3f 63 e9 b7 3f 88 d9 e2 3f b7 07 fc 3f
       1.4514557 1.4368099 1.7722635 1.9689854
000050 3d 41 dc 3f 49 bd bb 3f ea 49 e3 3f 49 5b c9 3f
       1.7207409 1.466714 1.7756932 1.5730983
000060 93 69 c1 3f 3d 0f a8 3f e3 05 d4 3f 68 d7 c2 3f
       1.5110344 1.312965 1.6564296 1.5221987
000070 de 36 ce 3f 79 0a bf 3f 28 f4 f6 3f 80 df b2 3f
       1.6110494 1.4925071 1.929326 1.3974457
000080 e4 fa 0e 40 84 4a 03 40 a7 4a b0 3f a7 9d f3 3f
       2.2340631 2.051423 1.3772782 1.9032487
000090 b2 10 b9 3f df 2a b4 3f 71 e4 da 3f 54 5f be 3f
       1.445822 1.4075583 1.7100965 1.4872842
0000a0 c4 6f bc 3f e4 b8 e3 3f d0 0a e9 3f 17 ef e6 3f
       1.4721608 1.7790799 1.8206425 1.8041714
0000b0 16 30 ba 3f 08 3c e9 3f a6 f4 da 3f 14 be fa 3f
       1.4545925 1.8221445 1.7105911 1.9589257
0000c0 1b 98 f3 3f 81 cb c9 3f 71 43 11 40 b3 5c cb 3f
       1.9030794 1.576523 2.2697413 1.5887665
0000d0 dc 57 c4 3f 12 bb e7 3f 97 f7 b7 3f 71 c9 f0 3f
       1.5339313 1.8103964 1.4372433 1.8811475
0000e0 e5 b0 d4 3f 12 bf c6 3f 93 06 c9 3f 95 be e5 3f
       1.6616484 1.552706 1.5705131 1.7948786
0000f0 cf 86 ed 3f 72 09 c5 3f c2 c8 bf 3f 35 54 c7 3f
       1.8556765 1.5393507 1.4983141 1.5572573
000100 e7 54 b8 3f 4d 45 bf 3f 4b 89 06 40 00 03 c9 3f
       1.440091 1.4943024 2.1021297 1.570404
000110 cb 84 d9 3f c5 06 11 40 53 f6 c1 3f bf f6 b9 3f
       1.699365 2.2660382 1.5153297 1.4528426
000120 d6 3f 14 40 b0 ce d2 3f 24 90 e7 3f e7 67 b7 3f
       2.3163962 1.6469326 1.8090863 1.4328583
000130 89 f7 ec 3f 3d b2 bd 3f 1c 07 e7 3f da 0e ce 3f
       1.8513042 1.4820019 1.8049045 1.6098282
000140 e9 c1 b7 3f 57 bb d3 3f f3 f8 d2 3f eb 51 03 40
       1.4356052 1.6541547 1.6482223 2.0518749
000150 1a 0a f8 3f e8 c3 02 40 0c 3e c2 3f ab 19 a9 3f
       1.9378083 2.0432072 1.5175185 1.3210958
000160 38 b2 07 40 22 5d 05 40 d0 b8 05 40 99 c4 e9 3f
       2.1202526 2.0838094 2.089405 1.8263122
000170 e7 1c f9 3f 89 b4 c3 3f 90 da 0d 40 9a 79 e3 3f
       1.9461945 1.528947 2.216465 1.7771485
000180 ec 99 ee 3f aa 32 e0 3f 36 70 b8 3f 9e 28 be 3f
       1.8640723 1.7515461 1.4409244 1.4856145
000190 7e 57 d7 3f 36 1c bb 3f 29 e6 bb 3f 0f db c3 3f
       1.6823575 1.4617984 1.4679614 1.5301226
0001a0 1d 8d d2 3f f0 90 b9 3f 5f 04 d7 3f c8 b3 bc 3f
       1.6449314 1.4497356 1.6798209 1.4742365
0001b0 6a 67 b5 3f b9 c7 cc 3f d4 9a c7 3f 48 6e e7 3f
       1.4172184 1.599845 1.5594125 1.808053
0001c0 b5 06 bc 3f 19 78 a0 3f 0b e6 a2 3f 7d 76 d3 3f
       1.4689547 1.2536651 1.2726454 1.6520535
0001d0 33 6d d4 3f 6d d4 d4 3f df 78 f4 3f de 96 1c 40
       1.6595825 1.6627327 1.9099387 2.4467082
0001e0 a1 99 da 3f 55 99 d9 3f a6 da cd 3f 3c 30 dc 3f
       1.7078134 1.6999918 1.6082351 1.720222
0001f0 41 8a cc 3f 4a 58 ac 3f 73 34 eb 3f da 0b 09 40
       1.5979692 1.3464444 1.8375381 2.1413484

conv_blocks.14.bias f4 [128]
000000 f5 4f ac ba a6 dd 37 3c 4e 8c ad 3c c4 7a ae 3c
       -0.0013146388 0.011222279 0.021185067 0.021298774
000010 0f 91 ad bd 8a 47 f7 bd 7e 24 bb 3b 4a 00 95 bd
       -0.08474933 -0.12074192 0.0057111373 -0.07275446
000020 3c e5 ac 3b 03 86 69 3c b5 8b 9c bc 79 52 9e 3d
       0.0052763503 0.014253142 -0.019109586 0.07730574
000030 a2 a3 c6 bb 3d 48 e3 bd 1e 85 b5 bb cb 55 c3 bd
       -0.006061987 -0.11097763 -0.0055395504 -0.09537848
000040 97 ba d6 3b 96 0c 53 bd 16 d7 09 be 32 47 d8 3c
       0.006553005 -0.051525675 -0.13460955 0.026401136
000050 b0 1a 7b 3b 1e 32 05 be 56 35 c1 3d 76 10 b5 bd
       0.0038315468 -0.130074 0.09434001 -0.0884103
000060 99 b1 d6 bc aa e0 a4 bb 1f 01 40 bb d5 9d ac 3c
       -0.026207732 -0.005031665 -0.0029297543 0.021071354
000070 d0 81 98 3c 43 be 83 3c 51 90 ec bc 5f 67 1b 3e
       0.018616587 0.016081935 -0.02887741 0.15176152
000080 09 e6 ce 3a aa 24 e0 bc d8 93 86 3d 30 ad 86 bd
       0.0015785109 -0.027361233 0.06571168 -0.06576002
000090 74 8e 7b b9 d0 77 db bd 4a 46 87 3a fd ae ee bd
       -0.00023990293 -0.10716212 0.001032063 -0.1165447
0000a0 a4 88 96 3c b8 50 46 ba 8f 23 fa 3b b0 c4 06 3d
       0.018375702 -0.00075651286 0.0076336334 0.03290242
0000b0 2c d8 bc bd 64 02 1d 3b ce ac c1 3d d9 f0 9a 3c
       -0.09220919 0.0023957724 0.09456788 0.018913673
0000c0 c2 40 79 ba 54 4d 78 bd 61 93 9b bc c2 e0 db bd
       -0.0009508246 -0.06062062 -0.018991174 -0.107362285
0000d0 eb 11 dd bd ea e7 55 3c 9c 94 bc bd ba 7c 96 bd
       -0.10794433 0.013055781 -0.092080325 -0.073480085
0000e0 dc dd b9 bd 06 02 c7 bc 9b 7e 04 bd 73 42 04 3d
       -0.090755194 -0.024292957 -0.032347303 0.032289933
0000f0 db 4d 65 3c c7 74 0b 3d 6a 77 6d bc dc dd 8b bc
       0.013995613 0.034046914 -0.014493803 -0.017073564
000100 49 ef 74 bc 86 ad a9 bd a1 66 cf bd 23 6a c8 bc
       -0.014949628 -0.0828505 -0.10126997 -0.024464672
000110 91 03 2b bc 61 a2 28 bc 7d 45 9c bd 6e ec e6 bc
       -0.010437862 -0.01029262 -0.07630441 -0.02818891
000120 7a ff 9e bd 83 f9 2d bc d5 dd 62 3d 04 98 ee bd
       -0.07763572 -0.01061857 0.055387337 -0.116500884
000130 61 28 35 bd 26 05 99 bc 09 7b bf 3d f0 8a c4 bd
       -0.04422796 -0.018679213 0.09349639 -0.09596813
000140 93 a6 95 3c 42 fc f5 bb 0e 9f e3 bc 65 fa d2 3b
       0.018267905 -0.007506878 -0.027785804 0.0064385408
000150 d0 9d ae bc 6a 9a 67 3c dd dd c4 bd 87 d8 a5 bd
       -0.021315485 0.014135936 -0.096126296 -0.0809794
000160 9a 09 2f 3d 97 c7 b6 bc 0e 1b 0f 3c 28 c9 b6 bd
       0.042733766 -0.022311969 0.008734478 -0.08925086
000170 d6 c4 88 3d f8 59 06 bd 48 fd 61 bc 17 7a 84 3c
       0.066781685 -0.032800645 -0.013793297 0.016171498
000180 7a 11 f2 3b e6 45 be 3b fe 43 7c bc bb f5 51 bc
       0.0073873373 0.0058066724 -0.01539707 -0.012814934
000190 a1 15 e1 3d 42 02 e7 bd f0 d8 65 3b 8d 82 9f bd
       0.109904535 -0.112797275 0.0035071932 -0.077885725
0001a0 e5 38 1b 3c a6 79 9d bd 46 a6 d0 3c c6 d6 61 bc
       0.009474014 -0.07689218 0.02546991 -0.013784116
0001b0 de 4c dd bd 88 3b bc 3c f6 6a ab bb 13 db 74 3c
       -0.10805677 0.022977605 -0.0052312566 0.0149448095
0001c0 2a cd c0 bb 3c 77 14 be 98 c7 c6 3c eb 7c 4b 3c
       -0.0058838325 -0.1449861 0.024265096 0.0124199195
0001d0 a4 68 04 3d a4 0e db bd 0d 64 4f bb 77 35 01 bd
       0.032326356 -0.10696152 -0.0031645328 -0.03154513
0001e0 f7 85 3c 3d 58 dd 70 bd 7b c6 6c 3b 14 0e 85 3b
       0.046026196 -0.05880484 0.0036129046 0.004060516
0001f0 23 28 9e bd 71 e2 b0 bc 0d 53 b4 3b 3e 46 eb 3b
       -0.07722499 -0.02159235 0.0055030645 0.0071800044
