trainings/noise_MNINST_double_individual_label/discriminator_weights.pth (torch, 537335 bytes, 23 tensors)

conv_blocks.0.weight f4 [16, 1, 3, 3]
0.083073325 -0.7585436 0.19973128 0.31437942 -0.57800424 0.42132124 0.12642874 -0.0952453
-0.055755172 -0.18828557 -0.21346748 0.11708365 0.44538042 0.6166152 -0.08203953 -0.42803267
-0.15298806 -0.5644975 -0.28979808 0.47548676 -0.37169755 -0.15125372 0.7126405 -0.29290238
-0.104334414 -0.31126505 0.26549178 0.45530462 0.013194949 -0.047510285 -0.62971765 -0.6496703
0.28735417 0.33772293 0.3929441 -0.21520956 -0.36615258 0.13230523 -0.19576761 0.32050157
0.29001233 0.025740214 0.09038064 0.4928742 -0.24181761 -0.44702753 -0.02594762 -0.29272473
0.7171146 0.24780826 0.21136723 -0.123189546 -0.07587301 -0.022942599 -0.33294752 -0.06905762
-0.48613822 -0.33640128 0.28384417 0.035321575 0.54780746 -0.14427914 0.2200224 0.014792433
0.65112895 -0.43831107 -0.24369484 -0.38635683 -0.28013042 0.10727353 0.0919319 0.27147362
-0.2571977 0.015572574 0.20868206 0.28249514 0.049803447 0.69432616 0.0049536787 -0.47766525
-0.42016175 0.07148386 -0.18819685 -0.09973321 0.0643013 0.38308823 0.3967661 -0.18556462
-0.8872645 -0.26293352 0.48174766 -0.08378551 0.34327894 -0.85989594 -0.19220118 -0.34024015
0.12995496 0.23073313 0.085854 -0.37219405 -0.010606249 -0.12763424 0.822961 0.101841725
0.12081792 -0.06738196 -0.22438928 -0.06092163 -0.087561056 0.505015 0.080773346 -0.16312525
-0.372191 -0.20869742 0.47983474 -0.16134614 0.024977127 -0.2698612 -0.053896554 -0.5455839
0.24120757 0.5865988 0.25768384 -0.09376687 -0.32854688 -0.09611722 0.0943391 0.06426734
-0.379408 0.23999296 0.23832121 0.23305376 -0.23869918 -0.44829017 -0.3451045 -0.21289808
-0.18580812 0.22416581 0.35225892 0.51447344 0.17748255 -0.044334263 -0.51493776 -0.13538632
00000000: 5922 aa3d ea2f 42bf 5b86 4c3e 57f6 a03e
00000010: 16f8 13bf 6bb7 d73e 8976 013e f80f c3bd
00000020: 895f 64bd efcd 40be 3897 5abe 8dc9 ef3d
00000030: e708 e43e 7eda 1d3f 5704 a8bd 1927 dbbe
00000040: e7a8 1cbe e882 10bf 6a60 94be 0073 f33e
00000050: 244f bebe 41e2 1abe 9c6f 363f 4df7 95be
00000060: 48ad d5bd 225e 9fbe 8aee 873e b01d e93e
00000070: a12f 583c 259a 42bd 2d35 21bf cb50 26bf
00000080: 1620 933e 05ea ac3e f82f c93e e55f 5cbe
00000090: 5a78 bbbe 067b 073e 4e77 48be c818 a43e
000000a0: 7f7c 943e 24dd d23c 7c19 b93d 025a fc3e
000000b0: 099f 77be cbe0 e4be 1a90 d4bc 04e0 95be
000000c0: d394 373f 73c1 7d3e a770 583e cd4a fcbd
000000d0: 4f63 9bbd 1ef2 bbbc 1978 aabe 156e 8dbd
000000e0: 1ce7 f8be ca3c acbe 0654 913e 5bad 103d
000000f0: 1c3d 0c3f e9bd 13be 8d4d 613e f65b 723c
00000100: 63b0 263f 4f6a e0be 248b 79be 90d0 c5be
00000110: 416d 8fbe 39b2 db3d cb46 bc3d 97fe 8a3e
00000120: 6baf 83be 1c24 7f3c c0b0 553e 34a3 903e
00000130: b3fe 4b3d 5cbf 313f 7852 a23b 8a90 f4be
00000140: 711f d7be 2166 923d adb6 40be ed40 ccbd
00000150: 66b0 833d 2424 c43e ed24 cb3e a704 3ebe
00000160: c423 63bf 399f 86be a1a7 f63e bd97 abbd
00000170: 42c2 af3e 2422 5cbf 63d0 44be f533 aebe
00000180: ea12 053e 4e45 6c3e 39d4 af3d 3890 bebe
00000190: d5c5 2dbc 8db2 02be 92ad 523f 6592 d03d
000001a0: 636f f73d 8eff 89bd 4ec6 65be f688 79bd
000001b0: 3653 b3bd aa48 013f 7f6c a53d 4e0a 27be
000001c0: d28f bebe c7b4 55be e6ac f53e ec37 25be
000001d0: d59c cc3c 3f2b 8abe a2c2 5cbd 63ab 0bbf
000001e0: 1eff 763e 572b 163f 23ef 833e d808 c0bd
000001f0: 4c37 a8be 1bd9 c4bd dc34 c13d 989e 833d
00000200: c441 c2be b7c0 753e 7a0a 743e a5a5 6e3e
00000210: 8f6d 74be 4a86 e5be 89b1 b0be f401 5abe
00000220: 7c44 3ebe b98b 653e 485b b43e 88b4 033f
00000230: fcbd 353e d897 35bd f6d2 03bf b6a2 0abe

conv_blocks.0.bias f4 [16]
-0.2959277 -0.33035576 -0.07742021 -0.21912067 -0.084107615 0.18417399 -0.16308135 -0.2654957
-0.28672633 -0.64921325 -0.24218339 0.01226914 0.2739526 -0.17536415 -0.5083355 0.1774962
00000000: d683 97be 6424 a9be 7d8e 9ebd 2b61 60be
00000010: 9d40 acbd 1b98 3c3e ccfe 26be 0def 87be
00000020: cbcd 92be d732 26bf ecfe 77be 8104 493c
00000030: 8443 8c3e a992 33be 4622 02bf 90c1 353e

conv_blocks.3.weight f4 [32, 16, 3, 3]
0.0039884094 0.15709583 0.055380344 -0.2788013 0.03628001 0.11876101 0.078955926 -0.20252849
-0.05264445 0.08698178 0.23945747 0.1483708 -0.11905783 -0.2784058 0.09436391 0.060060278
-0.1394699 -0.16512518 0.12880251 -0.23047413 0.20197187 0.30522585 0.27849808 -0.21142718
-0.20816942 0.07784197 0.012063528 0.31100637 0.39400056 0.07536213 -0.43062538 -0.0019458125
-0.061695546 -0.051461753 0.03581818 0.08141172 0.10629943 -0.027531551 0.052917942 0.012409945
0.013323133 -0.09160117 -0.025975918 -0.022243632 0.09738133 0.16775273 -0.12533492 -0.086716406
-0.06269499 0.069083996 -0.039088346 -0.09773704 0.006017663 0.01430915 -0.08885536 0.15012011
0.005237394 -0.120942034 0.0816406 -0.040166 -0.046410985 -0.34872442 0.017353864 -0.12994893
0.17287964 0.17253578 -0.08150982 -0.2866123 -0.082596205 -0.009124254 -0.3426061 -0.07518942
-0.07980625 0.26380977 0.13117757 0.4743184 -0.31303376 0.07667163 0.091642134 -0.037568334
0.022824008 0.029296495 0.22200727 0.08125497 0.0010567013 -0.25543413 -0.08574565 0.03575077
0.042466123 0.07153139 -0.11266325 0.12392289 0.30610046 0.06110158 -0.30709237 0.050485972
0.22157395 0.046132155 -0.10518039 0.15435573 0.024550295 0.016417531 -0.09874782 0.08151618
-0.12995759 -0.14725615 0.011218704 0.1030011 0.15053274 0.20487261 -0.13925835 -0.51435405
0.036994867 0.13299163 0.20294932 -0.06529116 -0.102324806 -0.020032171 0.29644808 0.013757274
0.05627559 -0.051204767 -0.11624211 -0.4624575 0.15937424 0.223592 0.029557565 0.20973575
0.102690764 -0.1721025 -0.16231385 -0.05595686 -0.1622742 -0.034754153 0.03246529 0.004631071
-0.073330775 -0.0054207845 0.15003762 -0.17464666 -0.122285925 0.03144939 -0.0027675696 -0.10215744
-0.0026760064 0.0085822735 -0.042895462 0.24108864 -0.19409941 0.056670792 0.302613 -0.14896354
-0.07810836 0.23940678 0.056337588 0.005975785 0.25167534 -0.27062562 -0.2014218 0.20390256
-0.19705904 -0.12854956 -0.1395314 0.08640141 -0.02944268 -0.21560918 -0.3177537 0.10104668
-0.2871016 -0.4054133 0.031721428 0.15266165 -0.19319725 0.2663937 -0.04045506 -0.13558659
-0.06712897 -0.06851155 -0.18701994 0.07471407 0.17604247 -0.05671672 -0.034282904 0.16590588
-0.10171486 -0.019065902 -0.16972764 0.021952333 -0.04990726 0.002374265 -0.063493855 0.023293573
0.09853938 -0.1288646 0.06725424 -0.21593925 -0.09148173 0.05224123 0.13816623 0.028913576
-0.072191976 -0.016375681 0.12784725 -0.1242206 0.022227824 0.05515229 -0.13135192 0.049410235
0.06670422 0.10042615 0.3700872 -0.1481478 -0.09360754 0.22832772 -0.2358693 -0.091743305
0.057662643 0.05321768 0.01288525 -0.103258334 -0.009624706 -0.0030480004 -0.038205378 -0.13500111
0.022772178 0.06835291 0.18934572 -0.10617568 0.1920461 0.11151701 -0.25055495 0.033319112
0.022725232 0.029659843 -0.0033707928 0.19556528 -0.019316515 -0.0556741 0.19773388 -0.15363193
0.026470438 -0.036745865 -0.0809231 0.06375175 -0.008031694 -0.04631771 0.22614633 -0.27842808
0.07890615 -0.015930152 -0.31399253 0.096399926 0.24074253 -0.15073505 0.013048514 0.28064203
00000000: 34b1 823b bbdd 203e 80d6 623d 0bbf 8ebe
00000010: 599a 143d f938 f33d a5b3 a13d a163 4fbe
00000020: b5a1 57bd 8123 b23d 5734 753e 84ee 173e
00000030: 97d4 f3bd 348b 8ebe de41 c13d c401 763d
00000040: 33d1 0ebe 9316 29be cee4 033e 6901 6cbe
00000050: b7d1 4e3e 9046 9c3e 4d97 8e3e 5e80 58be
00000060: 5d2a 55be 9c6b 9f3d 1ba6 453c 3a3c 9f3e
00000070: 71ba c93e 7657 9a3d ee7a dcbe a20a ffba
00000080: 78b4 7cbd 8fc9 52bd 15b6 123d 30bb a63d
00000090: 84b3 d93d d989 e1bc 7cc0 583d 1553 4b3c
000000a0: 4549 5a3c 6599 bbbd 73cb d4bc 4738 b6bc
000000b0: dd6f c73d 5fc7 2b3e cc57 00be 5f98 b1bd
000000c0: 3b66 80bd e97b 8d3d 1a1b 20bd 5b2a c8bd
000000d0: d12f c53b ed70 6a3c cdf9 b5bd 16b9 193e
000000e0: 729e ab3b 75b0 f7bd 3033 a73d 1b85 24bd
000000f0: 7219 3ebd 028c b2be b129 8e3c 5511 05be
00000100: 5c07 313e 38ad 303e 9fee a6bd d9be 92be
00000110: 3328 a9bd e57d 15bc 116a afbe e9fc 99bd
00000120: 7671 a3bd 1312 873e 6a53 063e dcd9 f23e
00000130: f645 a0be 0406 9d3d dfae bb3d 41e1 19bd
00000140: 6af9 ba3c 34ff ef3c e055 633e 0169 a63d
00000150: 0381 8a3a 43c8 82be 6a9b afbd 666f 123d
00000160: f5f0 2d3d 0d7f 923d fdbb e6bd 49cb fd3d
00000170: 33b9 9c3e a645 7a3d 363b 9dbe 61ca 4e3d
00000180: 48e4 623e 12f5 3c3d d168 d7bd 6e0f 1e3e
00000190: b31d c93c 0f7e 863c 4c3c cabd f4f1 a63d
000001a0: 9a13 05be 51ca 16be a8ce 373c 3ef2 d23d
000001b0: 4125 1a3e 20ca 513e be99 0ebe b5ac 03bf
000001c0: ee87 173d f52e 083e f2d1 4f3e 5fb7 85bd
000001d0: ab8f d1bd 821a a4bc 0bc8 973e 3066 613c
000001e0: 3c81 663d 17bc 51bd 5810 eebd 3bc7 ecbe
000001f0: 0033 233e 4df5 643e b522 f23c f8c4 563e
00000200: 894f d23d a33b 30be 9a35 26be 0533 65bd
00000210: 352b 26be 5f5a 0ebd 53fa 043d 3dc0 973b
00000220: 722e 96bd d6a0 b1bb 76a3 193e 93d6 32be
00000230: 0b71 fabd 13d1 003d 1d60 35bb eb37 d1bd
00000240: f05f 2fbb aa9c 0c3c 27b3 2fbd f1df 763e
00000250: ffc1 46be a21f 683d 17f0 9a3e e689 18be
00000260: 47f7 9fbd 0d27 753e 3ec2 663d 85d0 c33b
00000270: 97db 803e 718f 8abe 8441 4ebe d5cb 503e
00000280: d8c9 49be 7fa2 03be 52e1 0ebe 39f3 b03d
00000290: c631 f1bc a7c8 5cbe 9db0 a2be 90f1 ce3d
000002a0: fbfe 92be 5592 cfbe 54ee 013d 5653 1c3e
000002b0: 80d5 45be c164 883e 34b4 25bd 36d7 0abe
000002c0: ea7a 89bd c94f 8cbd 2882 3fbe b103 993d
000002d0: 7a44 343e cb4f 68bd 3b6c 0cbd 3be3 293e
000002e0: e14f d0bd 1830 9cbc 15cd 2dbe 61d5 b33c
000002f0: 8e6b 4cbd 8f99 1b3b 1109 82bd 2ad2 be3c
00000300: 04cf c93d 15f5 03be 97bc 893d 2e1f 5dbe
00000310: c65a bbbd e6fa 553d 737b 0d3e 2adc ec3c
00000320: 63d9 93bd 4b26 86bc 64ea 023e 5f67 febd
00000330: 2017 b63c 5ee7 613d 1e81 06be 6362 4a3d
00000340: 399c 883d 3aac cd3d 127c bd3e 0fb4 17be
00000350: 4fb5 bfbd bece 693e b987 71be eae3 bbbd
00000360: aa2f 6c3d c8fa 593d a81c 533c 1b79 d3bd
00000370: f1b0 1dbc f6c0 47bb 3e7d 1cbd bb3d 0abe
00000380: b88c ba3c 9cfc 8b3d d8e3 413e a372 d9bd
00000390: bca7 443e 0863 e43d bd48 80be 9f79 083d
000003a0: 442a ba3c 33f9 f23c 85e8 5cbb 4442 483e
000003b0: ab3d 9ebc 860a 64bd c07a 4a3e b051 1dbe
000003c0: 88d8 d83c d582 16bd 03bb a5bd 4790 823d
000003d0: 5e97 03bc a4b7 3dbd e792 673e 208e 8ebe
000003e0: 8c99 a13d f37f 82bc a1c3 a0be 536d c53d
000003f0: 3685 763e 4a5a 1abe 6fc9 553c 50b0 8f3e

conv_blocks.3.bias f4 [32]
-0.10706055 -0.08812311 -0.11019536 0.13812292 -0.10216989 -0.030946482 -0.040821612 -0.123481184
-0.32676867 -0.1265228 -0.39169 -0.07425339 -0.015025561 -0.1671961 -0.059770875 -0.08060311
-0.09702236 -0.025279462 -0.18425441 -0.08119681 -0.09995235 -0.19829375 -0.014603078 -0.05306371
-0.15196371 -0.20135877 -0.060115058 -0.16950355 -0.035348084 -0.11244923 -0.0732673 -0.090802245
00000000: 9042 dbbd e479 b4bd 1bae e1bd 1870 0d3e
00000010: 733e d1bd 7a83 fdbc 9034 27bd b4e3 fcbd
00000020: 394e a7be 318f 01be 978b c8be 2912 98bd
00000030: c52d 76bc 7435 2bbe 4ed2 74bd 3e13 a5bd
00000040: a9b3 c6bd e016 cfbc 30ad 3cbe 834a a6bd
00000050: d1b3 ccbd 840d 4bbe c041 6fbc 5559 59bd
00000060: 609c 1bbe fe30 4ebe 353b 76bd 5792 2dbe
00000070: 27c9 10bd c84b e6bd 2b0d 96bd 87f6 b9bd

conv_blocks.6.weight f4 [32]
1.6267322 1.6388012 1.5273933 1.3194184 1.6925427 1.6449524 1.5284433 1.4383564
2.0578256 1.426225 2.6356213 1.5885991 1.4467684 1.5635885 1.3663907 1.4943161
1.5885133 1.7317858 1.301791 1.4138367 1.4920436 1.7756182 1.4155561 1.2858601
1.5361202 1.5816075 1.5499151 1.4066219 2.5860934 1.3368219 1.4404348 1.4938082
00000000: c338 d03f 3dc4 d13f a081 c33f b4e2 a83f
00000010: 3da5 d83f cd8d d23f 08a4 c33f 101c b83f
00000020: 6ab3 0340 8a8e b63f 05ae 2840 3757 cb3f
00000030: b52f b93f ab23 c83f e4e5 ae3f c045 bf3f
00000040: 6754 cb3f 28ab dd3f 16a1 a63f 9af8 b43f
00000050: 49fb be3f 7547 e33f f130 b53f 1097 a43f
00000060: 969f c43f 1d72 ca3f 9e63 c63f 300c b43f
00000070: 8e82 2540 fb1c ab3f 2b60 b83f 1b35 bf3f

conv_blocks.6.bias f4 [32]
-0.15602225 0.03581401 0.045652468 0.10977144 0.053682018 0.054195397 0.048725486 0.014211423
0.084547624 -0.006544838 0.17081502 0.110194914 0.057774816 0.16034296 -0.030271074 0.06122641
-0.041448105 0.123457 0.058553748 -0.17246953 -0.050450597 0.042228706 0.06428169 0.009362408
0.12279684 0.055064894 -0.13713442 0.06537282 0.26686034 0.037452415 0.11752003 0.23377012
00000000: 4cc4 1fbe b6b1 123d 15fe 3a3d d9cf e03d
00000010: ade1 5b3d fefb 5d3d 6094 473d 07d7 683c
00000020: 4e27 ad3d 1576 d6bb 22ea 2e3e dfad e13d
00000030: 49a5 6c3d f230 243e 0bfb f7bc 8bc8 7a3d
00000040: 7dc5 29bd 06d7 fc3d 0ed6 6f3d da9b 30be
00000050: 49a5 4ebd 02f8 2c3d 1ea6 833d c964 193c
00000060: e97c fb3d ba8b 613d f76c 0cbe 2fe2 853d
00000070: eba1 883e b467 193d 57ae f03d 6f61 6f3e

conv_blocks.6.running_mean f4 [32]
-0.01722719 -0.013806329 0.00088546897 0.08068558 0.013559314 -0.020405155 -0.00012471773 0.036643308
-0.012148831 0.05492583 -0.026644124 -0.009198146 0.05047342 -0.013206909 0.07257538 0.010642825
0.03005482 0.010227421 0.010312013 0.00038285635 0.03195682 0.01379385 0.074229605 0.05221326
-0.024675218 0.060849465 -0.0008348426 0.010875665 0.116627954 0.04502533 -0.03302961 0.063783474
00000000: 0920 8dbc f133 62bc d11e 683a 7b3e a53d
00000010: e327 5e3c b628 a7bc a9c6 02b9 4b17 163d
00000020: e40b 47bc e8f9 603d c744 dabc d2b3 16bc
00000030: 38bd 4e3d cb61 58bc 67a2 943d 3e5f 2e3c
00000040: 8735 f63c ea90 273c b8f3 283c 1cba c839
00000050: 28e5 023d 9aff 613c b105 983d 92dd 553d
00000060: af23 cabc 4a3d 793d 57d9 5aba d82f 323c
00000070: a3da ee3d 7b6c 383d 0e4a 07bd e9a0 823d

conv_blocks.6.running_var f4 [32]
0.048966616 0.05044645 0.048865583 0.108477354 0.043549933 0.049749043 0.056614958 0.09291476
0.05493456 0.07184566 0.05616335 0.04205602 0.07262658 0.10222102 0.08537937 0.06596298
0.09356831 0.046937704 0.17261311 0.052077375 0.08227046 0.05526907 0.10789463 0.062721774
0.039393056 0.110930055 0.053183872 0.051392104 0.1937013 0.07420795 0.03210774 0.08201385
00000000: 3891 483d f0a0 4e3d 4727 483d 6029 de3d
00000010: 6a61 323d a7c5 4b3d 16e5 673d 184a be3d
00000020: 1003 613d d123 933d 8a0b 663d ef42 2c3d
00000030: 3fbd 943d 4159 d13d 61db ae3d 9917 873d
00000040: bea0 bf3d c041 403d 7ec1 303e 164f 553d
00000050: 6a7d a83d d261 623d dcf7 dc3d 4674 803d
00000060: 9d5a 213d 4c2f e33d 55d7 593d 8780 523d
00000070: a259 463e 56fa 973d 6883 033d e1f6 a73d

conv_blocks.7.weight f4 [64, 32, 3, 3]
-0.103831336 -0.40443173 -0.2349697 -0.3329403 -0.36829716 -0.24171497 -0.17998707 -0.121842645
-0.095164984 0.14200579 -0.0741901 0.14809956 -0.10599645 0.16035068 0.14022788 -0.010995803
-0.059382316 -0.08100034 0.19007428 -0.008240174 -0.07180257 0.037582718 -0.03248065 -0.09568545
0.10278974 -0.017578594 -0.028594378 -0.28132018 0.049028583 0.15851493 0.110085174 0.2315211
-0.025821077 0.010658833 0.06001466 0.07614407 -0.13556045 0.02081359 0.021953925 -0.22915666
-0.04887482 -0.30679837 -0.14073114 -0.06900727 -0.038928375 -0.09401977 -0.11811502 0.021772536
-0.32388622 -0.059257653 -0.21270777 -0.1366634 -0.13207494 -0.18652646 0.20841682 -0.02554385
0.039480705 -0.04867809 0.15412141 0.06320318 0.06295978 -0.15393004 -0.12296807 -0.23323116
0.06449373 0.0649197 -0.009030914 0.19379877 -0.019211024 0.09922573 -0.118317924 0.011399257
0.06773218 -0.09854853 -0.0452291 -0.029878045 -0.05131786 0.030845137 -0.22262745 -0.1715755
0.10644866 -0.07950221 0.112175986 0.15968187 -0.07411906 0.16814724 -0.060576268 -0.09432407
-0.06805572 0.015250371 -0.055265702 -0.08058625 0.088489346 -0.05253732 0.0020235914 0.018320845
-0.22457328 -0.06785474 -0.006643497 0.11740208 -0.06371835 -0.034227163 0.10980935 -0.035264853
-0.10385343 0.103417926 -0.046412785 -0.022045402 -0.07306407 -0.1999037 -0.22220206 0.27087703
0.2870607 0.119386226 0.1280748 -0.013695513 0.047597125 0.09969025 0.047818713 -0.07189445
-0.21865208 -0.11508107 0.075324655 0.07408218 -0.06589904 -0.0022172504 -0.2684665 -0.22711283
-0.22988307 0.09534143 0.32558855 -0.06673755 0.16402622 0.042055752 -0.09538031 0.051806193
0.0028162969 -0.13238585 0.030960862 0.17253682 0.08350128 0.12421343 -0.014291286 -0.024490155
-0.24083544 -0.07878189 0.02367364 -0.08845542 -0.15641989 -0.02866852 -0.1385753 0.16610298
-0.04232457 -0.058067948 -0.37733105 -0.20211639 0.24819078 0.22032851 -0.15836039 0.039208714
-0.08880162 -0.026461499 0.17212337 0.12176509 -0.026681557 0.05732165 0.08175621 0.11190312
0.18381634 0.1367858 0.03371128 -0.22528917 0.023260206 0.058917336 -0.036977567 0.020969616
0.0579812 0.4089464 0.24194022 -0.046412416 -0.28274938 -0.13801365 0.09562942 -0.25466505
-0.071885295 -0.08201935 -0.17675592 -0.0015251437 0.06854239 0.09146447 0.10563463 -0.032518893
0.073897995 0.07070043 -0.11130174 0.00020567935 -0.12193244 0.0023091678 -0.21267186 0.018979236
0.08675685 0.04934145 0.2698676 -0.008988065 0.09156652 -0.037995644 -0.10055492 -0.09189286
0.08731503 0.03197329 0.07241543 0.13868046 -0.17462103 -0.08648674 -0.012052364 -0.11167844
-0.020728715 0.0339673 -0.23009555 0.0725882 0.22291146 -0.016413279 0.22253586 -0.03160899
-0.06013627 -0.2136143 -0.21881309 -0.04438252 -0.045277983 0.009590979 0.014822152 0.016916938
0.03454655 0.08338023 0.05845119 0.006340745 0.12576662 0.23216751 0.2885405 0.008762259
-0.0704566 -0.22710633 -0.07221122 -0.01612956 0.07711195 0.099647544 -0.018069185 -0.19561985
-0.2202398 -0.20893292 -0.17638555 -0.1026882 -0.12418664 -0.31649825 0.10386555 0.016350864
00000000: 86a5 d4bd ad11 cfbe e69b 70be 2777 aabe
00000010: 7291 bcbe 2184 77be 884e 38be a388 f9bd
00000020: dce5 c2bd f769 113e fbf0 97bd 69a7 173e
00000030: ab14 d9bd f832 243e e697 0f3e be27 34bc
00000040: df3a 73bd 82e3 a5bd d5a2 423e cb01 07bc
00000050: 3a0d 93bd 56f0 193d 6e0a 05bd bcf6 c3bd
00000060: 6d83 d23d fc00 90bc c23e eabc 3309 90be
00000070: 32d2 483d bd51 223e 5674 e13d de13 6d3e
00000080: b986 d3bc 63a2 2e3c efd1 753d 6cf1 9b3d
00000090: 5cd0 0abe 4381 aa3c b8d8 b33c 0ba8 6abe
000000a0: f730 48bd ad14 9dbe d31b 10be af53 8dbd
000000b0: 5c73 1fbd 708d c0bd 4ae6 f1bd 515c b23c
000000c0: 6ad4 a5be 27b8 72bd 11d0 59be 7ef1 0bbe
000000d0: a73e 07be cb00 3fbe 386b 553e 5641 d1bc
000000e0: 85b6 213d ad62 47bd 01d2 1d3e ab70 813d
000000f0: 0ff1 803d d69f 1dbe afd6 fbbd 26d4 6ebe
00000100: 4a15 843d 9ff4 843d 66f6 13bc 2f73 463e
00000110: 7060 9dbc dc36 cb3d ab50 f2bd f3c3 3a3c
00000120: 2bb7 8a3d d0d3 c9bd 2642 39bd cdc2 f4bc
00000130: ad32 52bd f1ae fc3c 73f8 63be 7db1 2fbe
00000140: c101 da3d 0ed2 a2bd 86bc e53d a583 233e
00000150: bccb 97bd ca2e 2c3e d21e 78bd fa2c c1bd
00000160: cc60 8bbd b1dc 793c 4a5e 62bd 670a a5bd
00000170: e739 b53d 5f31 57bd 3b9e 043b 9915 963c
00000180: 8af6 65be 6df7 8abd b1b1 d9bb 8070 f03d
00000190: c47e 82bd c831 0cbd b9e3 e03d e171 10bd
000001a0: 1bb1 d4bd c7cc d33d 551b 3ebd 8f98 b4bc
000001b0: 9da2 95bd 8eb3 4cbe f088 63be 65b0 8a3e
000001c0: 9ff9 923e c480 f43d 0a26 033e 2563 60bc
000001d0: 34f5 423d 672a cc3d 8edd 433d 663d 93bd
000001e0: 55e6 5fbe a0af ebbd d043 9a3d 66b8 973d
000001f0: 13f6 86bd 4a4f 11bb 7174 89be 4490 68be
00000200: 7866 6bbe 5e42 c33d 8bb3 a63e b2ad 88bd
00000210: 7df6 273e a742 2c3d c156 c3bd bb32 543d
00000220: 9f91 383b 2890 07be a2a1 fd3c 7ead 303e
00000230: b802 ab3d 9c63 fe3d ff25 6abc 949f c8bc
00000240: 919d 76be 6658 a1bd 39ef c13c 1e28 b5bd
00000250: 892c 20be 3eda eabc afe6 0dbe e616 2a3e
00000260: 875c 2dbd a8d8 6dbd 8931 c1be 99f7 4ebe
00000270: b925 7e3e cc9d 613e 3a29 22be 5199 203d
00000280: a0dd b5bd c9c5 d8bc 1c41 303e fa5f f93d
00000290: 4893 dabc 1bca 6a3d cd6f a73d 772d e53d
000002a0: 5a3a 3c3e 9411 0c3e d714 0a3d 34b2 66be
000002b0: 308c be3c 4e53 713d ca75 17bd 79c8 ab3c
000002c0: b27d 6d3d 6c61 d13e 2dbf 773e f21a 3ebd
000002d0: 87c4 90be 7353 0dbe 5bd9 c33d 7563 82be
000002e0: 9938 93bd c3f9 a7bd 81ff 34be 55e7 c7ba
000002f0: f45f 8c3d b951 bb3d f856 d83d 8832 05bd
00000300: d557 973d 63cb 903d 2bf2 e3bd a1ab 5739
00000310: b7b7 f9bd 6855 173b a7c6 59be 587a 9b3c
00000320: 93ad b13d 431a 4a3d 162c 8a3e ad42 13bc
00000330: 3a87 bb3d 52a1 1bbd bdef cdbd 5332 bcbd
00000340: 39d2 b23d 6df6 023d 8a4e 943d 4002 0e3e
00000350: dbcf 32be f61f b1bd 4777 45bc aab7 e4bd
00000360: 44cf a9bc 4c21 0b3d 2b9e 6bbe 1fa9 943d
00000370: e742 643e 2475 86bc 71e0 633e 6e78 01bd
00000380: 7351 76bd b5bd 5abe 8a10 60be 72ca 35bd
00000390: 6875 39bd 7b23 1d3c 9dd8 723c 6495 8a3c
000003a0: af80 0d3d 41c3 aa3d 846a 6f3d 06c6 cf3b
000003b0: f7c8 003e 52bd 6d3e 95bb 933e 948f 0f3c
000003c0: 8d4b 90bd 908e 68be 7ae3 93bd 2422 84bc
000003d0: dfec 9d3d 0314 cc3d d405 94bc 9250 48be
000003e0: 8b86 61be 83f2 55be 6a9e 34be 314e d2bd
000003f0: 9155 febd 0f0c a2be 76b7 d43d 3ff2 853c

conv_blocks.7.bias f4 [64]
-0.19488256 -0.15438743 -0.16895384 -0.37366924 -0.26492065 -0.2206928 -0.28878075 -0.33643606
-0.33936375 -0.08883912 -0.27435893 -0.043435555 -0.041620098 -0.22401373 -0.35709864 -0.49852562
-0.15700644 -0.19227794 -0.14147682 -0.018407695 -0.09769475 -0.084663816 -0.12243112 -0.17311071
-0.34601307 -0.037475087 -0.1949988 0.04206624 -0.18262501 -0.15369415 -0.28649548 -0.19267921
-0.2107711 -0.2360898 0.040417966 0.007848431 -0.22072601 -0.4611013 -0.3564215 -0.2625857
-0.41725495 0.013961025 -0.1470413 -0.1521129 -0.2823067 -0.090189695 -0.15898545 -0.11514042
-0.13234188 -0.01808335 -0.17453203 -0.2643294 -0.22460032 -0.1445948 -0.021792607 -0.32720563
-0.2982763 -0.17717503 -0.11879755 -0.13711871 -0.21111833 -0.14405432 -0.07227203 -0.29568246
00000000: 4b8f 47be bd17 1ebe 3c02 2dbe 9351 bfbe
00000010: aea3 87be 4bfd 61be 12db 93be 5941 acbe
00000020: 16c1 adbe 49f1 b5bd c678 8cbe 7be9 31bd
00000030: d679 2abd db63 65be a2d5 b6be c03e ffbe
00000040: 4cc6 20be 82e4 44be 4ddf 10be bccb 96bc
00000050: 2f14 c8bd 3964 adbd 2bbd fabd ef43 31be
00000060: a028 b1be 7a7f 19bd c4ad 47be a64d 2c3d
00000070: 0d02 3bbe 0062 1dbe 89af 92be b34d 45be
00000080: 61d4 57be 86c1 71be 4f8d 253d b596 003c
00000090: 0006 62be 7815 ecbe e17c b6be a271 86be
000000a0: 71a2 d5be c8bc 643c ff91 16be 7cc3 1bbe
000000b0: 818a 90be 60b5 b8bd 15cd 22be bece ebbd
000000c0: a184 07be 8923 94bc 86b8 32be 2f56 87be
000000d0: a0fd 65be a910 14be 6986 b2bc 7f87 a7be
000000e0: acb7 98be 5f6d 35be 214c f3bd d968 0cbe
000000f0: 672f 58be fa82 13be 5c03 94bd b163 97be

conv_blocks.10.weight f4 [64]
1.8924943 1.6674374 1.8425398 1.7377194 1.6408349 1.6622919 1.5705452 1.870953
1.7100736 1.6448649 1.800251 1.8013712 1.8276873 1.691575 1.6603637 1.8784691
1.6600412 1.5079429 1.7090987 1.6330891 1.549959 1.9705708 1.6477151 1.8565803
1.6470424 1.7565267 1.7342992 1.8065518 1.562477 1.8544861 1.7601033 1.428959
1.8920538 1.7879055 1.7680305 1.755609 1.6914829 1.7802141 1.7970741 1.832872
1.3960062 1.6841624 1.6635642 1.6557541 1.6271391 1.8733921 1.6945426 1.5039048
1.8444531 1.7440413 1.7535071 1.6834675 1.8529829 1.9117999 1.5414941 1.7820507
1.7572912 1.669032 1.7166418 1.738429 1.6984493 1.6884584 1.6727798 1.6619703
00000000: 413d f23f 976e d53f 58d8 eb3f 976d de3f
00000010: e106 d23f fbc5 d43f a007 c93f 637b ef3f
00000020: b1e3 da3f ef8a d23f a06e e63f 5593 e63f
00000030: a8f1 e93f 8885 d83f cc86 d43f ad71 f03f
00000040: 3b7c d43f 4604 c13f bfc3 da3f 1009 d13f
00000050: 0e65 c63f aa3b fc3f 54e8 d23f 6ca4 ed3f
00000060: 49d2 d23f ded5 e03f 84fd dd3f 173d e73f
00000070: 3fff c73f cd5f ed3f 114b e13f 21e8 b63f
00000080: d22e f23f 16da e43f d34e e23f ccb7 e03f
00000090: 8382 d83f 0ede e33f 8606 e63f 8d9b ea3f
000000a0: 55b0 b23f a292 d73f acef d43f c0ef d33f
000000b0: 1846 d03f 50cb ef3f c6e6 d83f f47f c03f
000000c0: 0a17 ec3f bf3c df3f ec72 e03f dd7b d73f
000000d0: 8b2e ed3f dcb5 f43f ae4f c53f 3d1a e43f
000000e0: ebee e03f d7a2 d53f ebba db3f d784 de3f
000000f0: c966 d93f 681f d83f a61d d63f 71bb d43f

conv_blocks.10.bias f4 [64]
0.058612436 0.31437722 0.017779572 0.23044774 -0.2324901 0.2645658 -0.13126068 0.0097659975
-0.30571517 0.1847317 0.15487805 -0.003181049 0.098504655 0.286585 0.22161211 0.037536472
-0.1582215 0.37044507 0.16539788 0.026206376 0.28084978 -0.19288085 0.30413324 -0.14360702
0.090147786 0.51041543 -0.04756411 -0.04751851 -0.2682202 -0.11996886 -0.2712198 0.19124715
-0.27906996 0.4184677 -0.30409676 0.3724787 -0.1537772 0.28345853 0.22617008 0.058138605
0.4168455 -0.13689685 0.28286916 -0.14210878 0.3731832 0.41415045 0.475421 0.2447794
0.05561838 0.033947635 0.32656676 0.2468147 0.24013948 0.1273319 -0.18830785 0.14045928
0.11456197 -0.22314358 -0.17829813 -0.40954465 0.18774317 0.39924148 0.3699487 0.607929
00000000: 9813 703d 0df6 a03e 77a6 913c 7efa 6b3e
00000010: e311 6ebe 2b75 873e 3369 06be 9001 203c
00000020: b386 9cbe 4f2a 3d3e 5a98 1e3e 2579 50bb
00000030: cfbc c93d 45bb 923e 49ee 623e d8bf 193d
00000040: d104 22be faaa bd3e 105e 293e c1ae d63c
00000050: 8bcb 8f3e 8f82 45be 5ab7 9b3e b80d 13be
00000060: 679f b83d 96aa 023f 96d2 42bd c5a2 42bd
00000070: 2854 89be 3cb2 f5bd 52dd 8abe 4bd6 433e
00000080: 42e2 8ebe 6641 d63e 92b2 9bbe 87b5 be3e
00000090: c577 1dbe 7a21 913e 2199 673e bf22 6e3d
000000a0: c66c d53e b02e 0cbe 3ad4 903e f784 11be
000000b0: de11 bf3e 870b d43e 626a f33e 73a7 7a3e
000000c0: 19d0 633d ad0c 0b3d c233 a73e febc 7c3e
000000d0: 20e7 753e 4b63 023e c6d3 40be 8fd4 0f3e
000000e0: 779f ea3d c07f 64be c993 36be d6af d1be
000000f0: bf3f 403e 6169 cc3e ea69 bd3e 3ca1 1b3f

conv_blocks.10.running_mean f4 [64]
0.17875174 0.37197202 0.1421573 0.2738566 0.14235748 -0.0042548487 0.075545825 0.15461579
0.11863567 0.09900085 0.17691725 0.04430862 0.3425831 -0.014259177 0.16577035 0.39877948
0.039290577 0.122341365 0.11216068 0.085698694 0.24340081 0.016263671 0.16121426 0.028260011
0.07304587 0.3992928 0.076322295 0.07735862 0.119399905 0.030887472 0.24540247 0.22879332
0.00092222134 0.056945715 0.057766873 0.1927766 -0.012607319 0.17887478 0.14758326 0.05007088
0.16666329 0.024967348 0.09969144 0.0955151 0.1013989 0.09963385 0.11005187 0.123039104
0.022997571 0.06979435 0.10299323 0.02225336 0.11577708 0.16736531 0.08076339 0.3282998
0.2802939 0.020608045 0.04849261 -0.045642354 0.035169005 0.12144872 0.040995624 0.16928118
00000000: b20a 373e 1e73 be3e af91 113e ef36 8c3e
00000010: 29c6 113e 426c 8bbb c5b7 9a3d 9a53 1e3e
00000020: 42f7 f23d f5c0 ca3d cc29 353e f57c 353d
00000030: 0d67 af3e 539f 69bc b4bf 293e d32c cc3e
00000040: 28ef 203d 1c8e fa3d 80b4 e53d cc82 af3d
00000050: 103e 793e 643b 853c 5a15 253e 8a81 e73c
00000060: 1399 953d 1b70 cc3e dd4e 9c3d 326e 9e3d
00000070: f087 f43d b907 fd3c c94a 7b3e cc48 6a3e
00000080: 3ac1 713a e93f 693d f59c 6c3d 3b67 453e
00000090: ee8e 4ebc f32a 373e 1120 173e 2017 4d3d
000000a0: c8a9 2a3e 5388 cc3c 072b cc3d 6c9d c33d
000000b0: 3aaa cf3d d50c cc3d e062 e13d edfb fb3d
000000c0: 6765 bc3c 57f0 8e3d 1dee d23d ae4c b63c
000000d0: 891c ed3d d061 2b3e 4767 a53d e916 a83e
000000e0: af82 8f3e 34d2 a83c 30a0 463d 7af3 3abd
000000f0: 600d 103d 1bba f83d 07eb 273d 0c58 2d3e

conv_blocks.10.running_var f4 [64]
0.6369956 0.8870048 0.5670843 0.97277963 0.4716121 0.25831282 0.4569373 0.6499542
0.519293 0.5512567 0.72287047 0.24345563 1.0531307 0.19700162 0.5132049 1.2011552
0.3626258 0.32992572 0.5134961 0.37784114 0.5485124 0.33448482 0.7110731 0.2189071
0.35895786 1.334036 0.32158345 0.6052965 0.51241815 0.45683014 1.1703051 0.6436345
0.23690912 0.33520004 0.32211313 0.53549135 0.2837182 0.8389435 0.71974874 0.26675048
0.51627266 0.17612591 0.3798282 0.3999473 0.45669407 0.4927276 0.59639716 0.53539795
0.33731508 0.17647651 0.51029474 0.24972896 0.38884506 0.4604017 0.39135006 0.8601142
0.9582926 0.28000283 0.29704046 0.30831748 0.52558756 0.5330936 0.29623836 0.5210709
00000000: 2512 233f bf12 633f 702c 113f 1608 793f
00000010: 2477 f13e 9441 843e b0f3 e93e 6663 263f
00000020: 63f0 043f 291f 0d3f 0a0e 393f 6f4c 793e
00000030: fdcc 863f cbba 493e 6561 033f 74bf 993f
00000040: 17aa b93e 06ec a83e 7b74 033f 6574 c13e
00000050: 4f6b 0c3f 9841 ab3e e308 363f 2f29 603e
00000060: 53c9 b73e b1c1 aa3f 96a6 a43e b6f4 1a3f
00000070: d62d 033f a4e5 e93e 8fcc 953f 3bc5 243f
00000080: 4e98 723e 579f ab3e 03ec a43e f615 093f
00000090: 8343 913e 00c5 563f 7441 383f 8593 883e
000000a0: 722a 043f 5a5a 343e d878 c23e e4c5 cc3e
000000b0: ced3 e93e cb46 fc3e 7cad 183f d70f 093f
000000c0: 90b4 ac3e 42b6 343e ada2 023f f3b8 7f3e
000000d0: b316 c73e c6b9 eb3e 095f c83e 7230 5c3f
000000e0: aa52 753f 885c 8f3e b015 983e cadb 9d3e
000000f0: e88c 063f d278 083f 8eac 973e e764 053f

conv_blocks.11.weight f4 [128, 64, 3, 3]
0.007898415 0.18135916 -0.2511399 0.13111407 0.10343263 -0.006012881 0.12019058 -0.08519177
-0.028750516 0.058562756 -0.07823624 -0.0896141 -0.4145184 -0.27902523 -0.02548672 0.057324007
-0.08322352 -0.013854269 0.06318587 0.02946279 -0.050186116 -0.010415013 -0.0060503115 0.05399032
0.117057726 0.1458665 -0.030656291 -0.013857842 -0.0013186034 -0.019194549 0.07543519 -0.074681066
-0.00044898523 -0.10380494 -0.0066810157 0.0127088465 0.017108107 0.16887897 -0.008580314 -0.12561648
-0.025998905 -0.030510187 -0.05575843 -0.0020814808 0.0054256837 0.038977135 0.07072331 0.094089754
-0.17304648 -0.01347618 -0.2238614 -0.19918144 -0.0066211233 0.024795964 0.042580616 -0.03230007
-0.26259285 0.10389661 0.06104669 0.0022370669 -0.34076113 -0.03517465 0.019320674 0.06414987
0.029265488 -0.0056655826 0.044777196 -0.059139706 -0.08733387 -0.2593119 0.15853505 -0.042620342
-0.071481794 -0.16190206 0.039886475 -0.11914222 -0.11406422 0.031194791 0.011895051 -0.09650658
0.043442704 0.07535192 0.048659764 -0.20186628 -0.06611125 -0.11268589 0.03752465 0.14410065
-0.059972595 0.0010978522 0.16768143 0.10162409 -0.33906347 0.04932097 0.12672146 0.13020387
-0.0071919034 0.041772097 0.007661645 0.066962324 0.12986268 -0.13588628 -0.18271226 0.22198065
0.01909204 0.057112258 -0.0039027284 -0.01390269 0.0040778327 0.06658046 -0.039540984 -0.039922453
-0.10313394 -0.06460854 -0.03253371 0.01999808 -0.012557343 -0.104411095 0.07441464 0.12768494
-0.109614 0.19496687 -0.13001089 -0.21655338 -0.047944892 0.00899767 0.20215967 -0.27673754
-0.26141974 0.045292802 -0.1587703 0.07643614 -0.021696914 -0.00731776 0.019929592 0.10589497
0.022251876 -0.19490169 -0.2786959 -0.10261764 -0.047787838 0.24745686 -0.014628056 0.0071281404
0.13976653 0.028784154 0.16429898 -0.0420333 -0.024521366 -0.0055017173 -0.043837156 0.08287012
0.0047091455 -0.010952588 0.09480291 -0.2048728 -0.23738083 -0.037114583 0.017538605 -0.0025837529
0.016643953 -0.020001816 -0.0032700421 -0.1520919 -0.07419433 -0.23541076 -0.10598283 -0.14734359
-0.018120749 -0.07934578 0.04293616 -0.09370118 -0.1247434 -0.0579976 -0.0039280816 -0.122225255
-0.009361547 -0.06065161 -0.055612907 0.011611587 0.055816647 -0.060217388 0.031961937 -0.3122914
-0.13031451 -0.051715713 -0.2868821 -0.055038024 0.012335078 0.0069509456 0.015944565 -0.011184416
0.093781225 0.15586258 0.017697433 0.11362961 0.05017734 -0.042323183 0.033381574 0.093476765
0.13192202 -0.10678657 -0.10814783 -0.05405246 -0.08212788 0.17115104 -0.010367895 0.036782127
0.17083259 0.113683335 -0.17649984 -0.049431976 0.0953934 0.1315318 -0.1078822 -0.021483142
-0.028331269 -0.12167082 0.01101231 -0.13029511 0.12304753 0.09087446 0.33899125 -0.103876606
-0.04408447 0.025129026 0.01952831 -0.16919398 -0.06857796 0.05208865 0.007933632 -0.0061852774
-0.012004824 0.009285916 -0.15133245 0.33501217 -0.031201214 0.17999548 0.0041093226 0.020659134
0.012535488 -0.056976486 -0.03225869 -0.11780216 0.082716666 0.124533534 -0.10049028 -0.109511435
0.068972625 0.000623078 -0.009403316 -0.017055009 -0.0082453815 0.14770752 0.21634296 0.08035745
00000000: 5b68 013c 37b6 393e 6995 80be c442 063e
00000010: 7dd4 d33d b407 c5bb 7b26 f63d 0679 aebd
00000020: 3486 ebbc 80df 6f3d 523a a0bd 9987 b7bd
00000030: c13b d4be 65dc 8ebe 87c9 d0bc 94cc 6a3d
00000040: 1871 aabd 04fd 62bc 9867 813d f35b f13c
00000050: f58f 4dbd bba3 2abc b141 c6bb f424 5d3d
00000060: f6bb ef3d 075e 153e e722 fbbc 010c 63bc
00000070: fdd4 acba e33d 9dbc c47d 9a3d 63f2 98bd
00000080: c765 ebb9 af97 d4bd 6cec dabb c438 503c
00000090: 4d26 8c3c 9cee 2c3e 7294 0cbc 9ba1 00be
000000a0: a8fb d4bc 80f0 f9bc f462 64bd 7469 08bb
000000b0: efc9 b13b 7da6 1f3d 62d7 903d 21b2 c03d
000000c0: 1933 31be 32cb 5cbc ec3b 65be 38f6 4bbe
000000d0: 02f6 d8bb e820 cb3c 0369 2e3d 144d 04bd
000000e0: 9272 86be bfc7 d43d 180c 7a3d c19b 123b
000000f0: 3e78 aebe 4b13 10bd 6446 9e3c 0261 833d
00000100: 2dbe ef3c 5aa6 b9bb 4b68 373d 7a3c 72bd
00000110: 1adc b2bd 88c4 84be 0357 223e ab92 2ebd
00000120: 0c65 92bd a7c9 25be 0060 233d d600 f4bd
00000130: 809a e9bd 388c ff3c 76e3 423c 3ea5 c5bd
00000140: faf0 313d 1c52 9a3d 764f 473d 09b6 4ebe
00000150: 5665 87bd dcc7 e6bd 73b3 193d 1f8f 133e
00000160: d3a5 75bd cfe5 8f3a aeb4 2b3e 4a20 d03d
00000170: ba99 adbe c904 4a3d 45c3 013e 2a54 053e
00000180: 0faa ebbb 3819 2b3d 890e fb3b 8b23 893d
00000190: b9fa 043e c625 0bbe ec18 3bbe e54e 633e
000001a0: e966 9c3c 8bee 693d ebc4 7fbb 1cc8 63bc
000001b0: 579f 853b 565b 883d baf5 21bd ba85 23bd
000001c0: e337 d3bd 7b51 84bd 1142 05bd 03d3 a33c
000001d0: 50bd 4dbc 7cd5 d5bd b466 983d d7bf 023e
000001e0: 4e7d e0bd 65a5 473e 9321 05be 2bc0 5dbe
000001f0: dd61 44bd f76a 133c f202 4f3e 8bb0 8dbe
00000200: cfd8 85be f284 393d ae94 22be 8d8a 9c3d
00000210: babd b1bc d2c9 efbb 6243 a33c 76df d83d
00000220: 9149 b63c 4f94 47be 3bb1 8ebe 3229 d2bd
00000230: 2ebd 43bd 5565 7d3e 84aa 6fbc 2d93 e93b
00000240: f51e 0f3e bfcc eb3c fe3d 283e 1c2b 2cbd
00000250: 08e1 c8bc c047 b4bb 978e 33bd cfb7 a93d
00000260: 2d4f 9a3b 7c72 33bc 0728 c23d 2dca 51be
00000270: f613 73be 7605 18bd 1fad 8f3c 2e54 29bb
00000280: e658 883c d9da a3bc 344e 56bb fbbd 1bbe
00000290: 32f3 97bd 850f 71be 870d d9bd 3de1 16be
000002a0: f771 94bc 0a80 a2bd d4dd 2f3d 67e6 bfbd
000002b0: 7879 ffbd e48e 6dbd 23b7 80bb 3c51 fabd
000002c0: 2d61 19bc d36d 78bd 5cca 63bd 873e 3e3c
000002d0: ff9f 643d 82a6 76bd 85ea 023d a9e4 9fbe
000002e0: 2b71 05be dbd3 53bd 36e2 92be 8d6f 61bd
000002f0: 1119 4a3c c2c4 e33b 2d9e 823c d73e 37bc
00000300: 5f10 c03d 719a 1f3e 35fa 903c a4b6 e83d
00000310: c186 4d3d 135b 2dbd 1ebb 083d bf70 bf3d
00000320: 9116 073e ebb2 dabd 9c7c ddbd 1d66 5dbd
00000330: a932 a8bd 3842 2f3e 1ade 29bc dba8 163d
00000340: bdee 2e3e cfd2 e83d 60bc 34be 2f79 4abd
00000350: 9d5d c33d 46b0 063e 58f1 dcbd 6afd afbc
00000360: fa16 e8bc 8d2e f9bd fa6c 343c 156c 05be
00000370: 5800 fc3d 641c ba3d 4390 ad3e 42bd d4bd
00000380: eb91 34bd 63db cd3c d6f9 9f3c 3041 2dbe
00000390: 9a72 8cbd e95a 553d 10fc 013c dead cabb
000003a0: e2af 44bc f423 183c e5f6 1abe b786 ab3e
000003b0: b099 ffbc bc50 383e 7fa7 863b 583d a93c
000003c0: a661 4d3c 2d60 69bd b021 04bd 4242 f1bd
000003d0: 5b67 a93d 700b ff3d d9cd cdbd 8847 e0bd
000003e0: 8541 8d3d 0f56 233a 5e10 1abc f2b6 8bbc
000003f0: a317 07bc a440 173e 0289 5d3e 7292 a43d

conv_blocks.11.bias f4 [128]
-0.21726726 0.3374124 -0.35098615 0.21206948 -0.28886628 -0.14484614 -0.22506236 0.06814486
-0.24635912 -0.03895099 -0.22825654 0.035972565 -0.18288516 0.14774773 -0.038961243 -0.12580155
-0.27234736 -0.01556327 -0.37967932 -0.24348797 -0.20304044 -0.15438473 -0.038934156 0.021059928
-0.11364496 -0.20762563 -0.056892753 -0.031171117 -0.21646512 -0.28384182 -0.16290857 -0.16107863
-0.13662148 -0.22836709 -0.23440772 -0.11333033 -0.32877252 -0.18664163 -0.30359972 0.14503272
-0.25002477 -0.13075587 -0.41436973 -0.2769154 -0.3579235 -0.15116554 -0.37931737 0.051470544
-0.26183465 -0.1569551 -0.20985822 -0.1809372 -0.19053291 -0.3391283 0.0019135955 -0.12311126
-0.21772453 -0.3794936 0.09426266 -0.18927707 -0.13797599 -0.11092377 -0.21344714 -0.08012169
-0.21338597 -0.044216383 -0.32938763 0.09031244 -0.2271876 -0.29849207 0.12971714 -0.25668314
-0.3226593 0.12786448 -0.033667617 -0.2740557 -0.1793444 -0.21242675 -0.31074637 -0.22737093
0.0038476961 -0.25937378 -0.09635162 0.18717957 -0.1543805 0.11358714 -0.23326316 0.1741664
-0.3383114 -0.3241483 -0.16346829 -0.22781494 -0.21709062 -0.34578213 -0.13313684 0.030575873
-0.048493344 -0.07510488 0.037440374 -0.05680779 -0.15810108 -0.24577084 -0.30487764 -0.15282837
-0.19741935 -0.09604779 -0.20247662 -0.19705452 -0.3209269 0.094288334 -0.12324562 0.13138358
-0.23773234 0.20021972 -0.21163161 -0.20157479 -0.27841377 -0.27651924 -0.3031481 -0.01505045
0.110864826 -0.1306593 -0.15027377 0.12187344 -0.21032381 -0.03755044 -0.33165944 -0.36865062
00000000: 4f7b 5ebe 51c1 ac3e 75b4 b3be be28 593e
00000010: 48e6 93be 8c52 14be bf76 66be 888f 8b3d
00000020: 9145 7cbe 138b 1fbd 15bc 69be f857 133d
00000030: 3f46 3bbe 2e4b 173e d395 1fbd 1fd2 00be
00000040: 1d71 8bbe 16fd 7ebc 5465 c2be e954 79be
00000050: d5e9 4fbe 0817 1ebe 6c79 1fbd df85 ac3c
00000060: b0be e8bd d09b 54be 6008 69bd 925a ffbc
00000070: 08a9 5dbe b753 91be 81d1 26be ccf1 24be
00000080: 80e6 0bbe 10d9 69be 9408 70be bb19 e8bd
00000090: df54 a8be fc1e 3fbe 6c71 9bbe 7583 143e
000000a0: 3f03 80be dee4 05be 4528 d4be dbc7 8dbe
000000b0: c041 b7be 24cb 1abe e335 c2be c7d2 523d
000000c0: 310f 86be d6b8 20be 13e5 56be 9a47 39be
000000d0: 0f1b 43be 39a2 adbe 9cd1 fa3a c221 fcbd
000000e0: 2ef3 5ebe fc4c c2be c80c c13d d9d1 41be
000000f0: 9449 0dbe 002c e3bd e391 5abe d716 a4bd
00000100: da81 5abe 3d1c 35bd 7fa5 a8be bbf5 b83d
00000110: dea3 68be f4d3 98be 92d4 043e f96b 83be
00000120: 9a33 a5be e8ee 023e 0ee7 09bd 0751 8cbe
00000130: 0fa6 37be 6686 59be 261a 9fbe edd3 68be
00000140: a129 7c3b a4cc 84be 0054 c5bd 00ac 3f3e
00000150: ec15 1ebe 60a0 e83d 8adc 6ebe ad58 323e
00000160: 2737 adbe c4f6 a5be 3b64 27be 5248 69be
00000170: 014d 5ebe 5b0a b1be 0655 08be 417a fa3c
00000180: f5a0 46bd 96d0 99bd 145b 193d 49af 68bd
00000190: 40e5 21be 5aab 7bbe ec18 9cbe 0a7f 1cbe
000001a0: 4c28 4abe b4b4 c4bd 0856 4fbe a9c8 49be
000001b0: 8850 a4be 3e1a c13d 3368 fcbd 6b89 063e
000001c0: 1b70 73be 6606 4d3e f5b5 58be 9f69 4ebe
000001d0: 408c 8ebe ee93 8dbe 3a36 9bbe 2a96 76bc
000001e0: 190d e33d 8dcb 05be 5ee1 19be c898 f93d
000001f0: 205f 57be 7dce 19bd 44cf a9be c6bf bcbe

conv_blocks.14.weight f4 [128]
1.6961923 1.44768 1.6647465 1.4873071 1.8963717 1.757763 1.9591209 1.5541326
1.8235278 1.630619 1.5506577 1.7810774 2.015844 2.2709737 1.6370587 1.6790286
1.8197935 1.6539181 1.6299092 1.591616 1.7679125 1.8250725 1.9052914 1.5958911
1.6344211 1.8639967 1.7985691 1.5586157 1.6810822 1.7798866 1.8731321 1.53651
1.7290717 1.733188 1.7496504 1.6970692 1.7420564 1.6658934 1.8449211 1.5495197
1.7685556 1.7709177 1.8828226 1.6712933 1.5709887 1.8317963 1.921202 1.7211248
1.908687 1.6037327 1.7852848 2.0620244 1.5229763 1.8330388 1.6437756 1.5430083
1.7338476 1.8156579 1.7474885 1.3676 1.8335478 1.7282691 1.7987634 1.617541
2.0163212 2.1605272 1.8585958 2.2698786 1.8888382 1.7502306 2.1452801 1.801202
1.3111831 1.5296301 1.7444196 1.8762981 1.0235573 1.6870933 1.7856567 1.8042274
1.5246179 1.7913978 1.6619039 1.6489058 1.7361566 1.4626676 1.6501555 1.4238143
1.7984704 1.778896 1.8288242 2.098881 1.703603 1.7635841 1.5718601 1.5509436
1.5767642 1.8078732 1.6428553 1.6774102 1.5404748 1.7015678 1.761129 1.6259004
1.4691632 1.6218708 1.5320477 1.8831048 1.775182 1.7508092 1.6578294 1.3482816
1.5709386 1.5965118 1.7106012 1.6952909 1.8910108 1.74339 1.8397907 1.7961308
1.5608764 1.7760187 1.5803089 2.1314147 1.7759153 1.6370147 1.8452202 1.8078195
00000000: d41c d93f 944d b93f 6a16 d53f 1460 be3f
00000010: 4fbc f23f 61fe e03f 79c4 fa3f d1ed c63f
00000020: 5c69 e93f 20b8 d03f f47b c63f 58fa e33f
00000030: 9703 0140 a257 1140 248b d13f 69ea d63f
00000040: feee e83f 97b3 d33f dda0 d03f 13ba cb3f
00000050: f54a e23f fa9b e93f 97e0 f33f 2946 cc3f
00000060: b634 d13f 7297 ee3f 8337 e63f b880 c73f
00000070: b42d d73f 53d3 e33f cbc2 ef3f 5cac c43f
00000080: 3952 dd3f 1bd9 dd3f 8bf4 df3f 9039 d93f
00000090: b4fb de3f ff3b d53f 6026 ec3f a956 c63f
000000a0: 0860 e23f 6ead e23f 5500 f13f f0ec d53f
000000b0: 2816 c93f 4d78 ea3f f2e9 f53f d14d dc3f
000000c0: db4f f43f 1d47 cd3f 3684 e43f 35f8 0340
000000d0: e3f0 c23f 04a1 ea3f 3d67 d23f 4c81 c53f
000000e0: b8ee dd3f 7a67 e83f b4ad df3f 840d af3f
000000f0: b2b1 ea3f ec37 dd3f e13d e63f 950b cf3f
00000100: 680b 0140 1446 0a40 78e6 ed3f b145 1140
00000110: 73c5 f13f 8e07 e03f 454c 0940 ca8d e63f
00000120: d9d4 a73f ebca c33f 2449 df3f 892a f03f
00000130: ed03 833f acf2 d73f 6690 e43f ecf0 e63f
00000140: ae26 c33f 864c e53f 44b9 d43f 580f d33f
00000150: 613a de3f b138 bb3f 4c38 d33f 8c3f b63f
00000160: 4734 e63f ddb2 e33f e916 ea3f 1154 0640
00000170: aa0f da3f 20bd e13f b632 c93f 5285 c63f
00000180: 69d3 c93f 6468 e73f 1549 d23f 61b5 d63f
00000190: 472e c53f f9cc d93f ad6c e13f 811d d03f
000001a0: 8a0d bc3f 7699 cf3f 241a c43f 9409 f13f
000001b0: 2a39 e33f 841a e03f c133 d43f 7e94 ac3f
000001c0: 8414 c93f 805a cc3f fbf4 da3f 4bff d83f
000001d0: a40c f23f 6727 df3f 437e eb3f 9de7 e53f
000001e0: ccca c73f 9554 e33f 9047 ca3f 1969 0840
000001f0: 3151 e33f b389 d13f 2d30 ec3f a166 e73f

conv_blocks.14.bias f4 [128]
-0.109478265 0.08369546 0.072887644 0.07862016 -0.10533717 -0.16178156 -0.16403387 0.09191543
-0.106715314 -0.09930802 -0.1490472 0.017450884 -0.086942874 -0.0072475937 -0.08974249 -0.13268043
-0.16919805 -0.105695 -0.18077062 -0.076490745 -0.08794476 -0.17712967 -0.021317285 0.069737606
-0.075129844 -0.07989615 -0.16329966 0.08847986 -0.12953712 -0.07976431 -0.122372106 0.17498322
-0.1038914 -0.03504705 0.15290102 -0.06416555 -0.13107195 -0.13334101 -0.12755516 0.08914827
-0.11430405 -0.12889749 -0.12065501 -0.11929753 -0.11366521 0.04126294 -0.11197799 0.1345011
-0.10095313 -0.18454371 -0.13616535 0.09229557 -0.097007155 -0.12252994 -0.10158018 -0.1230633
-0.13218772 0.17156112 0.11236905 -0.12727872 0.16975865 -0.061880942 -0.115384325 -0.1157983
0.10815455 -0.02853207 -0.11144802 0.037370685 -0.16015565 -0.15525696 -0.015756555 0.09733949
-0.09043084 0.19948481 0.008342221 -0.05778501 0.06270489 -0.09331534 0.1280733 -0.09457092
-0.15012701 -0.1403745 -0.091131136 0.09915698 -0.17664328 0.10067686 -0.107846156 0.07539764
-0.106921785 -0.08012975 -0.13492915 -0.1073319 -0.13432907 -0.11221954 -0.15774173 0.075444
0.15620342 -0.052998677 0.06021327 0.08035785 0.061251536 -0.14566585 -0.15573917 -0.09102102
-0.07291154 0.13514201 -0.18918432 -0.08816776 -0.07598343 0.08202023 -0.110204786 0.09485727
0.13848518 0.092594534 -0.052076813 -0.112297766 -0.10867535 -0.13588114 0.16780531 0.17601854
0.057857603 -0.10131362 -0.12463258 -0.08168231 -0.1016579 -0.075768106 -0.14651728 -0.06581633
00000000: 2436 e0bd 8668 ab3d 1e46 953d 9b03 a13d
00000010: 04bb d7bd 11aa 25be 7ff8 27be 283e bc3d
00000020: 8f8d dabd 0162 cbbd d49f 18be 28f5 8e3c
00000030: 1b0f b2bd 397d edbb e9ca b7bd 61dd 07be
00000040: 4142 2dbe 9f76 d8bd ef1b 39be 2ea7 9cbd
00000050: 621c b4bd 7b61 35be 96a1 aebc 97d2 8e3d
00000060: addd 99bd 98a0 a3bd 0738 27be ee34 b53d
00000070: 61a5 04be 785b a3bd 3a9e fabd cd2e 333e
00000080: 04c5 d4bd 7f8d 0fbd 1692 1c3e 3a69 83bd
00000090: ba37 06be 8c8a 08be d29d 02be 5e93 b63d
000000a0: 3e18 eabd b4fd 03be f919 f7bd 4352 f4bd
000000b0: 4ec9 e8bd 5403 293d b754 e5bd a8ba 093e
000000c0: 84c0 cebd 07f9 3cbe ee6e 0bbe 7605 bd3d
000000d0: b0ab c6bd faf0 fabd 4509 d0bd 9d08 fcbd
000000e0: 385c 07be b8ad 2f3e bf21 e63d 5a55 02be
000000f0: 36d5 2d3e df76 7dbd 9e4e ecbd a927 edbd
00000100: 2280 dd3d 16bc e9bc dc3e e4bd 0112 193d
00000110: d8ff 23be aefb 1ebe e413 81bc ed59 c73d
00000120: ce33 b9bd bf45 4c3e d0ad 083c faaf 6cbd
00000130: 6c6b 803d 1d1c bfbd a625 033e 66ae c1bd
00000140: e5ba 19be 55be 0fbe f6a2 babd d112 cb3d
00000150: fae1 34be ab2f ce3d 72de dcbd 146a 9a3d
00000160: cff9 dabd 111b a4bd de2a 0abe d4d0 dbbd
00000170: 8f8d 09be 5cd3 e5bd 0c87 21be 6282 9a3d
00000180: caf3 1f3e 2415 59bd 31a2 763d a892 a43d
00000190: e4e2 7a3d 6e29 15be 177a 1fbe 3b69 babd
000001a0: a552 95bd ab62 0a3e 89b9 41be 4c91 b4bd
000001b0: 339d 9bbd 39fa a73d 0cb3 e1bd 8744 c23d
000001c0: 0fcf 0d3e 34a2 bd3d 7f4e 55bd 5ffc e5bd
000001d0: 2f91 debd 6d24 0bbe 28d5 2b3e 343e 343e
000001e0: 18fc 6c3d 847d cfbd 5e3f ffbd 0e49 a7bd
000001f0: 0432 d0bd 4f2c 9bbd a008 16be b6ca 86bd

conv_blocks.14.running_mean f4 [128]
-0.41500792 1.0161669 -0.8308974 2.6112156 -0.52005076 1.5900528 -0.61777985 1.4310389
-0.7525428 1.413909 -0.34735823 0.08782038 0.16135828 0.8559087 0.9925788 -0.10254926
-0.57672584 1.6845262 -0.918243 0.048027564 -0.6350123 -0.4668082 0.3830826 0.9540755
0.7917264 -0.8150632 2.4783025 1.2820703 -0.6511381 -0.30511442 -0.2692755 -0.38347656
2.052071 -0.58274376 -0.720335 1.4540374 -0.83794904 1.6782788 -0.9447852 0.984636
-0.54853207 -0.8072109 -0.85770994 -0.50542086 -0.04864376 0.48021114 -0.8346296 1.4845179
-0.43988675 -0.6444993 -0.23468518 -0.6839618 2.8574445 -0.78554946 1.6309205 -0.4252118
-0.8196794 -0.7977895 1.3767666 0.118085474 -0.62449694 -0.4296255 -0.25910932 1.8430185
-0.6475191 0.9240856 -0.98611003 0.82443726 -0.7658222 -0.7574004 0.9747822 -0.7470635
0.70279044 1.3900777 -0.7919878 0.1883766 -0.045584016 -0.3366421 -0.7485604 -0.61218363
1.6476768 -0.58098143 0.49845368 0.96085286 -0.2909915 1.8202816 -0.59665024 1.6888789
-0.9126364 -0.71821815 2.0635927 -0.12773381 -0.47770375 -0.79273504 -0.042541202 1.5359313
1.4290059 1.8503523 1.3261114 -0.45680633 -0.34127674 0.97593796 -0.9073522 -0.54941463
0.4279913 1.0300605 -0.5037433 -0.41354293 -0.91228837 1.8285542 2.2010705 1.1517048
-0.23327243 1.120323 -0.6538697 -0.10206454 -0.7132145 -0.46705064 -0.7193954 -0.78238183
0.53442043 -0.48337317 0.46939608 1.0908904 -0.6180267 0.95266557 -0.7195683 -0.5975299
00000000: eb7b d4be c211 823f b1b5 54bf 281e 2740
00000010: 0c22 05bf da86 cb3f d226 1ebf 482c b73f
00000020: a5a6 40bf f8fa b43f f0d8 b1be 2cdb b33d
00000030: 1b3b 253e d51c 5b3f a519 7e3f 5905 d2bd
00000040: 4ea4 13bf 8e9e d73f f911 6bbf 8db8 443d
00000050: 2b90 22bf 7c01 efbe 6723 c43e 4b3e 743f
00000060: 95ae 4a3f fba7 50bf 829c 1e40 e11a a43f
00000070: fdb0 26bf f537 9cbe 7ade 89be 0a57 c4be
00000080: 2255 0340 b22e 15bf e067 38bf e61d ba3f
00000090: d483 56bf d7d1 d63f 71dd 71bf 1b11 7c3f
000000a0: 996c 0cbf 60a5 4ebf e192 5bbf 4363 01bf
000000b0: ae3e 47bd 3cde f53e 49aa 55bf af04 be3f
000000c0: d638 e1be e8fd 24bf 5051 70be 1f18 2fbf
000000d0: 5fe0 3640 c519 49bf 01c2 d03f 5cb5 d9be
000000e0: 82d6 51bf ef3b 4cbf e339 b03f ccd6 f13d
000000f0: 08df 1fbf e0f7 dbbe faa9 84be 08e8 eb3f
00000100: d0c3 25bf e090 6c3f b571 7cbf 520e 533f
00000110: ec0c 44bf fee4 41bf 548b 793f 8e3f 3fbf
00000120: 13ea 333f 11ee b13f b6bf 4abf cce5 403e
00000130: 4eb6 3abd 5a5c acbe a8a1 3fbf 11b8 1cbf
00000140: 13e7 d23f 33bb 14bf 5235 ff3e 74fa 753f
00000150: d6fc 94be fdfe e83f 12be 18bf 2f2d d83f
00000160: 8aa2 69bf 25dd 37bf e711 0440 a7cc 02be
00000170: 9695 f4be aff0 4abf af3f 2ebd 6699 c43f
00000180: aae9 b63f 58d8 ec3f 05be a93f 85e2 e9be
00000190: d3bb aebe 12d7 793f 3c48 68bf 70a6 0cbf
000001a0: ad21 db3e 06d9 833f 52f5 00bf e6bb d3be
000001b0: bb8b 69bf 100e ea3f 57de 0c40 106b 933f
000001c0: f8de 6ebe be66 8f3f 0164 27bf 3707 d1bd
000001d0: 3a95 36bf 4321 efbe 4c2a 38bf 2d4a 48bf
000001e0: c7cf 083f b07c f7be af54 f03e 4ca2 8b3f
000001f0: ff36 1ebf e4e1 733f a135 38bf b8f7 18bf

conv_blocks.14.running_var f4 [128]
2.2010212 10.795617 2.0263443 31.658941 1.4610244 13.641165 2.1204634 9.55796
2.4537337 12.420357 2.3138783 2.4806786 2.838385 4.603229 7.472 1.4843959
1.6593155 15.399289 3.1046119 1.4886988 1.6811457 1.7588247 3.307044 9.854052
3.5191953 3.1463983 15.763644 14.430663 1.8850121 2.3454392 2.2158103 2.1476696
12.837803 1.7474368 2.1945162 12.817937 4.057926 13.874264 2.7052639 9.944085
2.0905294 2.916528 2.466592 2.0833397 1.4561545 2.9771516 2.5057228 10.359328
2.4305413 2.0491781 1.6000459 1.9139706 17.328249 2.5963044 14.104285 1.1553262
2.0963037 2.4248824 11.146695 2.0616822 2.1525073 3.8380961 1.4822428 9.137226
1.877553 5.851857 3.754601 6.4827967 2.4073563 2.3348484 4.2332225 2.6894383
3.48413 11.952348 1.9005343 2.573983 1.5267357 2.3316352 2.3635876 2.580498
14.38799 1.7092655 3.1626916 10.523934 1.4365009 19.30079 2.0877726 13.954929
3.2419949 3.4604645 19.280792 2.9733503 1.2186676 2.6055331 1.3392125 11.931807
14.501528 15.246061 16.995476 1.3872079 1.4420806 7.7851586 3.396051 2.1018288
5.609635 12.361773 1.4440788 1.425347 3.1615903 14.814323 21.255308 12.231521
2.2074697 8.6333475 1.6649652 1.5345356 1.8923357 1.4611928 2.0451586 2.3903828
5.0621247 2.593553 5.5247846 6.3793344 2.6359103 9.948795 2.3052812 2.1657119
00000000: 88dd 0c40 d9ba 2c41 a0af 0140 8345 fd41
00000010: d902 bb3f 3642 5a41 acb5 0740 67ed 1841
00000020: f909 1d40 c8b9 4641 9516 1440 70c3 1e40
00000030: 1aa8 3540 a74d 9340 a01a ef40 af00 be3f
00000040: 7364 d43f 7d63 7641 f6b1 4640 af8d be3f
00000050: c82f d73f 2b21 e13f 9ca6 5340 32aa 1d41
00000060: 7f3a 6140 975e 4940 e337 7c41 ffe3 6641
00000070: 1448 f13f ad1b 1640 d6cf 0d40 6b73 0940
00000080: a467 4d41 02ac df3f f472 0c40 4516 4d41
00000090: 88da 8140 fcfc 5d41 0b23 2d40 f91a 1f41
000000a0: 3ccb 0540 65a8 3a40 a5dc 1d40 7055 0540
000000b0: 4563 ba3f a789 3e40 c35d 2040 cfbf 2541
000000c0: fd8d 1b40 bc25 0340 4ece cc3f fdfc f43f
000000d0: 41a0 8a41 da29 2640 27ab 6141 bbe1 933f
000000e0: d729 0640 4631 1b40 dd58 3241 9af2 0340
000000f0: aec2 0940 5ea3 7540 22ba bd3f 1432 1241
00000100: a853 f03f 6a42 bb40 624b 7040 1273 cf40
00000110: 2012 1a40 286e 1540 8f76 8740 c21f 2c40
00000120: fcfb 5e40 d13c 3f41 b544 f33f 23bc 2440
00000130: 136c c33f 8339 1540 0545 1740 e126 2540
00000140: 3535 6641 36c9 da3f 8a69 4a40 0962 2841
00000150: 43df b73f 0568 9a41 119e 0540 6447 5f41
00000160: d87c 4f40 4078 5d40 103f 9a41 5f4b 3e40
00000170: 4dfd 9b3f 0ec1 2640 516b ab3f aee8 3e41
00000180: 4206 6841 deef 7341 bcf6 8741 0790 b13f
00000190: 1996 b83f 0520 f940 e658 5940 5d84 0640
000001a0: 2182 b340 d2c9 4541 93d7 b83f c571 b63f
000001b0: 7f57 4a40 7807 6d41 df0a aa41 4fb4 4341
000001c0: 2f47 0d40 3122 0a41 941d d53f aa6b c43f
000001d0: 0e38 f23f 5e08 bb3f e1e3 0240 08fc 1840
000001e0: edfc a140 c6fc 2540 09cb b040 8223 cc40
000001f0: c1b2 2840 442e 1f41 ba89 1340 069b 0a40
