trainings/n-lineas_3_Random_False/discriminator_weights.pth (torch, 426487 bytes, 23 tensors)

conv_blocks.0.weight f4 [16, 1, 3, 3]
-0.35184485 -0.054104764 0.16007659 0.58618724 0.09075318 -0.13029031 0.1289734 0.2826869
-0.14690201 0.23315051 0.11502698 -0.34689748 -0.10889419 0.30410805 -0.038090464 -0.23525377
-0.183338 -0.40120402 -0.07959659 0.3666518 0.1466116 -0.2830368 0.41739938 0.28502995
0.075935595 -0.114071324 -0.0091190385 -0.6223259 0.012303812 -0.24689503 -0.28901798 0.36986145
0.1603535 0.09354255 -0.20066455 0.03540839 0.019340066 0.26393658 0.16955444 0.45115045
-0.15295315 0.018130641 -0.58822036 -0.11267855 -0.29902887 0.44803655 0.26445183 -0.033816185
-0.58623403 -0.7128887 0.10654245 0.14590345 0.088916406 0.0025745467 -0.11660658 0.2209235
-0.13780944 0.05386479 -0.2710865 -0.5648245 0.1924256 0.059048787 -0.066242814 0.06289061
0.14169279 0.19737272 -0.30766264 0.40162858 0.32174152 0.23779103 -0.21623133 -0.18257912
0.023730304 -0.061597038 0.02776896 -0.26829106 0.4577379 -0.2485084 0.37119746 -0.5623565
0.35669136 -0.00096439826 -0.15039396 0.351924 0.0058963136 0.34239945 -0.85050905 -0.003193966
-0.039050862 0.047261592 0.3846259 -0.26280275 -0.20711212 -0.6378459 0.49519515 0.30151623
0.3264692 -0.25005805 -0.20806776 0.05932244 -0.27058807 0.26662478 0.05886283 -0.118799426
0.26616147 -0.08880758 -0.4583626 -0.3100104 -0.2351834 0.40676275 -0.21703608 0.39766937
-0.6863453 0.37695026 -0.19608136 0.36025277 -0.20152189 -0.46718213 0.27472657 0.33680403
0.21161434 0.06238458 -0.13782452 0.39317232 -0.26076716 -0.32902122 0.066584446 -0.03365369
-0.3031705 0.116079785 0.20904236 0.10957469 0.2868835 0.38312587 -0.23120043 0.174867
-0.07762099 -0.051090587 -0.12302975 -0.48306865 -0.2761788 0.079754904 -0.19879259 0.5001083
00000000: 0225 b4be f59c 5dbd 1eeb 233e 5e10 163f
00000010: cedc b93d d36a 05be 9a11 043e 56bc 903e
00000020: 7b6d 16be 02bf 6e3e 4493 eb3d 8c9c b1be
00000030: eb03 dfbd 0db4 9b3e bf04 1cbd 5de6 70be
00000040: f5bc 3bbe 9d6a cdbe 8903 a3bd c9b9 bb3e
00000050: 5a21 163e 33ea 90be 5fb5 d53e 72ef 913e
00000060: 1f84 9b3d 3a9e e9bd 0568 15bc c050 1fbf
00000070: ee95 493c 0dd2 7cbe 2afa 93be 7b5e bd3e
00000080: b533 243e 3d93 bf3d 027b 4dbe 6308 113d
00000090: 0f6f 9e3c b222 873e ae9f 2d3e 31fd e63e
000000a0: c09f 1cbe b686 943c 9c95 16bf 03c4 e6bd
000000b0: 501a 99be 0c65 e53e 3b66 873e d782 0abd
000000c0: 6f13 16bf e07f 36bf ee32 da3d b767 153e
000000d0: ce19 b63d bab9 283b 6ecf eebd c539 623e
000000e0: eb1d 0dbe 53a1 5c3d dacb 8abe 5798 10bf
000000f0: 370b 453e 24dd 713d 50aa 87bd cbcc 803d
00000100: ea17 113e 131c 4a3e f585 9dbe 43a2 cd3e
00000110: 4ebb a43e 7e7f 733e bf6b 5dbe 05f6 3abe
00000120: 0e66 c23c 2d4d 7cbd bb7b e33c 725d 89be
00000130: 9f5c ea3e fc78 7ebe 980d be3e 98f6 0fbf
00000140: 40a0 b63e accf 7cba e000 1abe 622f b43e
00000150: dd35 c13b fb4e af3e f6ba 59bf dc51 51bb
00000160: ccf3 1fbd 5f95 413d b0ed c43e 158e 86be
00000170: 3315 54be de49 23bf 388a fd3e 5660 9a3e
00000180: f926 a73e 9c07 80be b70f 55be 16fc 723d
00000190: 858a 8abe 0b83 883e 271a 713d 1d4d f3bd
000001a0: 5146 883e c0e0 b5bd 81ae eabe afb9 9ebe
000001b0: ebd3 70be 3543 d03e b53e 5ebe 529b cb3e
000001c0: 53b4 2fbf a0ff c03e 8dc9 48be 0d73 b83e
000001d0: c15b 4ebe 7f32 efbe f6a8 8c3e 9471 ac3e
000001e0: 6eb1 583e f986 7f3d df21 0dbe e24d c93e
000001f0: 4683 85be 7875 a8be 6d5d 883d 74d8 09bd
00000200: 2a39 9bbe 3dbb ed3d 330f 563e b268 e03d
00000210: 65e2 923e 1329 c43e cebf 6cbe 5610 333e
00000220: c1f7 9ebd 5d44 51bd 06f7 fbbd c654 f7be
00000230: 4f67 8dbe 8a56 a33d 4990 4bbe 1907 003f

conv_blocks.0.bias f4 [16]
-0.16917922 -0.44677594 -0.032576524 -0.5292671 -0.23559967 -0.29549158 -0.48170078 -0.0063669574
-0.011093581 -0.38335764 0.02542667 -0.43832082 -0.02091968 -0.1917878 -0.24802476 -0.32443258
00000000: 513d 2dbe d1bf e4be f66e 05bd 0c7e 07bf
00000010: 0a41 71be ac4a 97be 7ca1 f6be e9a1 d0bb
00000020: dac1 35bc 7447 c4be 984b d03c 966b e0be
00000030: c05f abbc 0564 44be 34fa 7dbe 071c a6be

conv_blocks.3.weight f4 [32, 16, 3, 3]
0.025141718 0.08362852 -0.115466416 -0.010681248 -0.0105460435 -0.02874236 -0.004885119 0.022810519
0.025866574 -0.036597434 0.2128752 0.18332292 0.02770819 -0.21911916 -0.045691535 0.03431344
-0.16979407 0.018752128 0.049117364 0.11161329 0.031080874 -0.058642182 -0.19795422 0.035970975
0.07873123 0.02902196 -0.08156759 -0.13686231 -0.14614245 0.05051806 0.09837631 0.40296674
0.06939367 -0.056979336 -0.051729422 -0.1316336 -0.05133163 0.021433553 0.010297332 -0.011817238
0.01770769 -0.059994712 -0.040511683 0.0023620564 -0.052620832 -0.10050474 0.02059105 0.05470361
0.119474836 0.26984122 -0.3037228 -0.015616676 -0.2521522 -0.051448464 0.17007554 0.19690397
0.20125699 -0.023371017 -0.050980072 -0.29355076 -0.09024268 -0.13908325 0.17287968 0.0069354046
-0.033180777 0.026193622 -0.05941366 -0.2971115 0.069265224 0.09725002 0.01218023 -0.07520162
-0.013072663 -0.062163368 -0.3078104 -0.16518953 -0.4441718 -0.21278453 -0.085108116 0.07337882
0.03189014 -0.14913 -0.19767952 0.057437193 0.22502595 0.08403049 -0.4608885 -0.0093575595
-0.0688844 -0.044237576 0.20028235 0.06467717 0.08458621 -1.1198756 -1.5133703 -0.757789
-0.06022096 0.21355519 0.24700072 -0.082191125 0.11707117 0.26457596 0.022264201 -0.12720688
0.022790853 0.10570114 -0.121954896 -0.15328076 0.0054047774 -0.16103603 -0.07836496 -1.0478333
-1.3762636 -0.8144916 -0.06689804 0.09727751 -0.019002205 -0.086024776 0.021203235 -0.034074645
0.16393307 0.07418837 0.012537504 -0.07862448 -0.028384563 -0.013006834 -0.025449358 -0.00081681926
-0.14131333 -0.015044419 0.07856737 0.10451648 0.056868445 0.02104726 -0.020576218 -0.096188165
0.04634463 0.05263107 0.045847174 0.014181882 -0.15186223 0.064452305 -0.0033578193 -0.124596424
0.06821441 0.029081747 -0.054878674 -0.111038364 -0.28323588 -0.1851848 0.13432871 -0.12284848
-0.047573783 0.06759652 -0.101864725 0.017255506 -0.11795792 -0.1486702 -0.13457549 -0.017942106
0.03227656 0.042810317 0.106121875 0.08354917 -0.0019118757 -0.08181349 -0.14658394 -0.04013581
-0.14316157 -0.114619166 -0.024209676 -0.010717278 0.055255715 -0.08424272 -0.07369501 -0.019602282
-0.07793578 2.799626e-05 -0.14929591 -0.11220494 -0.090778224 -0.023378419 -0.028418478 -0.12469003
-0.15896526 -0.113621786 -0.03721638 -0.10795849 -0.10306825 -0.03154263 0.08330784 -0.06964435
-0.07592795 -0.28336412 -0.25320297 0.06909499 -0.045160603 0.0005679286 -0.0070950175 -0.036539137
-0.10403289 -0.14646852 -0.12700881 -0.05287816 -0.11892739 -0.07440017 0.07288857 0.08946765
0.05559711 0.021064384 -0.036703564 -0.16008343 -0.0111472 -0.08997511 -0.18969572 -0.059796225
-0.1152162 0.26888198 -0.3597229 -0.20283608 0.21391931 -0.417874 -0.15317594 -0.060017023
-0.24721134 -0.047691964 0.078754656 0.008997108 0.1122496 -0.04926002 0.022239149 -0.0499096
-0.17322516 -0.14070907 0.07376337 0.080284804 -0.039310545 -0.08448049 -0.14657316 -0.08287892
-0.06491534 -0.0355814 -0.047069494 -0.0025160164 -0.07491168 -0.23047161 -0.17307527 -0.26948532
-0.20639825 -0.07510071 -0.00061890273 0.06845351 -0.033783272 0.18713602 -0.03969664 -0.01747932
00000000: 01f6 cd3c 6e45 ab3d a879 ecbd 6700 2fbc
00000010: 50c9 2cbc 1975 ebbc 5913 a0bb 20dd ba3c
00000020: 23e6 d33c 31e7 15bd f5fb 593e 01b9 3b3e
00000030: 49fc e23c c660 60be 0c27 3bbd 408c 0c3d
00000040: 7fde 2dbe 109e 993c 4a2f 493d 8295 e43d
00000050: 519d fe3c c932 70bd 83b4 4abe 4d56 133d
00000060: d73d a13d 76bf ed3c e90c a7bd a225 0cbe
00000070: 5ea6 15be 06ec 4e3d 8579 c93d a851 ce3e
00000080: 451e 8e3d 2a63 69bd 3be2 53bd f5ca 06be
00000090: 1e41 52bd 6b95 af3c 24b6 283c 179d 41bc
000000a0: b80f 913c 04bd 75bd 94ef 25bd bbcc 1a3b
000000b0: f188 57bd 6ed5 cdbd 90ae a83c e410 603d
000000c0: 39af f43d a128 8a3e 8e81 9bbe 16dd 7fbc
000000d0: 181a 81be a0bb 52bd 4828 2e3e 32a1 493e
000000e0: 5016 4e3e 9374 bfbc 7bd0 50bd 494c 96be
000000f0: 27d1 b8bd d76b 0ebe 5f07 313e 6442 e33b
00000100: 91e8 07bd 0294 d63c bd5b 73bd 001f 98be
00000110: edda 8d3d 052b c73d 968f 473c 4f03 9abd
00000120: b92e 56bc 049f 7ebd 5399 9dbe 7227 29be
00000130: 7c6a e3be 30e4 59be 2a4d aebd a347 963d
00000140: 3c9f 023d 89b5 18be 806c 4abe 4343 6b3d
00000150: 346d 663e 2d18 ac3d 94f9 ebbe 7350 19bc
00000160: 4413 8dbd 7632 35bd d116 4d3e 7775 843d
00000170: 893b ad3d 1558 8fbf 1eb6 c1bf 76fe 41bf
00000180: 41aa 76bd 36ae 5a3e c2ed 7c3e d253 a8bd
00000190: 02c3 ef3d 8076 873e 6a63 b63c 8542 02be
000001a0: e2b3 ba3c d779 d83d 7dc3 f9bd a2f5 1cbe
000001b0: 8f1a b13b a1e6 24be cf7d a0bd 671f 86bf
000001c0: 6829 b0bf 8682 50bf d701 89bd 6e39 c73d
000001d0: 83aa 9bbc c22d b0bd 68b2 ad3c db91 0bbd
000001e0: 12de 273e 12f0 973d 1a6a 4d3c df05 a1bd
000001f0: be86 e8bc 9e1a 55bc 2c7b d0bc d01f 56ba
00000200: 71b4 10be de7c 76bc eee7 a03d bc0c d63d
00000210: e3ee 683d 4e6b ac3c 758f a8bc 4dfe c4bd
00000220: ded3 3d3d ad93 573d 3fca 3b3d 205b 683c
00000230: c681 1bbe 92ff 833d dc0e 5cbb 692c ffbd
00000240: ffb3 8b3d d83c ee3c 76c8 60bd 1568 e3bd
00000250: 4b04 91be 16a1 3dbe 778d 093e fc97 fbbd
00000260: badc 42bd 0b70 8a3d 749e d0bd 6b5b 8d3c
00000270: ec93 f1bd 003d 18be 28ce 09be 53fb 92bc
00000280: 6d34 043d df59 2f3d 6d56 d93d d41b ab3d
00000290: e797 faba d58d a7bd 1a1a 16be 7265 24bd
000002a0: f298 12be 74bd eabd 5f53 c6bc 8697 2fbc
000002b0: d153 623d 7287 acbd 69ed 96bd f794 a0bc
000002c0: cb9c 9fbd 83d9 ea37 07e1 18be b4cb e5bd
000002d0: efe9 b9bd 1984 bfbc decd e8bc 7d5d ffbd
000002e0: cac7 22be 8ab2 e8bd 3470 18bd 5719 ddbd
000002f0: 7215 d3bd d832 01bd 4d9d aa3d b2a1 8ebd
00000300: 1d80 9bbd 1a15 91be d2a3 81be ad81 8d3d
00000310: 53fa 38bd 0be1 143a 527d e8bb 10aa 15bd
00000320: 320f d5bd d8fb 15be 990e 02be c596 58bd
00000330: 3490 f3bd 1e5f 98bd 9a46 953d d13a b73d
00000340: ccb9 633d 378f ac3c 7a56 16bd e9ec 23be
00000350: bfa2 36bc df44 b8bd 983f 42be e3ec 74bd
00000360: 79f6 ebbd e6aa 893e 9a2d b8be 43b4 4fbe
00000370: aa0d 5b3e 95f3 d5be 27da 1cbe 69d4 75bd
00000380: f824 7dbe a658 43bd 1f4a a13d 9b68 133c
00000390: 1ee3 e53d e0c4 49bd e02e b63c 026e 4cbd
000003a0: f061 31be 0a16 10be 4011 973d 5c6c a43d
000003b0: 1804 21bd 1b04 adbd 4617 16be 6cbc a9bd
000003c0: 55f2 84bd cdbd 11bd f1cb 40bd c0e3 24bb
000003d0: 4b6b 99bd c000 6cbe a53a 31be fbf9 89be
000003e0: 105a 53be 67ce 99bd dc3d 22ba 5b31 8c3d
000003f0: 5460 0abd 96a0 3f3e f298 22bd ca30 8fbc

conv_blocks.3.bias f4 [32]
-0.0880448 0.19421278 0.0066311923 -0.10128363 -0.15755092 -0.21435396 -0.098303616 -0.14653802
-0.2618156 -0.10036959 -0.14411554 -0.14465377 -0.15106127 0.030437108 -0.16086958 -0.1744655
0.0017266588 -0.12540112 -0.1723597 -0.07528549 -0.004165301 -0.117365815 -0.08684979 -0.3250736
-0.3764477 -0.06911436 -0.04351151 -0.1049892 -0.094943814 -0.094386935 -0.2766811 -0.16730392
00000000: d550 b4bd b7df 463e 794a d93b cb6d cfbd
00000010: 0755 21be 9b7f 5bbe 6853 c9bd 100e 16be
00000020: b20c 86be 928e cdbd 0693 13be 1e20 14be
00000030: ceaf 1abe 3e57 f93c ffba 24be 16a7 32be
00000040: 0e51 e23a 2769 00be 107f 30be 472f 9abd
00000050: 147d 88bb 7d5d f0bd 4dde b1bd 0c70 a6be
00000060: c1bd c0be d48b 8dbd 2039 32bd 9404 d7bd
00000070: e771 c2bd f04d c1bd 25a9 8dbe b851 2bbe

conv_blocks.6.weight f4 [32]
1.7901113 1.5141144 1.258064 1.4234908 1.5697006 1.3984016 1.666488 1.2911742
1.6632301 1.4088577 1.4122276 1.3538508 1.2641929 1.8943981 1.8173529 1.6962441
1.2062131 1.3184906 1.5149429 1.7776115 1.4254608 1.5922183 1.5566429 1.4209865
1.6247059 1.6424633 1.7322038 1.2417927 1.4785321 1.831984 1.6176256 1.5903273
00000000: 5e22 e53f 80ce c13f 3e08 a13f f234 b63f
00000010: f3eb c83f d3fe b23f 7b4f d53f 3245 a53f
00000020: b9e4 d43f 7355 b43f e0c3 b43f fc4a ad3f
00000030: 13d1 a13f a37b f23f 059f e83f 871e d93f
00000040: 3165 9a3f 4dc4 a83f a6e9 c13f c688 e33f
00000050: 8075 b63f cfcd cb3f 1340 c73f e3e2 b53f
00000060: 5df6 cf3f 3d3c d23f dbb8 dd3f 10f3 9e3f
00000070: 8a40 bd3f 747e ea3f 5b0e cf3f d88f cb3f

conv_blocks.6.bias f4 [32]
0.058307927 0.026286222 -0.031563975 0.31336233 0.22568607 -0.046328418 0.05312322 -0.09876239
-0.20557769 0.117614284 -0.2647342 0.05025152 -0.0053066104 0.16234675 0.2510194 0.1913023
0.06807957 -0.008688695 -0.19094244 0.0075448444 0.18762945 -0.17613563 -0.050765608 0.21959548
-0.031074693 0.07926295 0.046397462 0.16119665 0.16097315 -0.13773617 -0.033320148 -0.23590738
00000000: 4bd4 6e3d 3456 d73c 3a49 01bd 0771 a03e
00000010: 401a 673e dec2 3dbd bc97 593d f043 cabd
00000020: f582 52be c2df f03d 3e8b 87be 8ad4 4d3d
00000030: 13e3 adbb 3a3e 263e 9d85 803e c0e4 433e
00000040: 4d6d 8b3d 075b 0ebc 6a86 43be be3a f73b
00000050: ef21 403e e65c 34be 99ef 4fbd a3dd 603e
00000060: 5b90 febc 9d54 a23d 440b 3e3d bc10 253e
00000070: 25d6 243e b60a 0dbe b57a 08bd b491 71be

conv_blocks.6.running_mean f4 [32]
-0.085654296 0.004324326 0.1722672 0.016557056 0.03614156 0.028933575 0.01566953 -0.050820254
0.022558853 0.103194244 0.0013897315 0.12629002 0.09609311 0.04758586 0.010264519 0.0014058099
0.20318317 -0.033573195 0.0041647167 -0.03842589 -0.014161156 -0.042814016 -0.0347103 -0.055672497
0.01130537 -0.004123875 -0.017204149 0.081158035 -0.0065548844 -0.008789515 0.011884965 0.020866433
00000000: 856b afbd 13b3 8d3b d066 303e aaa2 873c
00000010: 2c09 143d 1b06 ed3c 635d 803c e628 50bd
00000020: 58cd b83c 8157 d33d a727 b63a 2c52 013e
00000030: 77cc c43d 64e9 423d 832c 283c 2743 b83a
00000040: 400f 503e 0c84 09bd 2d78 883b 7764 1dbd
00000050: 3104 68bc c05d 2fbd 632c 0ebd d808 64bd
00000060: 293a 393c 9221 87bb b7ef 8cbc 2f36 a63d
00000070: 5bca d6bb e601 10bc 28b9 423c 15f0 aa3c

conv_blocks.6.running_var f4 [32]
0.052152712 0.04028477 0.098728806 0.07374827 0.09873777 0.05640782 0.18660364 0.24519351
0.1301411 0.10719564 0.058463637 0.16516988 0.08184979 0.066865936 0.069132894 0.09234408
0.15640795 0.25011435 0.038787004 0.12452247 0.05312144 0.037335373 0.04293451 0.045674786
0.03827758 0.04447782 0.17626676 0.07898308 0.046047144 0.054199792 0.0671195 0.0965946
00000000: 159e 553d a501 253d 5432 ca3d 5509 973d
00000010: 0737 ca3d e30b 673d 0615 3f3e 0214 7b3e
00000020: b543 053e 6389 db3d 9177 6f3d 4b22 293e
00000030: dda0 a73d 02f1 883d 8c95 8d3d e51e bd3d
00000040: 6829 203e fd0e 803e 1fdf 1e3d a305 ff3d
00000050: de95 593d faec 183d 19dc 2f3d 7c15 3b3d
00000060: f4c8 1c3d 602e 363d 467f 343e e2c1 a13d
00000070: ee9b 3c3d 9a00 5e3d f375 893d 64d3 c53d

conv_blocks.7.weight f4 [64, 32, 3, 3]
0.2410121 0.0135939615 -0.012359947 0.18078744 -0.05407019 0.11946231 -0.12041745 -0.16596398
0.17066017 0.016002676 -0.13868539 -0.23777215 -0.11023772 -0.19972037 -0.028776994 0.024548009
0.20014638 0.13711451 -0.053021383 0.07236356 0.15866031 0.014872105 0.02983816 0.014687175
0.091998525 0.008981641 -0.08709199 -0.07685759 -0.25039655 -0.072143376 -0.094716415 -0.12610105
-0.10819716 0.14276773 -0.08898216 -0.12700276 -0.14937437 -0.15329853 0.14385438 0.123205654
0.010921817 -0.20344901 0.11926875 -0.24147205 -0.22901121 0.08294917 -0.032853764 -0.09400389
0.005466574 -0.015149551 -0.050768964 -0.023478031 0.06496262 0.11760666 -0.1039387 0.14004603
0.17386346 0.23377572 0.20320702 0.044120107 -0.049272202 -0.12643881 0.077293724 0.091694415
0.10908238 0.031855576 -0.011281453 -0.046170205 -0.107313395 -0.016731491 -0.252364 0.049685996
-0.11038172 0.10255237 0.09100694 0.17831823 0.26302743 -0.053755328 -0.12741072 -0.042777397
-0.028761297 0.12973136 -0.08942435 -0.04434661 0.08051263 0.029441487 -0.077887595 0.05633946
0.09641908 -0.24549459 -0.10679593 -0.21851255 -0.08007983 -0.18894231 -0.05624825 0.3070144
0.0024881947 -0.18729362 0.08961803 -0.023698276 -0.072759464 -0.004391742 -0.08372164 0.16268478
0.04077149 -0.058147244 0.21878813 -0.054425973 0.061577957 0.05067637 0.09342254 0.02690669
0.14610843 0.33370852 -0.24387589 -0.06549638 -0.08016824 0.029643299 0.04892082 -0.08546622
-0.09941765 -0.19119105 -0.15400948 -0.022309374 -0.06753506 -0.025975807 0.18127185 0.168232
-0.038830232 0.1482324 -0.009201965 -0.022439584 0.10337255 0.013838694 0.062618144 0.11837932
0.092754714 -0.08149382 0.085294336 -0.023665214 -0.056314528 -0.0006089651 0.059070367 0.097334936
0.09401821 -0.1262051 -0.08718446 -0.11109458 0.19485115 0.1410393 -0.31026182 0.2121814
-0.11628987 0.18446977 0.23305339 0.1239696 -0.07020802 0.114659145 -0.070142664 0.059857715
-0.045725435 0.054381233 -0.007828145 -0.2286298 0.24895112 0.17147928 0.19968948 0.083986394
0.38337174 -0.003643502 -0.07735483 0.054015573 -0.035850246 -0.016343974 0.014194804 -0.018722946
0.063718475 0.059274178 0.098009005 -0.056501105 0.06169165 -0.13404764 -0.10980485 -0.07719916
-0.016577097 0.053440645 -0.16417448 -0.04573384 0.049507625 -0.08421938 0.10085853 0.12576045
-0.0052071023 0.09827583 0.049451068 0.07974583 -0.0019867038 -0.089590654 0.23745853 0.19294012
0.078177795 0.020493379 -0.07699166 0.015295329 -0.11468837 -0.0110364705 0.15916349 -0.07900161
-0.041871738 0.01769525 0.13779712 0.032139253 -0.012338231 0.00018022032 -0.1884995 -0.0684148
-0.0042698625 -0.0031782195 0.09946216 -0.04044386 0.20991944 0.10471261 0.09482656 0.121034086
-0.05484055 0.1510373 0.11507881 -0.05574194 -0.13709357 -0.068687454 -0.13883692 -0.062503144
0.10508635 0.017816715 -0.12121447 -0.15589471 0.041999616 0.030295942 -0.16066767 -0.043992594
0.080386214 0.11004905 0.1334177 -0.016249008 0.009062823 -0.089759715 0.015905308 0.15956444
-0.006958981 -0.120494194 0.08179479 -0.043441024 0.16633153 0.25279835 -0.024268141 0.14742321
00000000: e0cb 763e 35b9 5e3c 6081 4abc 5820 393e
00000010: b478 5dbd a8a8 f43d 6d9d f6bd 76f2 29be
00000020: 8ac1 2e3e 0b18 833c 8b03 0ebe 8b7a 73be
00000030: 50c4 e1bd 7f83 4cbe bbbd ebbc e818 c93c
00000040: 2cf3 4c3e bf67 0c3e f32c 59bd 5933 943d
00000050: d977 223e 21aa 733c 286f f43c 7aa2 703c
00000060: b969 bc3d bc27 133c 495d b2bd 8367 9dbd
00000070: fa33 80be e8bf 93bd aefa c1bd a220 01be
00000080: 7996 ddbd b431 123e 473c b6bd 030d 02be
00000090: 98f5 18be 4afa 1cbe 904e 133e 3f53 fc3d
000000a0: 6cf1 323c f054 50be 2d43 f43d 7344 77be
000000b0: ea81 6abe 41e1 a93d ab91 06bd 1d85 c0bd
000000c0: f220 b33b d335 78bc 1ef3 4fbd 0055 c0bc
000000d0: 1f0b 853d c3db f03d d0dd d4bd 3a68 0f3e
000000e0: 4309 323e e762 6f3e 8015 503e 49b7 343d
000000f0: a6d1 49bd 2d79 01be 2c4c 9e3d 48ca bb3d
00000100: 9566 df3d fe7a 023d d8d5 38bc f81c 3dbd
00000110: 20c7 dbbd 7b10 89bc db35 81be 8b83 4b3d
00000120: d00f e2bd fa06 d23d d961 ba3d 0e99 363e
00000130: 88ab 863e 8c2e 5cbd f577 02be 5a37 2fbd
00000140: d09c ebbc 4cd8 043e 1d24 b7bd caa4 35bd
00000150: cee3 a43d 462f f13c 8883 9fbd 35c4 663d
00000160: 5e77 c53d ef62 7bbe d3b7 dabd c1c1 5fbe
00000170: e500 a4bd 187a 41be 9164 66bd fe30 9d3e
00000180: fb10 233b e6c9 3fbe a889 b73d e322 c2bc
00000190: ea02 95bd 9ae8 8fbb 4076 abbd d796 263e
000001a0: 0200 273d ce2b 6ebd ff09 603e c5ed 5ebd
000001b0: 2b39 7c3d 0692 4f3d 5154 bf3d 6b6b dc3c
000001c0: 739d 153e d8db aa3e 9aba 79be f722 86bd
000001d0: 3f2f a4bd 81d6 f23c 3361 483d ea08 afbd
000001e0: 7b9b cbbd 96c7 43be a9b4 1dbe 26c2 b6bc
000001f0: d24f 8abd 37cb d4bc 549f 393e 0245 2c3e
00000200: 730c 1fbd 3cca 173e d7c3 16bc 38d3 b7bc
00000210: fdb4 d33d b1bb 623c f13d 803d db70 f23d
00000220: 2ff6 bd3d 3be6 a6bd ccae ae3d 8ddd c1bc
00000230: 10aa 66bd f5a2 1fba c5f3 713d 8a57 c73d
00000240: 9f8c c03d e93b 01be c48d b2bd 8e85 e3bd
00000250: 0f87 473e 9b6c 103e a3da 9ebe 1546 593e
00000260: 6229 eebd a5e5 3c3e 8ca5 6e3e c6e3 fd3d
00000270: 39c9 8fbd 6ad2 ea3d f5a6 8fbd 5d2d 753d
00000280: 984a 3bbd dbbe 5e3d 9f41 00bc ee1d 6abe
00000290: 0bed 7e3e 4498 2f3e 667b 4c3e 0f01 ac3d
000002a0: 4d49 c43e d2c7 6ebb 366c 9ebd 6f3f 5d3d
000002b0: b5d7 12bd cce3 85bc 5391 683c dd60 99bc
000002c0: d57e 823d 7bc9 723d f2b8 c83d b46d 67bd
000002d0: 62b0 7c3d c943 09be 5de1 e0bd 981a 9ebd
000002e0: b1cc 87bc 94e4 5a3d 5b1d 28be 6853 3bbd
000002f0: 82c8 4a3d 367b acbd eb8e ce3d 59c7 003e
00000300: 57a0 aabb d744 c93d 348d 4a3d c851 a33d
00000310: 5c33 02bb 4e7b b7bd 5428 733e 1892 453e
00000320: ae1b a03d bbe1 a73c cead 9dbd 4299 7a3c
00000330: bce1 eabd 50d2 34bc c1fb 223e 99cb a1bd
00000340: b381 2bbd a1f5 903c b01a 0d3e 73a4 033d
00000350: 4b26 4abc 86f9 3c39 0306 41be 0f1d 8cbd
00000360: 34ea 8bbb ad49 50bb d1b2 cb3d 76a8 25bd
00000370: 1ff5 563e 9173 d63d 6d34 c23d b8e0 f73d
00000380: 7ca0 60bd 86a9 1a3e 70ae eb3d a951 64bd
00000390: 4262 0cbe 02ac 8cbd 442b 0ebe a601 80bd
000003a0: 8337 d73d 5cf4 913c 4b3f f8bd dda2 1fbe
000003b0: ca07 2c3d 322f f83c 1186 24be 9431 34bd
000003c0: 87a1 a43d 6561 e13d a69e 083e a41c 85bc
000003d0: 3c7c 143c f1d3 b7bd d94b 823c dc64 233e
000003e0: 2a08 e4bb a9c5 f6bd 0784 a73d 37ef 31bd
000003f0: d052 2a3e c96e 813e fbcd c6bc 1cf6 163e

conv_blocks.7.bias f4 [64]
-0.26537713 -0.19243237 -0.23562092 -0.11573495 -0.30570891 -0.47241533 -0.4035665 -0.27671903
-0.3405443 -0.24386008 -0.07554419 -0.16147861 -0.24973592 -0.27287024 -0.22168511 -0.36813092
-0.13580905 -0.16748667 -0.25824 -0.18172508 -0.4464057 -0.075261265 -0.4423379 -0.5126349
-0.40747026 -0.39407468 -0.23546742 -0.47603363 -0.38884366 -0.26647913 -0.19041465 -0.17300607
-0.5011089 -0.3686175 -0.4297522 -0.22937982 -0.1826263 -0.25371107 -0.54817677 -0.07695517
-0.4061261 -0.24602182 -0.24944815 -0.43387362 -0.5550876 -0.056451865 -0.343496 -0.30111486
-0.42375186 -0.49166462 -0.22931585 -0.29389796 -0.33881235 -0.18887676 -0.28361037 -0.11856235
-0.29578528 -0.060879875 -0.2965684 -0.3010269 -0.12874857 -0.12244107 -0.5085676 -0.31490716
00000000: 83df 87be fe0c 45be 9c46 71be 7206 edbd
00000010: e185 9cbe 6ce0 f1be 45a0 cebe 1eae 8dbe
00000020: d35b aebe 75b6 79be eab6 9abd a65a 25be
00000030: c6ba 7fbe a6b5 8bbe 6c01 63be a87b bcbe
00000040: 8711 0bbe a081 2bbe 0938 84be 2416 3abe
00000050: 4a8f e4be 9422 9abd 1d7a e2be 0a3c 03bf
00000060: f19f d0be 28c4 c9be 5f1e 71be aeba f3be
00000070: 8416 c7be f46f 88be 0ffc 42be 8128 31be
00000080: ac48 00bf 6fbb bcbe 7b08 dcbe 8be2 6abe
00000090: 6402 3bbe 6be6 81be 5055 0cbf ac9a 9dbd
000000a0: c3ef cfbe 25ed 7bbe 566f 7fbe af24 debe
000000b0: 391a 0ebf 123a 67bd b5de afbe ba2b 9abe
000000c0: 01f6 d8be 77bb fbbe c6d1 6abe cb79 96be
000000d0: d078 adbe e968 41be 6135 91be d1d0 f2bd
000000e0: 2b71 97be 2d5d 79bd d0d7 97be 3320 9abe
000000f0: aad6 03be 62c2 fabd 7c31 02bf 833b a1be

conv_blocks.10.weight f4 [64]
1.8002272 1.5533366 1.5528256 1.5315272 1.8053976 1.6767942 1.4247171 1.7027653
1.6419107 2.082424 1.4274706 1.3914115 1.787706 1.6515193 1.6537952 1.6073908
1.8390095 1.8664812 1.7295926 1.4977525 1.9377646 1.8198819 1.8205515 1.7633685
1.8037475 1.9693087 1.534755 1.717087 1.9704329 1.6327462 1.5784217 1.6191334
1.7889826 1.6754152 1.7839018 1.6323932 1.5780405 2.0042393 1.7001531 1.6427586
1.8476557 1.5949392 1.7574002 1.8454894 1.8633608 1.6820122 1.5538697 1.5975052
1.7702241 1.8213336 1.8755759 1.5325012 1.8929273 1.5314385 1.4593514 1.5535089
1.6924429 1.8948205 1.8987963 1.7537246 1.697334 1.715768 1.7072725 1.8676083
00000000: d86d e63f bcd3 c63f fdc2 c63f 1509 c43f
00000010: 4517 e73f 31a1 d63f 215d b63f 37f4 d93f
00000020: 212a d23f 6f46 0540 5bb7 b63f c619 b23f
00000030: 8dd3 e43f fc64 d33f 90af d33f fbbe cd3f
00000040: aa64 eb3f dbe8 ee3f 4a63 dd3f 5bb6 bf3f
00000050: ac08 f83f e4f1 e83f d507 e93f 0fb6 e13f
00000060: 33e1 e63f 4f12 fc3f da72 c43f 82c9 db3f
00000070: 2537 fc3f d4fd d03f b909 ca3f c33f cf3f
00000080: 62fd e43f 0174 d63f e556 e43f 43f2 d03f
00000090: 3bfd c93f 7545 0040 9e9e d93f ea45 d23f
000000a0: fb7f ec3f f826 cc3f 7df2 e03f ff38 ec3f
000000b0: 9b82 ee3f 2d4c d73f 34e5 c63f 0d7b cc3f
000000c0: b496 e23f 7621 e93f df12 f03f 0029 c43f
000000d0: 714b f23f 2d06 c43f 07cc ba3f 61d9 c63f
000000e0: f8a1 d83f 7a89 f23f c20b f33f 0c7a e03f
000000f0: 3e42 d93f 499e db3f e887 da3f ca0d ef3f

conv_blocks.10.bias f4 [64]
0.027915958 0.2672709 0.21653365 0.31546688 0.24804023 0.113996804 -0.00044330824 0.15262572
0.95913273 0.65127635 0.09921302 -0.057714365 -0.09638887 0.15790652 0.2896192 0.15913275
0.36588973 0.22597428 0.37037608 -0.03027924 0.16267216 -0.20291172 0.31471786 -0.18100758
0.35107288 0.45694664 0.121132664 0.18076421 0.61704516 -0.16041256 -0.21108265 -0.27908048
0.20494372 -0.13492528 0.23824626 -0.08875347 -0.24186186 0.2887688 0.34304678 0.4292777
-0.86268955 -0.17573802 -0.23684694 0.29175732 0.023398153 -6.11893e-05 0.20027964 0.26423475
-0.50454354 0.33912802 0.32455617 -0.1923091 0.30757028 0.23980242 0.21015401 0.061391145
-0.44081175 -0.0041855746 0.2730726 0.08419921 0.03595505 0.19705486 0.14533465 0.28359106
00000000: 02b0 e43c bbd7 883e ffba 5d3e e084 a13e
00000010: 42fe 7d3e 2877 e93d d36b e8b9 eb49 1c3e
00000020: b989 753f 0cba 263f 3230 cb3d e665 6cbd
00000030: 8767 c5bd 3fb2 213e f848 943e b2f3 223e
00000040: e655 bb3e cd65 673e efa1 bd3e 2b0c f8bc
00000050: 8893 263e 17c8 4fbe b322 a13e 0d5a 39be
00000060: d3bf b33e e9f4 e93e 6714 f83d 411a 393e
00000070: acf6 1d3f 3143 24be 0d26 58be a3e3 8ebe
00000080: c4dc 513e da29 0abe d4f6 733e 61c4 b5bd
00000090: a3aa 77be 81d9 933e d4a3 af3e 49ca db3e
000000a0: 39d9 5cbf abf4 33be 0188 72be 3761 953e
000000b0: 7cad bf3c c152 80b8 1b16 4d3e c749 873e
000000c0: c429 01bf 30a2 ad3e 3a2c a63e adec 44be
000000d0: da79 9d3e c48e 753e 9d32 573e 4875 7b3d
000000e0: 14b2 e1be 2527 89bb 2cd0 8b3e a370 ac3d
000000f0: 9a45 133d c0c8 493e 9bd2 143e d932 913e

conv_blocks.10.running_mean f4 [64]
0.055950124 0.013547539 0.0049607432 0.05382913 0.04015331 0.04640433 0.06016867 0.107234284
0.1635438 0.44434118 0.2138651 -0.03377202 -0.0614774 0.17286915 -0.04448292 0.010500341
0.022146318 0.08709821 0.10576421 -0.054482747 0.052603208 -0.07436963 0.10659626 0.029103987
0.09431867 0.095448926 -0.028651545 0.10343801 0.23011619 0.07343467 0.019848978 0.018460277
0.1142341 0.115079895 0.15759832 -0.011382397 0.05731404 0.05486553 0.12530673 0.18354075
0.025543867 -0.08290897 -0.02330981 0.045312062 0.11277614 0.004919536 0.09029326 0.01511424
0.26187778 0.07443143 0.016972482 0.1446017 0.13503538 0.014247719 0.11690625 0.02966442
0.22419102 -0.0333645 0.1539247 0.01820694 0.055203624 0.07995626 0.21760362 0.2144518
00000000: f52b 653d 7ff6 5d3c bb8d a23b ef7b 5c3d
00000010: cc77 243d 7712 3e3d 6c73 763d a69d db3d
00000020: 0778 273e b080 e33e 74ff 5a3e 8854 0abd
00000030: bacf 7bbd 9c04 313e b933 36bd 9f09 2c3c
00000040: 326c b53c 8c60 b23d e89a d83d 4d29 5fbd
00000050: 7676 573d 1b4f 98bd 244f da3d 7c6b ee3c
00000060: 262a c13d ba7a c33d a5b6 eabc 4fd7 d33d
00000070: 94a3 6b3e eb64 963d 539a a23c 023a 973c
00000080: 91f3 e93d 02af eb3d 7461 213e 3c7d 3abc
00000090: 20c2 6a3d aeba 603d 6850 003e 1bf2 3b3e
000000a0: 5f41 d13c 2ecc a9bd 37f4 bebc 2499 393d
000000b0: 2df7 e63d 0f34 a13b aceb b83d b8a1 773c
000000c0: d814 863e 816f 983d e009 8b3c 7812 143e
000000d0: b746 0a3e 446f 693c 8b6c ef3d cc02 f33c
000000e0: 5592 653e 37a9 08bd 709e 1d3e b826 953c
000000f0: 321d 623d 1cc0 a33d 7cd3 5e3e 4199 5b3e

conv_blocks.10.running_var f4 [64]
0.78483963 0.47703627 0.86726534 0.50566363 0.61935806 0.7036855 0.47030932 0.54712766
0.97576255 1.9291636 0.43858862 0.17777784 0.3749262 1.0211247 0.235617 0.3153937
0.34477314 0.69381005 0.64140415 0.16767764 1.1431136 0.34175864 0.9320212 0.6019509
0.8414785 0.8929555 0.44327968 0.9353497 1.1881127 0.7821763 0.26993632 0.354643
1.1308622 0.81018937 0.6598556 0.300181 0.3173146 0.883156 0.6871866 0.67046994
0.62617624 0.19970773 0.6769034 0.4952898 0.50370604 0.20719318 0.48513815 0.5487051
1.8275636 0.387451 0.5832249 0.63267165 0.8153968 0.32783478 0.5236162 0.3485528
0.6103364 0.29822233 0.98372877 0.41154328 0.42404422 0.67073655 1.0345637 0.90425366
00000000: 40eb 483f 193e f43e 1a05 5e3f 2c73 013f
00000010: 408e 1e3f bc24 343f 62cc f03e 8f10 0c3f
00000020: 93cb 793f d5ee f63f b08e e03e 650b 363e
00000030: 54f6 bf3e 37b4 823f 9545 713e 487b a13e
00000040: 1b86 b03e 899d 313f 1033 243f b0b3 2b3e
00000050: 8c51 923f fdfa ae3e f198 6e3f 7419 1a3f
00000060: 236b 573f bb98 643f 8ef5 e23e 1473 6f3f
00000070: 1414 983f b53c 483f 1835 8a3e c493 b53e
00000080: 18c0 903f 9268 4f3f 4cec 283f 53b1 993e
00000090: 0f77 a23e 8316 623f 76eb 2f3f eba3 2b3f
000000a0: 164d 203f 2f80 4c3e 8b49 2d3f a096 fd3e
000000b0: e1f2 003f 732a 543e 0764 f83e f077 0c3f
000000c0: 9bed e93f fa5f c63e 3a4e 153f c5f6 213f
000000d0: d8bd 503f f6d9 a73e b60b 063f 8375 b23e
000000e0: 023f 1c3f 99b0 983e a6d5 7b3f cdb5 d23e
000000f0: 531c d93e 64b5 2b3f 956c 843f 2b7d 673f

conv_blocks.11.weight f4 [128, 64, 3, 3]
0.058142975 -0.052652165 -0.09344848 0.044349413 -0.0986038 -0.05915354 -0.1233192 -0.036907222
0.0076532387 0.15099998 -0.19491147 -0.06870312 -0.23506916 -0.21750775 0.05476835 -0.15905613
0.0030067335 -0.09005603 -0.30120108 -0.36578497 -0.33224007 0.2367455 0.020571563 0.031684916
0.05324922 -0.060343992 -0.01656799 -0.003271033 -0.07666973 -0.0091107795 -0.06459004 -0.16179262
-0.012288388 -0.25585872 -0.14745714 -0.07111207 0.06046924 -0.16218688 -0.014109629 -0.048713434
0.049907554 -0.012161542 -0.16689722 -0.10907629 -0.027245758 -0.2644648 -0.19007574 -0.2043577
0.06214094 0.020050442 -0.1733861 0.31947201 -2.9331695e-05 0.04309866 -0.058339294 -0.07199091
-0.21546024 0.06773862 -0.2425539 0.043229453 0.05114294 -0.004796652 -0.09576699 -0.0050458
-0.0046395115 -0.12363089 0.09880581 -0.15102416 -0.11309889 -0.3200892 -0.049506072 -0.052682836
0.13550337 0.016766181 -0.21275452 0.0109230885 -0.01678914 -0.008845093 -0.14234373 -0.04545645
0.020815838 0.04543531 0.17912923 0.004619746 -0.25583643 -0.094287746 -0.030974286 -0.18481117
0.14233068 -0.030163715 0.12537557 0.034419566 -0.026654853 -0.061873775 -0.14232421 -0.2461955
-0.21315014 0.034556895 -0.03294648 -0.08969239 -0.077726014 -0.15481527 0.16705409 -0.17484462
-0.11771893 0.1664641 0.008927792 0.07672783 -0.14358091 -0.16121158 -0.012249412 -0.023165572
0.0069392915 -0.02563344 -0.089165516 -0.010005648 -0.0010212199 -0.10964746 -0.087069266 -0.21678346
0.1753893 0.08257356 -0.032002382 -0.05833914 -0.092352 -0.0076733623 0.18693216 -0.097932674
-0.30934563 -0.029486258 0.17802408 -0.06613765 -0.18250775 -0.03247816 -0.01302552 -0.03569906
-0.12757803 -0.011559465 0.10622475 -0.21289857 0.03211305 -0.05595083 -0.039392773 0.054887835
-0.1347876 -0.1152703 -0.2921037 0.10127408 0.014484193 -0.06653346 0.009904001 -0.046302628
-0.040769283 -0.1590613 -0.15625025 -0.10954397 0.025881007 0.029776594 -0.04731255 -0.1387155
0.04434527 0.06606314 0.015522443 -0.048624683 -0.22532251 0.09027364 -0.03644364 -0.09144583
-0.09273051 -0.094479494 -0.0035991983 -0.068794444 -0.22551364 -0.064480305 0.07700732 -0.25476396
-0.053726178 -0.048852142 -0.03096242 -0.055990536 0.11903664 -0.16163726 -0.26589316 -0.009652303
0.09842508 0.002938188 0.09058942 0.084672794 0.020842535 -0.10749016 -0.094617315 -0.098530695
-0.064453945 0.07134107 0.077375785 -0.16918635 -0.120429635 -0.041882064 0.11909542 -0.020525476
-0.031889103 0.056265827 -0.031527646 0.121807896 -0.0029000393 -0.21764745 0.031505432 -0.05627544
-0.09250524 -0.052439045 0.14466864 0.03920349 0.24978909 0.017363299 -0.24458925 -0.022685235
-0.04558465 0.161539 -0.012660504 -0.117747046 0.2772872 0.052196544 -0.20996611 -0.21774787
-0.12376946 -0.2862056 -0.16216701 -0.18454912 -0.00982874 0.1992781 0.11911956 0.16387899
0.022416823 0.006434173 -0.33704892 -0.08406547 -0.22626208 0.30217284 0.1501461 -0.10810294
0.121824875 -0.101668045 -0.03341844 0.017631447 -0.072660655 0.038714774 0.10198508 -0.1967258
-0.082099505 0.24745134 -0.10564538 0.05348921 0.0071565644 -0.41216463 -0.3547923 -0.037765846
00000000: 5427 6e3d cca9 57bd eb61 bfbd bba7 353d
00000010: caf0 c9bd fb4a 72bd c78e fcbd 072c 17bd
00000020: 05c8 fa3b bd9f 1a3e df96 47be 39b4 8cbd
00000030: f8b5 70be 5aba 5ebe c754 603d 9cdf 22be
00000040: 9e0c 453b 4c6f b8bd 0737 9abe 2b48 bbbe
00000050: 5f1b aabe 6a6d 723e b285 a83c 0bc8 013d
00000060: db1b 5a3d 432b 77bd 98b9 87bc d45e 56bb
00000070: 0505 9dbd 6145 15bc c847 84bd f7ac 25be
00000080: 3c55 49bc eaff 82be 01ff 16be 34a3 91bd
00000090: 98ae 773d 5114 26be 132c 67bc bd87 47bd
000000a0: dd6b 4c3d 3441 47bc 1be7 2abe 6463 dfbd
000000b0: 7f32 dfbc ee67 87be 37a3 42be 2543 51be
000000c0: 8087 7e3d d340 a43c 208c 31be d691 a33e
000000d0: 560d f6b7 3888 303d 2ff5 6ebd f86f 93bd
000000e0: 9ca1 5cbe 8cba 8a3d 0d60 78be 5e11 313d
000000f0: 427b 513d 3c2d 9dbb 7c21 c4bd 3d57 a5bb
00000100: 0b07 98bb 3132 fdbd b35a ca3d 14a6 1abe
00000110: 64a0 e7bd bbe2 a3be e1c6 4abd f5c9 57bd
00000120: 65c1 0a3e 3b59 893c 52dc 59be c1f6 323c
00000130: 6189 89bc 02eb 10bc 8ec2 11be 8b30 3abd
00000140: fa85 aa3c 601a 3a3d a76d 373e 3d61 973b
00000150: fefc 82be ef19 c1bd c9bd fdbc 243f 3dbe
00000160: 22bf 113e e519 f7bc 7462 003e 88fb 0c3d
00000170: 475b dabc 5b6f 7dbd 70bd 11be ac1a 7cbe
00000180: 0844 5abe 888b 0d3d e3f2 06bd a5b0 b7bd
00000190: d12e 9fbd e587 1ebe 3a10 2b3e 780a 33be
000001a0: 9f16 f1bd 9175 2a3e e045 123c 7b23 9d3d
000001b0: e006 13be a614 25be c2b1 48bc bac5 bdbc
000001c0: ff62 e33b 38fd d1bc 699c b6bd bbee 23bc
000001d0: 74da 85ba d98e e0bd 5f51 b2bd 7cfc 5dbe
000001e0: 4199 333e 541c a93d ee14 03bd 06f5 6ebd
000001f0: 0c23 bdbd d470 fbbb 256b 3f3e ed90 c8bd
00000200: 8d62 9ebe 2a8d f1bc f24b 363e 2d73 87bd
00000210: 50e3 3abe d207 05bd fe68 55bc 2d39 12bd
00000220: d1a3 02be e963 3dbc 5d8c d93d 1502 5abe
00000230: f988 033d b32c 65bd 515a 21bd 11d2 603d
00000240: c305 0abe d612 ecbd 9e8e 95be c968 cf3d
00000250: 1c4f 6d3c b242 88bd 6444 223c d3a7 3dbd
00000260: b1fd 26bd f7e0 22be 1100 20be 9758 e0bd
00000270: 6804 d43c 0bee f33c ceca 41bd 700b 0ebe
00000280: 63a3 353d 1d4c 873d d851 7e3c ad2a 47bd
00000290: f2ba 66be 63e1 b83d ed45 15bd f447 bbbd
000002a0: 7ee9 bdbd 777e c1bd 87e0 6bbb 1ae4 8cbd
000002b0: 0ced 66be 400e 84bd 04b6 9d3d 6c70 82be
000002c0: fb0f 5cbd 2f19 48bd e7a4 fdbc 5556 65bd
000002d0: 7bc9 f33d 3d84 25be 2623 88be b124 1ebc
000002e0: 1793 c93d 9d8e 403b f286 b93d ee68 ad3d
000002f0: f7bd aa3c cd23 dcbd b9c6 c1bd 76ca c9bd
00000300: 6e00 84bd 441b 923d 3277 9e3d 303f 2dbe
00000310: d0a3 f6bd 878c 2bbd 4de8 f33d 0b25 a8bc
00000320: 269e 02bd ff76 663d 2223 01bd 6b76 f93d
00000330: 960e 3ebb f9de 5ebe d70b 013d 1381 66bd
00000340: 6373 bdbd 53ca 56bd 0424 143e d793 203d
00000350: b6c8 7f3e 7a3d 8e3c 9b75 7abe 63d6 b9bc
00000360: f8b6 3abd 7b6a 253e 016e 4fbc 5d25 f1bd
00000370: 96f8 8d3e 0bcc 553d 5b01 57be 4cf9 5ebe
00000380: d87a fdbd 8a89 92be 1c0f 26be 72fa 3cbe
00000390: b908 21bc 8f0f 4c3e f5f4 f33d e5cf 273e
000003a0: 7ca3 b73c c1d5 d23b ad91 acbe 842a acbd
000003b0: 3fb1 67be 66b6 9a3e e6bf 193e 1365 ddbd
000003c0: 527f f93d 5637 d0bd c6e1 08bd d36f 903c
000003d0: 1ccf 94bd 6293 1e3d 8edd d03d 7d72 49be
000003e0: c923 a8bd e263 7d3e 9b5c d8bd 8017 5b3d
000003f0: 9d81 ea3b 3e07 d3be 56a7 b5be 5cb0 1abd

conv_blocks.11.bias f4 [128]
-0.16473132 -0.19512314 -0.26804766 -0.11005768 -0.23645554 -0.15762809 -0.19869529 0.03428461
-0.053355515 -0.25689605 -0.30157444 -0.06928197 -0.25069216 -0.044414613 -0.027273376 0.057027083
-0.014981896 -0.31830394 -0.02671131 -0.17396067 -0.10587629 -0.21029907 0.08974851 0.01792609
-0.072087705 0.022040028 -0.10598809 -0.026568172 -0.03207311 0.03269685 -0.06023582 -0.09781743
-0.24419141 -0.2161582 -0.14099687 -0.122174025 -0.22028525 0.001588094 -0.29813313 -0.14389238
0.01681925 -0.095378056 0.06402308 -0.019205932 -0.1491662 -0.21270263 0.00062408624 -0.016334943
-0.042624187 -0.18810157 -0.2269333 -0.13423324 -0.13797155 -0.30091435 -0.19931996 -0.2578161
-0.21065748 0.110711806 -0.07623478 0.030572679 -0.019215884 -0.20786695 -0.10405765 -0.21394594
-0.42345178 -0.21881272 -0.00481488 0.037691336 -0.13819847 -0.23576646 -0.09759523 -0.1352077
0.03594501 -0.23591991 -0.092558496 -0.18777852 -0.33410907 -0.14392619 -0.2724122 -0.35444736
-0.029622046 -0.19769318 0.049308732 -0.2929112 0.12640932 -0.061543506 -0.48125228 -0.21106127
-0.059752066 -0.07679307 -0.12718253 -0.1499382 -0.13605972 -0.020722257 -0.16574304 -0.18467218
-0.21908312 0.025347384 -0.14010763 -0.024367858 -0.0707984 -0.10680054 -0.100619905 -0.11049959
-0.27062875 0.016087476 -0.21930261 -0.22004128 -0.0038339153 -0.25988963 -0.15965265 -0.21996263
0.22076167 -0.19571915 -0.20930757 -0.10348356 -0.11215782 -0.20944963 -0.09599817 -0.2419074
-0.20737053 -0.12664661 -0.05508057 -0.10378164 -0.13252245 -0.18250813 -0.25498357 -0.2510111
00000000: 54af 28be 5cce 47be 8b3d 89be ec65 e1bd
00000010: 6721 72be 4269 21be c776 4bbe 056e 0c3d
00000020: 508b 5abd e187 83be f767 9abe b5e3 8dbd
00000030: b95a 80be 19ec 35bd 6a6c dfbc 3b95 693d
00000040: a076 75bc bcf8 a2be add1 dabc bf22 32be
00000050: abd5 d8bd a458 57be 11ce b73d bcd9 923c
00000060: b8a2 93bd 4a8d b43c 4910 d9bd 7fa5 d9bc
00000070: 185f 03bd 22ed 053d d6b9 76bd 8154 c8bd
00000080: 500d 7abe 9358 5dbe 7c61 10be 6036 fabd
00000090: 7592 61be 9827 d03a e8a4 98be 8658 13be
000000a0: 86c8 893c 9255 c3bd 881e 833d c255 9dbc
000000b0: 06bf 18be b8ce 59be b899 233a dcd0 85bc
000000c0: b396 2ebd b39d 40be 3461 68be 7074 09be
000000d0: 6a48 0dbe 7211 9abe 881a 4cbe 7900 84be
000000e0: 98b6 57be dfbc e23d fb20 9cbd 8e73 fa3c
000000f0: a16a 9dbc 13db 54be 2d1c d5bd a514 5bbe
00000100: acce d8be 7110 60be 24c6 9dbb 3b62 1a3d
00000110: e683 0dbe c36c 71be 02e0 c7bd e373 0abe
00000120: 133b 133d fd94 71be 4f8f bdbd 0349 40be
00000130: 5810 abbe 6361 13be 9d79 8bbe 207a b5be
00000140: efa9 f2bc 1570 4abe f4f7 493d 75f8 95be
00000150: 7271 013e 0b15 7cbd b366 f6be 7220 58be
00000160: 95be 74bd af45 9dbd 233c 02be 6689 19be
00000170: 3d53 0bbe b9c1 a9bc 8bb8 29be b41a 3dbe
00000180: 5357 60be 51a5 cf3c 6078 0fbe 1a9f c7bc
00000190: c0fe 90bd 3eba dabd cf11 cebd 9c4d e2bd
000001a0: da8f 8abe e2c9 833c dd90 60be 8052 61be
000001b0: 6d42 7bbb 4110 85be fc7b 23be e23d 61be
000001c0: 590f 623e 9a6a 48be b954 56be 30ef d3bd
000001d0: 00b3 e5bd f779 56be b09a c4bd 93b6 77be
000001e0: f158 54be a6af 01be 2a9c 61bd 788b d4bd
000001f0: f7b3 07be 69e3 3abe 358d 82be 8784 80be

conv_blocks.14.weight f4 [128]
1.571344 1.4388968 1.476216 1.5927317 1.5812835 1.5471821 1.5019993 2.3150945
1.5621723 1.1043009 1.6332877 1.1980476 1.6378707 1.5718844 1.4782127 1.4552749
0.96596545 1.5373585 1.452475 1.4447736 1.4358385 1.4767078 1.5377043 2.4293272
1.5264661 1.1548877 1.4900743 1.5074147 1.4352398 1.2344937 1.441702 1.4664587
1.60063 1.8296181 1.8714714 1.6732812 1.2832891 1.985814 1.580586 2.2110968
1.3879874 1.3429044 1.4686451 1.4988142 1.612246 1.663405 0.98407936 1.5052248
1.2351484 1.5691959 1.6458796 1.4960172 1.6761043 1.4826902 1.8701782 1.5734348
1.6498845 1.0157348 1.407375 1.495958 1.4552373 1.8422408 1.517522 1.5227022
1.667461 1.1923032 1.4492753 1.513545 1.4474341 1.635237 1.3327607 1.5279552
1.0423912 1.3089737 1.2974659 1.4166722 1.4858708 1.4757111 1.745523 1.6053392
1.5790008 1.2721268 1.5756961 1.4993138 1.4590794 1.9153737 1.6454121 1.609307
1.3946414 1.690228 1.5282845 1.4837716 1.4947176 1.5097641 1.906459 1.5797359
1.5778848 1.1326926 1.5736685 1.2475431 1.0033661 1.7848561 1.7497299 1.6662171
1.4500866 1.4146564 1.5388601 1.6499949 1.5778766 1.5011128 1.4066939 1.7361861
1.4969405 1.3849552 1.6329378 1.4823455 1.5212679 1.5276508 1.600153 1.5730765
1.6242656 1.4251504 1.4902697 1.5876405 1.5025346 1.573552 1.6258875 1.9808285
00000000: cd21 c93f c52d b83f a5f4 bc3f a2de cb3f
00000010: 7f67 ca3f 100a c63f 8341 c03f 822a 1440
00000020: 43f5 c73f bb59 8d3f 920f d13f a059 993f
00000030: bfa5 d13f 8233 c93f 1336 bd3f 7346 ba3f
00000040: 8349 773f 2ac8 c43f b3ea b93f 57ee b83f
00000050: 8ec9 b73f c304 bd3f 7fd3 c43f 197a 1b40
00000060: 3e63 c33f 5cd3 933f c1ba be3f f7f2 c03f
00000070: f0b5 b73f e403 9e3f b189 b83f ebb4 bb3f
00000080: 72e1 cc3f ed30 ea3f 608c ef3f 142e d63f
00000090: d142 a43f 272f fe3f a450 ca3f 9c82 0d40
000000a0: 92a9 b13f 4be4 ab3f 90fc bb3f 25d9 bf3f
000000b0: 145e ce3f 74ea d43f a0ec 7b3f 35ab c03f
000000c0: 5819 9e3f 69db c83f 2fac d23f 7e7d bf3f
000000d0: 968a d63f cbc8 bd3f 0062 ef3f 5066 c93f
000000e0: 6a2f d33f 9903 823f dd24 b43f 8d7b bf3f
000000f0: 3745 ba3f 8cce eb3f 293e c23f e8e7 c23f
00000100: 5d6f d53f 649d 983f da81 b93f d8bb c13f
00000110: 8545 b93f 724f d13f e797 aa3f 0994 c33f
00000120: 136d 853f 738c a73f 5d13 a63f 8455 b53f
00000130: 0431 be3f 1ae4 bc3f 4c6d df3f c17b cd3f
00000140: b31c ca3f 0dd5 a23f 69b0 c93f 84e9 bf3f
00000150: 1dc3 ba3f f72a f53f dd9c d23f c6fd cd3f
00000160: 9c83 b23f 6459 d83f d49e c33f 3aec bd3f
00000170: e852 bf3f f33f c13f d906 f43f c934 ca3f
00000180: 21f8 c93f 12fc 903f f86d c93f 7eaf 9f3f
00000190: 4d6e 803f 2a76 e43f 26f7 df3f 9a46 d53f
000001a0: 709c b93f 7613 b53f 5ef9 c43f 0833 d33f
000001b0: dcf7 c93f 7724 c03f 8c0e b43f 593b de3f
000001c0: bf9b bf3f 3646 b13f 1b04 d13f 7fbd bd3f
000001d0: e8b8 c23f 108a c33f d0d1 cc3f 925a c93f
000001e0: efe7 cf3f 546b b63f 28c1 be3f ce37 cb3f
000001f0: 0e53 c03f 276a c93f 151d d03f ca8b fd3f

conv_blocks.14.bias f4 [128]
0.08647632 0.030899983 0.036248628 0.066213265 -0.0711793 -0.026074525 -0.017799402 -0.013943728
-0.10207569 0.0118818255 0.06312153 -0.08478249 -0.08608435 -0.045934673 0.06863393 0.044409797
-0.09754939 0.06079618 0.01692095 0.006707221 -0.09259317 -0.016090093 -0.03268899 -0.017063962
0.034759022 0.03588198 0.011855332 -0.0067120413 -0.1100568 -0.0006876533 0.10694478 -0.08725928
0.09120916 -0.006405102 0.007389252 -0.02533138 0.009557677 0.010139375 0.0024611999 0.0047682016
-0.100307606 0.008437935 -0.03496487 -0.0086212335 -0.014282051 0.10508157 -0.008721163 -0.096052304
-0.0033233862 -0.0072410554 -0.05015708 -0.0028534296 0.0671691 -0.015087827 -0.0132691385 0.0010980589
-0.11699575 -0.039612256 0.08480452 -0.020465463 0.09668332 0.0129232155 -0.03495623 -0.075865194
-0.022413647 0.11660558 -0.04307753 -0.013794898 0.013615514 -0.10846059 -0.10161009 -0.02032548
-0.016272368 -0.03926433 0.105279334 0.0004944218 0.0517911 0.009406149 -0.0208547 -0.03410431
0.015636785 0.09643145 -0.035700683 0.04472637 0.0046680095 0.0047180234 0.033565886 -0.12478714
-0.083680935 -0.02794392 -0.06770843 -0.0031295277 0.012747253 -0.025149561 0.022978205 -0.04760886
-0.018015338 -0.111978516 -0.05991481 0.060229484 -0.00031234225 0.0048180423 -0.036998283 -0.023890708
-0.040270057 -0.011731926 0.0863211 -0.102014594 -0.041857988 -0.027948009 -0.09094929 -0.097718604
-0.020822253 -0.00988004 0.03913273 -0.041514702 -0.010733173 -0.01232268 0.008348062 -0.011720094
-0.04172947 -0.013001557 -0.04056403 0.006104771 0.006861728 -0.10078337 -0.09646207 0.0062084016
00000000: 7f1a b13d f621 fd3c 7179 143d d29a 873d
00000010: 74c6 91bd 3e9a d5bc 0dd0 91bc 3c74 64bc
00000020: 0f0d d1bd fdab 423c dc45 813d 71a2 adbd
00000030: fe4c b0bd ff25 3cbd f28f 8c3d 0ce7 353d
00000040: f9c7 c7bd 6a05 793d ce9d 8a3c 3fc8 db3b
00000050: 7da1 bdbd 5fcf 83bc e4e4 05bd b9c9 8bbc
00000060: 7a5f 0e3d fcf8 123d de3c 423c aff0 dbbb
00000070: 7665 e1bd a243 34ba dd05 db3d feb4 b2bd
00000080: decb ba3d e4e1 d1bb 8a21 f23b c183 cfbc
00000090: ce97 1c3c 9f1f 263c 154c 213b 933e 9c3b
000000a0: 136e cdbd 443f 0a3c 5337 0fbd 1340 0dbc
000000b0: 43ff 69bc 0235 d73d 35e3 0ebc 12b7 c4bd
000000c0: 2bcd 59bb 6046 edbb 8371 4dbd 9b00 3bbb
000000d0: f48f 893d ef32 77bc cd66 59bc beec 8f3a
000000e0: 789b efbd 7640 22bd fead ad3d 30a7 a7bc
000000f0: e801 c63d e5bb 533c 442e 0fbd 365f 9bbd
00000100: d39c b7bc e8ce ee3d 1072 30bd ff03 62bc
00000110: 9b13 5f3c 9620 debd f318 d0bd 9f81 a6bc
00000120: a14d 85bc a2d3 20bd b19c d73d 169c 013a
00000130: e822 543d 401c 1a3c 7ad7 aabc f6b0 0bbd
00000140: b718 803c da7d c53d e13a 12bd 0033 373d
00000150: 1af6 983b a699 9a3b 627c 093d 6690 ffbd
00000160: e960 abbd a6ea e4bc b8aa 8abd c318 4dbb
00000170: dbd9 503c 7406 cebc ca3c bc3c 8201 43bd
00000180: e794 93bc fe54 e5bd 3b69 75bd 31b3 763d
00000190: dec1 a3b9 abe0 9d3b 838b 17bd 72b6 c3bc
000001a0: 37f2 24bd 4437 40bc 1ec9 b03d 07ed d0bd
000001b0: 4873 2bbd 39f3 e4bc 9f43 babd b120 c8bd
000001c0: 6e93 aabc e4df 21bc a449 203d 520b 2abd
000001d0: 31da 2fbc 11e5 49bc 4fc6 083c a305 40bc
000001e0: 85ec 2abd 7c04 55bc 7826 26bd 880a c83b
000001f0: 59d8 e03b 8367 cebd e88d c5bd d96f cb3b

conv_blocks.14.running_mean f4 [128]
-0.7704218 -0.80028236 -0.512196 -0.029869635 -0.86393493 -0.676999 -0.6763362 -0.28246066
1.247616 -0.8491672 -0.76311255 0.027045408 -0.8350372 1.7513205 -0.3923113 1.9552131
0.7608182 -1.1446615 1.5998248 0.68772256 1.0474938 -1.0107422 2.1509995 -0.31206974
-0.27544466 1.7551721 0.23496419 1.7028974 1.8029027 -0.060955703 -0.42297062 0.4640866
-0.87022567 -0.9022623 -0.69780445 1.4254768 0.91119313 -0.17525853 -0.759237 -0.27433756
2.3518646 0.43433717 2.004789 1.5631495 -0.7504824 -0.70732194 1.2163885 2.0686967
0.47811955 0.5073669 -0.72494686 0.44807133 -0.64442915 -1.3992637 -1.2777071 0.057921547
-0.5687881 1.1764106 -0.48659724 1.9240848 1.2804418 -1.0752978 1.567506 -0.823606
-1.1739142 -0.76634914 1.0995094 2.0166476 -0.4562483 -1.09808 -0.8050274 1.1206052
1.0099609 -0.95967656 1.7329754 0.57098746 -1.1363251 2.076797 -0.65949494 -0.96392405
-0.69248927 -0.66938406 2.559928 -0.9356285 2.2415407 -0.12028286 -1.0190357 -0.5574494
1.3630844 -0.5525852 1.395042 0.8507386 1.2477022 1.2844838 -0.8129872 -0.7433192
0.87309736 0.04019774 1.4955899 1.3784438 1.0746322 -1.020015 -0.7212417 1.3458102
-0.9003305 1.7963064 0.10909957 -0.78077585 -0.2504975 -0.4982359 0.40038237 -0.9289775
2.4115865 -0.7374621 -0.62667096 1.5910598 0.6475168 -0.74870944 -0.19763856 -0.65669197
-0.6567116 1.8735514 1.4557164 1.4076359 0.5339494 -1.2856306 -0.8514131 -0.29955268
00000000: 5d3a 45bf 4edf 4cbf 471f 03bf 2ab1 f4bc
00000010: d72a 5dbf ce4f 2dbf 5f24 2dbf af9e 90be
00000020: e2b1 9f3f 0663 59bf 585b 43bf 558e dd3c
00000030: ffc4 55bf 452b e03f 07dd c8be 6c44 fa3f
00000040: fbc4 423f 4584 92bf 0fc7 cc3f 960e 303f
00000050: 4714 863f 0060 81bf faa9 0940 9bc7 9fbe
00000060: 1507 8dbe 7ba9 e03f 749a 703e 8bf8 d93f
00000070: 84c5 e63f b0ac 79bd 9b8f d8be c29c ed3e
00000080: 1cc7 5ebf a9fa 66bf 50a3 32bf 0676 b63f
00000090: f443 693f f976 33be 5b5d 42bf f975 8cbe
000000a0: f384 1640 7161 de3e 774e 0040 4815 c83f
000000b0: 9d1f 40bf 0d13 35bf 9eb2 9b3f 8765 0440
000000c0: 16cc f43e cce2 013f 1e96 39bf 9b69 e53e
000000d0: 4ff9 24bf 131b b3bf e88b a3bf 253f 6d3d
000000e0: 199c 11bf 9f94 963f 4623 f9be 6948 f63f
000000f0: 84e5 a33f 5ca3 89bf 09a4 c83f d8d7 52bf
00000100: d242 96bf 752f 44bf b9bc 8c3f c110 0140
00000110: 6199 e9be e38d 8cbf 4716 4ebf fe6f 8f3f
00000120: 6646 813f 5dad 75bf 23d2 dd3f 3c2c 123f
00000130: 1a73 91bf 3eea 0440 a9d4 28bf bac3 76bf
00000140: fa46 31bf c15c 2bbf dcd5 2340 5985 6fbf
00000150: 6775 0f40 dc56 f6bd c36f 82bf 01b5 0ebf
00000160: 8d79 ae3f 3976 0dbf bc90 b23f 01ca 593f
00000170: b5b4 9f3f f769 a43f ee1f 50bf 2b4a 3ebf
00000180: 4f83 5f3f 63a6 243d 7d6f bf3f d970 b03f
00000190: 8c8d 893f da8f 82bf 4ca3 38bf 8243 ac3f
000001a0: 0f7c 66bf 5eed e53f 986f df3d ede0 47bf
000001b0: 3541 80be c718 ffbe ebfe cc3e 78d1 6dbf
000001c0: 6f57 1a40 51ca 3cbf 826d 20bf d9a7 cb3f
000001d0: a9c3 253f 6cab 3fbf c361 4abe f71c 28bf
000001e0: 401e 28bf 88d0 ef3f ea54 ba3f 6a2d b43f
000001f0: e8b0 083f 8b8f a4bf 35f6 59bf f85e 99be

conv_blocks.14.running_var f4 [128]
2.0913868 1.8984414 2.7075894 7.3627853 2.14589 1.8285742 1.1059672 5.622428
11.909066 1.8966055 3.2397509 2.2907777 2.4419446 17.604273 3.295549 18.805447
4.138663 3.584239 10.761135 6.5102406 9.147581 2.0731063 20.386278 3.811191
4.1551776 12.760418 4.4518414 18.29948 17.204975 2.06588 2.011983 5.0849376
3.3912742 2.9308457 3.3858628 13.712313 10.813807 4.2531395 3.0208187 4.779792
18.22235 5.170233 22.3341 17.632423 2.023756 2.2594025 5.4564075 18.035757
7.4592834 5.6170454 2.1066797 7.837416 1.4558815 5.329205 4.621413 1.1575779
1.804442 5.096386 5.1934323 18.937073 15.168939 2.2590408 14.75269 2.2345312
3.809559 1.4351552 11.27843 22.226046 3.4220479 2.8427668 2.3767567 15.31355
6.090596 2.1331975 18.255337 6.498748 3.88467 21.027512 2.6925042 2.7840307
4.727435 1.3321778 17.520956 2.173145 18.79476 5.0554004 2.7050948 1.9902267
11.359253 1.9357089 12.73384 8.416781 11.909504 9.374117 2.027869 4.767095
10.669228 2.3346386 15.621094 17.176527 4.849503 2.6709464 2.7275176 17.888624
2.1787403 17.12048 6.5430894 5.524728 4.4262877 1.631906 6.2267046 3.2134871
21.306835 1.9266135 2.8810828 15.350975 10.061343 2.0881205 3.4108768 3.0294242
3.087468 19.821096 16.46339 11.663902 5.785151 4.768607 2.754708 2.9299548
00000000: 48d9 0540 2100 f33f 2549 2d40 f09b eb40
00000010: 4356 0940 b80e ea3f 5590 8d3f eeea b340
00000020: 898b 3e41 f8c3 f23f 1458 4f40 1a9c 1240
00000030: d248 1c40 8dd5 8c41 46ea 5240 8e71 9641
00000040: ed6f 8440 2c64 6540 9c2d 2c41 e453 d040
00000050: 7e5c 1241 c6ad 0440 1917 a341 8eea 7340
00000060: 37f7 8440 ac2a 4c41 7c75 8e40 5665 9241
00000070: caa3 8941 6137 0440 54c4 0040 cfb7 a240
00000080: a30a 5940 fa92 3b40 fab1 5840 a265 5b41
00000090: 5a05 2d41 b819 8840 1855 4140 0ef4 9840
000000a0: 5fc7 9141 8c72 a540 3dac b241 340f 8d41
000000b0: 3885 0140 0d9a 1040 e49a ae40 3b49 9041
000000c0: 73b2 ee40 d6be b340 d7d3 0640 1dcc fa40
000000d0: 535a ba3f d988 aa40 9ee2 9340 832b 943f
000000e0: f5f7 e63f 9815 a340 9930 a640 207f 9741
000000f0: f9b3 7241 2094 1040 050b 6c41 8f02 0f40
00000100: d1cf 7340 2ab3 b73f 7374 3441 f1ce b141
00000110: d502 5b40 e4ef 3540 c81c 1840 4d04 7541
00000120: 2ae6 c240 4f86 0840 ee0a 9241 bef5 cf40
00000130: 6f9e 7840 5838 a841 fd51 2c40 8f2d 3240
00000140: 2647 9740 cd84 aa3f eb2a 8c41 cf14 0b40
00000150: ab5b 9641 d7c5 a140 4620 2d40 c0bf fe3f
00000160: 80bf 3541 4fc5 f73f cfbd 4b41 23ab 0641
00000170: 548d 3e41 62fc 1541 9bc8 0140 0b8c 9840
00000180: 28b5 2a41 b86a 1540 00f0 7941 8769 8941
00000190: 212f 9b40 c9f0 2a40 a68f 2e40 e71b 8f41
000001a0: 7b70 0b40 bef6 8841 fd60 d140 92ca b040
000001b0: 26a4 8d40 4ce2 d03f 2a41 c740 c6a9 4d40
000001c0: 6674 aa41 459b f63f a963 3840 989d 7541
000001d0: 43fb 2041 c4a3 0540 ce4b 5a40 16e2 4140
000001e0: 1399 4540 9b91 9e41 06b5 8341 589f 3a41
000001f0: f51f b940 6e98 9840 234d 3040 6184 3b40
