trainings/noise_MNINST_double_label/discriminator_weights.pth (torch, 537335 bytes, 23 tensors)

conv_blocks.0.weight f4 [16, 1, 3, 3]
00000000: 7b14 21be 0fd5 cbbe 4bd2 e6be 1ddc 123e
00000010: 3995 0b3f ff3c e53e fa9b 82bb fdb8 2bbe
00000020: 81d4 40bd 0865 aa3d 8567 b03e d789 f43d
00000030: 92a3 31be f159 aabe fad8 64bf a435 c9bc
00000040: 336a b53e ae7f dc3e 8847 8f3e deb0 6dbc
00000050: a76c 3f3e c145 94be f53f 4dbf 31e7 ffbd
00000060: 08c2 833e 1958 303e ed88 603e 2b52 723d
00000070: c562 84be 6646 1abe 13c2 5dbc 4db2 ab3e
00000080: d0eb a03e 3e6e 92be 9560 8b3e 8631 02bf
00000090: b7d8 e63d 5bde 2b3e 6228 f1bd 42f4 843d
000000a0: d5d9 9bbe 3cbc f93d 6ca1 f53e e379 ab3d
000000b0: 11d0 883d 5179 c73c 28c0 23be b95c 07bf
000000c0: 4c8d 113e a8b0 11bc 688c 1a3f a503 9fbd
000000d0: 75f0 783c 07c1 7cbe 5f4a 3fbe e269 b63a
000000e0: a84f 1d3e 1e3a 5fbd 7fca 123f ec71 24bf
000000f0: 2b50 9c3e 1566 85bb ff52 a2be b841 1a3f
00000100: 1195 72be 1b6f 2b3d 801c ffbe 553c 483e
00000110: 08f9 14bd 18ee 1fbf 60c8 763e c8ba 4bbd
00000120: 3e4c acbe 0300 59bc 5b01 6ebe 5c69 c03e
00000130: 77d4 47bc 345b 6d3f 8af9 543d d05b 05be
00000140: c3bd 20bf d4b0 463e 34ef acbc 806f 903c
00000150: 7cc6 51bd e251 183e b7a9 f03e 8121 71be
00000160: 4b78 b23e fe9a 21bf bf0d 87be 63d0 a4be
00000170: 5dd0 10bf 0dde 03bc 713b c63e a76b e5bb
00000180: 914e 6b3d 5870 f8bd b13e d83d f53e b73e
00000190: 8a5a a5be f77a c13e 0b1f 35bf d1b6 b53e
000001a0: 2b12 15bf c427 b23e 0e24 bdbd f856 6b3e
000001b0: 654c 68be 0162 27be b475 e73c bbf3 42be
000001c0: 9c07 a53e 05fd a83e f0db 79be a8b5 843e
000001d0: 9aa1 e5bc c22a 2b3e 61b9 33be 76bd 3fbc
000001e0: 071e b0be 489a cf3e 9d36 9f3e 6e6b 193e
000001f0: 63c4 94be 2779 11bf 0022 fdbd 5e49 33be
00000200: 9a90 a2be 55ec 293f 3886 113f c68a 7a3e
00000210: 28bc 4bbf 657a 2abe c994 dbbd ec32 febb
00000220: 895d ffbe 2a7c 9abe fae8 bd3e dec2 0b3f
00000230: 15e4 29bd 011d ffbc a2e4 903e d4ed 1bbe
-0.15730469 -0.39810988 -0.45082316 0.14341779 0.5452457 0.447731 -0.003985879 -0.16769786
-0.04707766 0.083200514 0.3445398 0.11940353 -0.17347553 -0.33271745 -0.8939358 -0.02456171
0.35432586 0.43066162 0.27984262 -0.0145075 0.18693791 -0.28959468 -0.80175716 -0.12495268
0.25733972 0.17221107 0.21927233 0.059160393 -0.25856605 -0.15065917 -0.01353504 0.3353447
0.3142991 -0.28599733 0.27222124 -0.50856817 0.11271804 0.1678404 -0.117752805 0.06491901
-0.3043963 0.12194106 0.47974718 0.083728574 0.066803105 0.02434984 -0.1599127 -0.5287586
0.14214057 -0.008892216 0.6037049 -0.07764367 0.015194048 -0.24683009 -0.18680714 0.0013917054
0.15362418 -0.054498784 0.57340235 -0.6423633 0.30529913 -0.004071007 -0.31703946 0.6025653
-0.23689677 0.041854005 -0.4982643 0.19554265 -0.036370307 -0.6247268 0.24099874 -0.049738675
-0.33651918 -0.013244632 -0.23242705 0.37580383 -0.012196652 0.9271729 0.05199579 -0.13023305
-0.62789553 0.19403392 -0.021110155 0.017631292 -0.05121468 0.14874986 0.47004482 -0.23547937
0.348574 -0.63127124 -0.26377675 -0.32190236 -0.5656794 -0.0080485465 0.38717225 -0.0070013586
0.057447974 -0.12130803 0.105588324 0.3579022 -0.32295638 0.37789127 -0.7075049 0.3549104
-0.5823085 0.34795964 -0.092353925 0.22982395 -0.22685392 -0.1634598 0.028254367 -0.19038288
0.32232368 0.3300554 -0.24400306 0.25919843 -0.02803116 0.1671553 -0.17551185 -0.011702886
-0.3439791 0.40547395 0.31096354 0.14982387 -0.2905608 -0.5682549 -0.123600006 -0.17508456
-0.31750947 0.6637624 0.56845427 0.24467 -0.7958398 -0.16648252 -0.10721738 -0.007757535
-0.4987605 -0.30172855 0.3709181 0.5459422 -0.04147728 -0.03114176 0.28299433 -0.15227443

conv_blocks.0.bias f4 [16]
00000000: e00e 97bd 22b1 49be 0ef3 4cbe 6580 bebd
00000010: 0c98 44bd 5d95 4abe e975 2cbe 8e39 b6be
00000020: 02ba 12be ffaa 8c3e 12b2 2abf f7ec f1bd
00000030: 5cdb b23d 87a1 a6be e9a1 57be 59a1 05bc
-0.07375884 -0.19696477 -0.20014593 -0.09301833 -0.047996566 -0.1978354 -0.16841854 -0.35590786
-0.14328769 0.2747421 -0.66677964 -0.118127756 0.08733246 -0.3254511 -0.21057858 -0.008156144

conv_blocks.3.weight f4 [32, 16, 3, 3]
00000000: be5a dabb f5d4 a4bd d70c 20bd 9e05 c6bd
00000010: 833c 283d 143c ab3d 2ec5 c2ba b0af 6abd
00000020: e4aa ac3c 2ccc 6ebe f4c2 8abc d65c 473d
00000030: 02a5 5c3e 42a1 e43d 8114 6b3d 085c aa3d
00000040: 8d2f 983c 2b96 163d 9cc4 86bc 3a93 2d3e
00000050: d201 d2bc fc81 0bbe 49d5 28bd 92ad 333c
00000060: a7e2 7bbc c515 53be 56b4 b3bd 4de2 963e
00000070: 6ded d83e a793 ec3d 3a9d 133f 15b5 263f
00000080: d12f e1bb 780c 18bd db47 73be 3c55 91bd
00000090: ca20 323d 885e 333e 40b8 a83d 3ff9 fcbd
000000a0: 7f8f b5bd 32e6 f0bd c6fa 8d3b a383 d13d
000000b0: 641d 473d b404 a4bc 96e2 d23d ca16 bb3d
000000c0: b737 67be 9f7c 61be 7fa8 f03d 90d3 fabd
000000d0: c784 24be 85de 8fbd dc38 e23b 3d2d 5fbe
000000e0: 6b00 06be f0f9 fd3e 5a5a e93e fb59 cb3d
000000f0: ce5b 8abd 8148 0f3d f1b2 3b3d e552 6f3d
00000100: 878f 3e3e a6b2 6c3d 59cf b6bc c4fc 3c3e
00000110: 6b35 e93c fa96 8fbd 8666 b1be fa4d 2ebe
00000120: 88eb fb3c 6490 dcbc 2294 e4bd 19fa b4bd
00000130: 529b 7cbd 05e3 43bd 0600 2a3e cdef ea3d
00000140: 6d65 563d 3822 69bd 890a 943c fa5c 71bd
00000150: 2c8a 093e 9902 353e 601b fabc b2ef c9bd
00000160: 8310 e0bc 38aa c8bb 5324 6abd c6b3 43be
00000170: 2bb6 ddbd 1d40 a43d 62b3 083e 09c9 233e
00000180: f702 6b3d 689a 8a3d 8a88 a5bd 075a 1b3d
00000190: 981c 89bd 01a0 19be 8355 3d3e 3d2d 233e
000001a0: 65df a7bc c62c 63be c452 e5be 6d23 0abd
000001b0: d4d9 67bb c699 0d3e 669b 193c 5a8b 003e
000001c0: 6f45 553e 8637 d03d 57cf 97bd 1606 89bd
000001d0: d79c 65bd 180c 863d 00cb 363e d689 3e3d
000001e0: 6ad9 273e b7de 4e3e 3376 3c3d bfaa d7bd
000001f0: e5f2 52be ceb0 9cbd 0f38 b5bd 0b2a a1bc
00000200: 6300 a1bd 68ba bb3d 878d 5abc 3b69 74bd
00000210: dfe8 f43c bcb7 973d 5a6f 693e d538 6c3d
00000220: 0d65 d53d 96c2 2abd 27ce ee3d c573 2c3e
00000230: 1cf1 313c 78f6 edbd 54d4 6abe e73d 873b
00000240: dc4b 2dbd 8387 c83c 7d51 d6bd 74eb 2fbe
00000250: 5fd2 7b3a 6f4c 373b 2e03 3b3c 1b87 88bd
00000260: abaa 723d 5b9a 8a3c 72ed acbb 0855 8abc
00000270: aa82 61be d17b 933b e59e 213e 4cf1 153d
00000280: bf85 62be 2897 dc3d 19f4 7b3d 3802 fe3d
00000290: 1b9a 1f3e 5153 033e a763 36be ff14 c33c
000002a0: 0977 e03d 2555 2ebd 5422 2a3c 5e10 3d3d
000002b0: 95f8 593e 4fdc 04be 1eef 7dbe cb3e 023f
000002c0: e10f 29be ecd3 cfbe c274 743c 86e4 413e
000002d0: 3564 6a3d 5708 323e 03c7 a0bd f9a8 8abe
000002e0: 8bd4 213e c650 9cba ee17 8fbd 9b2b 86bd
000002f0: 8074 bf3d 1b5b e03d a929 8c3e 7e85 113e
00000300: eec6 81bd 6403 c13d bb9d 7d3c 4dce 85be
00000310: f46b 8ebe f2ec 1d3e a5b7 4ebe 2b04 923e
00000320: b5d8 ef3d 075e 39be 8d63 f4bd 9145 d83d
00000330: 2d31 c43c aa9a 36be 6a9b 04bd 6a27 60bd
00000340: 7091 7ebe 159d 44be 20b0 923d e018 0abd
00000350: b0a1 b8bd d27d 493e 3543 593e 32d8 2b3e
00000360: 894d 3abe 2cc4 34be d174 2e3d 1711 283d
00000370: a84f 00bf be34 4cbe 838d c7bd d938 b6bb
00000380: 374b a73b 94ba 9a3d 4f82 6b3d ee6d ebbd
00000390: 88c3 52bd ad60 a23d b50d 67be 3388 14be
000003a0: fd74 883d bd88 3a3d cb07 153c d8d1 e93d
000003b0: f854 803e 856a 67bd 4fbe 723c bf0c cfbd
000003c0: 831b 99bd 40c8 1ebe 8f93 3aba 98cd c83d
000003d0: 8b94 b73d c663 f4bd c7aa ad39 6cdd 61be
000003e0: 41c6 1b3e ac86 983d c540 f4bd 1011 3dbe
000003f0: b235 3a3c d6d3 7ebe cb0e 633b 3924 a73d
-0.0066636493 -0.08048431 -0.039074745 -0.0966904 0.041073333 0.08361068 -0.001485979 -0.057296455
0.02107758 -0.23320073 -0.016938664 0.04867252 0.2154732 0.1116357 0.0573926 0.08318335
0.018577361 0.036764305 -0.016451173 0.16950694 -0.025635634 -0.13623804 -0.04121903 0.010966675
-0.015373862 -0.20613773 -0.08774631 0.2946953 0.42368641 0.115516 0.57661784 0.6512006
-0.0068721552 -0.037121266 -0.2375788 -0.07096335 0.0434883 0.1751653 0.08238268 -0.123522274
-0.0886526 -0.11762656 0.004332873 0.10230186 0.048612013 -0.020021774 0.10297124 0.09135206
-0.22579847 -0.22020195 0.11750888 -0.122473836 -0.16066276 -0.07024864 0.006903751 -0.21794601
-0.13086097 0.4960475 0.45576745 0.09929272 -0.067557916 0.034981254 0.04582495 0.058428664
0.18609439 0.05778756 -0.022315668 0.18455797 0.028467854 -0.07011218 -0.34648532 -0.17021933
0.030751958 -0.02692432 -0.111610666 -0.08836765 -0.061671562 -0.047823925 0.16601571 0.114715196
0.05234282 -0.0569174 0.01807143 -0.05892656 0.13431615 0.17676772 -0.030530632 -0.098601714
-0.027351623 -0.0061238073 -0.057163548 -0.19111547 -0.108257614 0.08020041 0.13349679 0.15994658
0.057375874 0.06767732 -0.080826834 0.037927654 -0.06694907 -0.15002443 0.18489651 0.15935226
-0.020492265 -0.22185048 -0.44789708 -0.03372519 -0.0035377638 0.13828191 0.009375429 0.12553158
0.20827268 0.1016684 -0.07412594 -0.06690614 -0.056057777 0.065452754 0.17850876 0.04651817
0.1639153 0.20202146 0.04601116 -0.10530614 -0.2060047 -0.0765091 -0.08848583 -0.019673368
-0.07861402 0.091664135 -0.013339407 -0.059670668 0.029896198 0.074080914 0.22796384 0.057671387
0.104196645 -0.041689478 0.11660414 0.16841038 0.010860708 -0.11619276 -0.22932559 0.0041272524
-0.042308673 0.02447868 -0.104647614 -0.17179662 0.0009606238 0.0027969142 0.011414332 -0.06666394
0.059244793 0.016919306 -0.005277329 -0.01688625 -0.220225 0.004500844 0.1578327 0.03660707
-0.22121333 0.10771018 0.061512087 0.12402767 0.1558613 0.12824751 -0.17811452 0.023813723
0.10960204 -0.04256167 0.010384161 0.046158187 0.21286233 -0.12974666 -0.24798247 0.50877064
-0.16509964 -0.4059137 0.014920415 0.18934831 0.05722447 0.17385994 -0.078504585 -0.2708204
0.15803735 -0.0011925928 -0.06986986 -0.06551286 0.093483925 0.10954877 0.27375534 0.1421108
-0.06336771 0.09424475 0.0154795 -0.26133958 -0.27816737 0.15422419 -0.20187242 0.28518805
0.117112555 -0.18102275 -0.1193305 0.10560144 0.02394923 -0.17832437 -0.032374777 -0.05472509
-0.24860168 -0.19200547 0.071624994 -0.03371513 -0.090152144 0.19676903 0.21217044 0.1678169
-0.1819364 -0.17652959 0.042591874 0.041031923 -0.50121546 -0.19941995 -0.09743788 -0.005560976
0.005105402 0.07555118 0.05749732 -0.11495577 -0.051456004 0.07928596 -0.22563823 -0.14505081
0.06662939 0.04554056 0.009096096 0.11416978 0.25064826 -0.05649807 0.014815881 -0.10109853
-0.074759506 -0.15506077 -0.0007117325 0.09804839 0.08963879 -0.11933093 0.0003312437 -0.22057122
0.15212347 0.074475616 -0.11926416 -0.1846354 0.011365341 -0.24885496 0.0034646268 0.08161206

conv_blocks.3.bias f4 [32]
00000000: 624e 9ebe 8d5f 2abd 1c77 973c 1f18 89bd
00000010: e34b d1bd 7816 b6bd 1771 0bbe 0c24 07be
00000020: b9cd 30bd adf8 6dbe 7f68 a5bd 4a84 383d
00000030: e7b1 a8bd 8f12 d83c 6252 86bd 12f6 cabc
00000040: b2b4 9cbd 3938 c3bd cf7d 9dbd f1a8 193e
00000050: 0bb1 6dbd 9b86 1dbe 92a3 26be 59dc b4bd
00000060: a454 1d3d faba 953c 56bd c1bd ddf6 26be
00000070: cbe0 e6bd 2e2e 5ebd 4779 b0bd c4a3 01be
-0.30919176 -0.04159503 0.018489413 -0.06694054 -0.10219552 -0.08891004 -0.13617359 -0.13197345
-0.043164942 -0.23239394 -0.08076572 0.045048036 -0.08237057 0.026376037 -0.06558682 -0.024775539
-0.076516524 -0.09532208 -0.07690012 0.15005852 -0.05803017 -0.15383379 -0.16273335 -0.088310905
0.038410798 0.018277634 -0.09459941 -0.16305108 -0.112733446 -0.05424326 -0.08616882 -0.12660128

conv_blocks.6.weight f4 [32]
00000000: e752 f93f ea82 d63f 7b66 b23f f9d8 d13f
00000010: 2887 c53f a2c7 c53f 79eb c53f 4b5b af3f
00000020: a9c5 c63f 78ef 1540 cc1e d93f c636 c73f
00000030: a5b4 c63f f4b4 ac3f b54e bc3f a3dd c43f
00000040: b4c3 ba3f d7d0 0240 9209 cc3f 46e6 af3f
00000050: e4be c93f 7df7 d93f e582 c73f ae14 cb3f
00000060: dad6 c23f 1a5f c63f 9ccb d63f 9ec3 ca3f
00000070: f0cc 2d40 9ea8 b33f f873 bf3f 42b7 d13f
1.9478425 1.6758702 1.3937525 1.639434 1.5431871 1.5451548 1.5462486 1.3699735
1.5529071 2.342741 1.6962523 1.556359 1.5523878 1.3492723 1.471152 1.5380138
1.4590974 2.0439966 1.5940421 1.3742149 1.576138 1.7028652 1.5586821 1.5865686
1.5221817 1.5497773 1.6780887 1.5840948 2.7156334 1.4035833 1.4957266 1.6384051

conv_blocks.6.bias f4 [32]
00000000: 04d0 30bb 570c e73c 7607 e53c 25b3 ef3c
00000010: 77e2 8ebc 7006 a43c 797e 6b3d d3e4 cf3d
00000020: ebe1 203d 81ec 953d c674 383c 89b8 1a3d
00000030: 6eb8 56bc 1181 263e e24e 2c3e 2668 e43d
00000040: 2f04 473e dc5d 7c3e 0d20 c73d 89ac 293d
00000050: fd24 91bd 13b6 893d 3060 353c 9737 be3a
00000060: 3e6d 043e a10f 22bd 951a a53d 5c8c ad3d
00000070: bf56 4d3e fad7 c03d abcf f73d 7742 d13c
-0.0026979456 0.028204126 0.02795766 0.029260227 -0.017441971 0.0200226 0.05749366 0.10151067
0.039277952 0.073205 0.01125831 0.037773643 -0.013105495 0.16260172 0.16826966 0.11152677
0.1943519 0.2464518 0.0972291 0.041424308 -0.07087133 0.06724181 0.011070296 0.0014512417
0.12932298 -0.039565686 0.08061711 0.08474037 0.20052622 0.09416194 0.121001564 0.025544388

conv_blocks.6.running_mean f4 [32]
00000000: f3a6 cdbb d5c1 eb3c ee11 c03d f34b b1bc
00000010: 45a3 0a3c 2d72 36bc d048 48b7 bc4e 3c3c
00000020: e9c2 8e3c 488e b5bc acc2 ae3b 027b 873d
00000030: 5047 013d 3378 703d 0033 493d 1dda 973d
00000040: 6b87 14bb f503 3c3e 1469 2d3d 1bed 453e
00000050: 9c51 0b3d a7eb a83c 471e eabb 420b 213d
00000060: 7009 9b3d 59cb 593d e37a 7f3c c158 ae3c
00000070: aa3d a53c d0f0 3c3d 5ceb 893c 6861 7dbc
-0.0062760054 0.02877895 0.0937842 -0.02164266 0.008461778 -0.01113562 -1.1937882e-05 0.011493381
0.017426925 -0.022162572 0.0053332653 0.06615259 0.03156215 0.05870838 0.049120903 0.07414649
-0.0022663723 0.18360884 0.04233654 0.1932873 0.034013376 0.02062018 -0.0071447226 0.039317377
0.075701594 0.053172443 0.015593263 0.021282556 0.020171005 0.046128094 0.01683586 -0.015465118

conv_blocks.6.running_var f4 [32]
00000000: 7763 a03c 0bdc 6c3d 4c2f b93d 90c1 0a3d
00000010: c871 8e3d 9153 f53c deec 493d a528 b83d
00000020: 0587 273d 5daa af3d 662a 703d 3a79 a03d
00000030: 06e3 4c3d b2b2 8a3d e072 ae3d 04b5 bb3d
00000040: 8953 cd3d ecb8 c23e 0087 873d 8988 b83d
00000050: ffeb 9f3d 00c8 283d 9194 aa3d 4685 753d
00000060: 7401 863d 60b2 923d 1dc2 273d fa0b 813d
00000070: 7a1c 773d 6caa 9e3d 67f8 4e3d cba0 b33c
0.019578679 0.057827037 0.09042224 0.033876 0.06955296 0.029947074 0.04929816 0.08992127
0.04090025 0.08577416 0.058634184 0.07835622 0.050021194 0.06772365 0.085180044 0.09165385
0.10025699 0.3803171 0.06617546 0.09010417 0.078086846 0.04120636 0.08329118 0.059941553
0.06543246 0.071629286 0.040956605 0.063011125 0.06032989 0.07747349 0.050529864 0.021927258

conv_blocks.7.weight f4 [64, 32, 3, 3]
00000000: c54b b3bd ba66 183e 1ba1 b1be 5744 c13d
00000010: ec28 1f3d 8d6c 9bbe a9cc 793e 87be 443d
00000020: 8d18 00be 9c55 813c 2c78 0cbe e65c 473d
00000030: f76f 9ebd e94f c5be 0d72 83bd a0b2 6bbe
00000040: 374e adbd 6241 0e3d fde7 66bd 4c47 f43d
00000050: 6afc 50be c1a8 c1ba 230d 853e 6285 98bd
00000060: 11b6 3dbd e02c 26be 3d0e 4e3d 2957 e23c
00000070: 8a9c 153c 7e33 873e 0647 59bc c73b 1c3e
00000080: c80c 3b3e 1778 483e 901d 1a3e 71f0 bb3d
00000090: 0b4b 15bc d9ef 09bd d0f8 4abe 72d0 b43d
000000a0: 34f3 a9be 3e89 853d 416f dc3d f5bf 8e3c
000000b0: efd8 e8bc 45e2 6bbe 44b7 2e3e df74 d0bd
000000c0: 8a1a 843d f4c5 21bc bb59 9f3d cc54 62bd
000000d0: 9add 31bd 488e 27bc cd36 8e3d 5b48 f03d
000000e0: 6ab8 893d 0700 093e 92ee 343e 5296 ce3d
000000f0: 3af6 273e 0172 403e 495c a73d 4eaa 253d
00000100: 872a 2cbe 4c62 d3bd 2881 31bb fe96 0d3b
00000110: 1add babc 8688 f1bd ade1 a9bc 1e32 b4bd
00000120: 898a 7c3d c5e9 19be 81b3 e9bd 1a9d 383b
00000130: 965a 96be a636 7cbc 5a79 54bd 2ab5 a73d
00000140: ea49 9f3d 386b 7c3d c398 e1bd cc8a 60bc
00000150: e454 b73c 9ce0 fabb 1dae 5f3a 2f15 cf3d
00000160: b561 59be aa40 28be 0c9f 7c3e 6a23 5bbe
00000170: bcd9 27be c37b 01be 8e20 a3be 9387 98bd
00000180: 8505 f8bc c498 a7bd 58a5 6ebd fa9e 073e
00000190: 819b 053d b083 043e 2f4c 893d 94a6 28bd
000001a0: 3fdc 583d 64b8 edbd 10b3 283b b987 a8bd
000001b0: 58ef 74bd a866 39bd 9c14 f13d 6bc2 89bd
000001c0: ee75 48be 43cf f8bb f9fb 623a 2940 c1bd
000001d0: 62f6 d9bd f3fe 8b3d f0cf a23d cb96 dfbd
000001e0: ced2 313d 612a 3dbe f0d2 96be 6b13 583c
000001f0: d227 a7be 3002 0ebe 25a1 10bd 043c 073e
00000200: 0084 1abd 608f c73d eee1 b33d eaf8 113e
00000210: adbb 62bc 4525 413e bc61 803d eff5 0c3d
00000220: bc49 2d3e 2341 1abe 32a3 ec3d aef6 75be
00000230: 5401 553d 2db6 cbbd c70b 49be 2a2e 843d
00000240: c25b d93c 07dc 69be 5a10 2e3d c9b6 32be
00000250: baf9 ca39 89f3 babd f538 4cbd f959 03be
00000260: 4b5f f4bd 1a82 8f3d 2704 debb 0ed7 5fbd
00000270: 20b6 4e3d ba95 64bd 3c5a 7cbd 9963 643e
00000280: 8636 c0be eb71 92be 5e03 103e ef1c 15be
00000290: 9e5a b0be 3340 12be 2176 dbbe f54c 88be
000002a0: 6eaf e8bc 4e60 04bd 7efd 13ba b15c d53b
000002b0: 79af 50bb 28b9 20bd 07a5 fd3d de31 18be
000002c0: 30b5 853c 6cf1 c5bd 1f98 5c3d 6cb7 9c3d
000002d0: dd71 32be 669c 133e 7e9f 88bd 770b 1e3e
000002e0: f257 f73d a749 f23d 816d 3dbd e638 9d3d
000002f0: 073c a63d 6723 ac3d 4663 0b3e 5147 6e3e
00000300: ad9c a9bd a44c e2bb 057f 813e 6d67 f63d
00000310: d42a c13d cdd4 023b de09 4fbc 4751 c93c
00000320: d8f7 d03d 3600 3f3d 8eae 60be 4c90 673c
00000330: 6d4c 96bd bb4f 83be 82dc 863d a962 0b3e
00000340: c082 94bd d5de b8bd 3907 8a3d 1b2b 9ebe
00000350: 3f59 923d 46be 09bc 1d42 f33d 20ca 6c3d
00000360: a675 073d 039b 6f3e fc43 aebe 2451 333e
00000370: a790 53be b1af 19be 27ad bfbd 2960 c0bd
00000380: 7a5b eebc 6ba5 893c d378 233e e231 f0bd
00000390: daaa 59bd 38f3 413e 2fb5 333d 873c 9e3d
000003a0: 214b bc3d 09f2 043e 27f4 babd 768f 0e3d
000003b0: e92d 783d 8852 823d 0c6b 153e 3bbe 773d
000003c0: 9d02 96bd db8c 9bbd 92d3 c1bd ff65 acbd
000003d0: e7a5 9cbe f8d3 103d 4f15 daba ad59 8b3e
000003e0: af24 c23d d4a4 58bd 510c bb3c 68e6 08bd
000003f0: dd8b 673e e915 053e 93c5 2fbe 1dab 0d3d
-0.08754686 0.14882937 -0.34693226 0.09436863 0.038857386 -0.30356255 0.24394478 0.048033264
-0.12509365 0.015787892 -0.13717717 0.04867258 -0.07736199 -0.3853753 -0.06418238 -0.23017359
-0.08462184 0.034730323 -0.056373585 0.11927661 -0.20408788 -0.0014775024 0.25986585 -0.07447316
-0.04631621 -0.16228056 0.050306547 0.027629452 0.00913156 0.26406473 -0.013261562 0.15257178
0.18266594 0.1957706 0.1505034 0.0917672 -0.00911213 -0.033676002 -0.19821477 0.0882882
-0.33193362 0.065203175 0.107634075 0.017425517 -0.028423754 -0.23035534 0.17062098 -0.101785414
0.064503744 -0.009873856 0.077807866 -0.05525665 -0.043424226 -0.010226794 0.06944046 0.11732551
0.06724627 0.13378917 0.17669132 0.10087265 0.16402522 0.18793489 0.08171899 0.04044562
-0.16813098 -0.10321483 -0.002708504 0.002160489 -0.022810508 -0.11793618 -0.020737493 -0.087986216
0.061655555 -0.15030582 -0.11411191 0.0028169812 -0.29365987 -0.015393889 -0.051873542 0.08188851
0.0777777 0.06162569 -0.11015465 -0.013704967 0.022379346 -0.00765617 0.000853272 0.10111462
-0.21228679 -0.16430917 0.24670047 -0.21400228 -0.16391653 -0.12644868 -0.31860775 -0.07447734
-0.03027607 -0.081834346 -0.058263153 0.13244238 0.032619003 0.1294086 0.06703984 -0.041174486
0.052944418 -0.11607435 0.0025741495 -0.08229012 -0.05979857 -0.045263916 0.11771509 -0.067265354
-0.19576237 -0.007593067 0.00086587627 -0.09436066 -0.10642697 0.06835737 0.07949817 -0.10917433
0.04341393 -0.18473198 -0.29457808 0.013188223 -0.32647568 -0.13868022 -0.03530993 0.13206488
-0.03772354 0.097441435 0.08783327 0.1425511 -0.013838691 0.18861873 0.06268641 0.034414228
0.16922659 -0.1506391 0.115545645 -0.24019882 0.05200322 -0.09946857 -0.19633399 0.064541176
0.026533011 -0.2283784 0.042496063 -0.1745254 0.00038714503 -0.09128482 -0.049859006 -0.1282729
-0.11932238 0.07007237 -0.0067753973 -0.05464845 0.050466657 -0.055806853 -0.06160949 0.22303618
-0.37541598 -0.28602538 0.14063784 -0.14561819 -0.34444135 -0.14282303 -0.42863563 -0.26621214
-0.028403964 -0.032318406 -0.0005645378 0.006511294 -0.003184287 -0.03923908 0.12384992 -0.14862773
0.016321748 -0.09665188 0.05385601 0.076521724 -0.17426248 0.1441513 -0.06671046 0.15434061
0.12077321 0.11830454 -0.04624701 0.07676868 0.08116918 0.0840519 0.13612089 0.23269393
-0.08281837 -0.006906109 0.2529222 0.12031446 0.09431997 0.0019963265 -0.01263663 0.024574889
0.102035224 0.04663106 -0.21941587 0.014133524 -0.07338796 -0.25646767 0.06585027 0.13611855
-0.07251501 -0.09026877 0.06739659 -0.30892262 0.071459286 -0.008407181 0.118778445 0.05780995
0.033071183 0.23398976 -0.34036243 0.17511421 -0.20660649 -0.15008427 -0.09359198 -0.09393341
-0.029096354 0.01680251 0.1596406 -0.117282644 -0.053141452 0.18940437 0.043873962 0.077263884
0.09194017 0.12982954 -0.091285996 0.034804784 0.06059066 0.06363398 0.14591616 0.060484152
-0.07324717 -0.075952254 -0.09464182 -0.08417892 -0.30595323 0.0353584 -0.001663843 0.27216855
0.09479653 -0.052891567 0.022833021 -0.033422858 0.22611947 0.1299664 -0.17165212 0.034587014

conv_blocks.7.bias f4 [64]
00000000: d23c 35be 4b6d 3fbe 8274 6abd 068b 8abe
00000010: 9eb5 e2be 1fec 74be d15f 87bd 7046 2cbe
00000020: f6d1 2abe 5af7 35be 4d8a a3bd 458f 62be
00000030: 2ec2 05be 690a 21be 0274 083c f6f5 463d
00000040: 2135 95be 556c c0bc de46 74be 964d 01be
00000050: 3b17 49be 6e33 abbd 9c60 dabd 1194 f7bd
00000060: e9a0 81be fad6 3bbd f015 acbd 4317 0ebe
00000070: ef0d 5dbd a59b 93be 88e0 78bd 9887 5bbe
00000080: d3b9 89be 8724 a4bd 3b38 dfbd a181 6bbe
00000090: 16c0 5abe 73a7 32be a9c5 c6bd 1d04 02be
000000a0: c049 ebbd 97dc b2bd 216d 87be 7654 0fbe
000000b0: d896 c0be 4085 11be a959 17be ca38 3dbe
000000c0: d012 44bd 8d6b f8bd 88f4 57be 8b5c 6ebe
000000d0: b519 c3be 8a63 78bd 7e71 bdbd 53f6 84bd
000000e0: 4ec6 06be 976a cdbd 1272 78be d7ba b2bd
000000f0: fb2a ebbd ad6f 6c3c 2870 07be ff7f 9ebd
-0.17698982 -0.18694036 -0.057240017 -0.2705919 -0.44279188 -0.23918198 -0.066100724 -0.16823745
-0.16681656 -0.17770138 -0.07985363 -0.22124965 -0.13062355 -0.15726627 0.00832844 0.04857441
-0.29142097 -0.023489157 -0.23855159 -0.12627253 -0.19637768 -0.08359419 -0.10662958 -0.12088788
-0.25318077 -0.045859315 -0.08402622 -0.13876061 -0.053968366 -0.28829685 -0.060761005 -0.21438444
-0.26899585 -0.080147795 -0.10899397 -0.22998668 -0.21362337 -0.1744669 -0.097056694 -0.12696882
-0.11488676 -0.087334804 -0.26450446 -0.13997063 -0.37615085 -0.14210987 -0.14780296 -0.18478695
-0.047869503 -0.12129889 -0.21089375 -0.2327749 -0.3810555 -0.060641803 -0.092501625 -0.06492295
-0.13161585 -0.10030096 -0.24262264 -0.08727043 -0.11482807 0.014430922 -0.13226378 -0.07739257

conv_blocks.10.weight f4 [64]
00000000: 97ec f33f 5681 e83f 5092 c13f 544f da3f
00000010: 98ee cb3f 6d77 d93f 59dc ce3f f6e6 ef3f
00000020: 1226 de3f 5995 ec3f fb96 ea3f 559c de3f
00000030: 391f e33f 8abe dd3f 32b1 ed3f 8027 d03f
00000040: 26be e33f b231 c23f 30b1 ef3f 4246 c93f
00000050: b326 e13f b025 cb3f 6104 e23f c0f9 ea3f
00000060: 5bf2 e73f 15a1 ca3f a6f5 e53f d070 b33f
00000070: 5829 da3f c04d e03f 434c e73f 03cc ca3f
00000080: 465a c73f ec37 c13f a465 fe3f 1303 e73f
00000090: 4acb e33f f781 c23f 284e d73f 733b d53f
000000a0: 7fa0 d73f 7358 0640 5bb0 f33f 2cd9 f23f
000000b0: ee35 e73f d524 c93f 411a d13f 67ae d13f
000000c0: cc56 e53f 0f69 de3f bf06 cd3f f11c ce3f
000000d0: a51b ef3f c5dd f53f 9855 c73f c3a8 c73f
000000e0: 4ea3 d83f 3ca0 e13f b36b cd3f c8da e53f
000000f0: 1aef e63f df45 b63f a5ec f43f 7743 d83f
1.9056576 1.816447 1.5122776 1.7055459 1.5932188 1.6989571 1.6160995 1.8742359
1.7355368 1.8483077 1.8327326 1.7391459 1.7743903 1.7323773 1.8569701 1.6262054
1.7792404 1.5171416 1.8725948 1.5724566 1.7589935 1.5870876 1.7657586 1.8357468
1.8120836 1.5830408 1.7965591 1.4018803 1.7043867 1.7523727 1.8070148 1.584351
1.5574424 1.5095191 1.9874768 1.8047813 1.7796414 1.5195912 1.6820726 1.6658767
1.6845855 2.0991485 1.9038194 1.8972526 1.8063333 1.5714365 1.6336137 1.6381348
1.7917113 1.7375811 1.6017684 1.6102582 1.8680311 1.9208304 1.5572996 1.5598377
1.6924837 1.7627025 1.6048492 1.7957392 1.8041718 1.4240073 1.9134718 1.6895589

conv_blocks.10.bias f4 [64]
00000000: d5dc 84be 8257 3b3d d8c3 56be 764e ddbd
00000010: 5c82 893e e03c 6a3e 60f2 8cbd f67b 933e
00000020: c08f 9c3e 2dc5 e63e ffce 6c3e 31ab 9b3e
00000030: 14a8 0fbe ae17 13be 14d7 5d3d d8a0 5c3e
00000040: 95d7 61be 9019 523e f7e7 b3be 333c 68be
00000050: 2a43 793e b411 4bbe 1d5c 04be b979 31bd
00000060: e4bf adbc a8b5 8cbe 5399 2bbe 1ace ad3e
00000070: 33fd 31be b629 663e ecf1 b93e 8f97 703e
00000080: 0451 673e 4cdb 853e 1bf5 0e3e bf67 433d
00000090: 71fc 873e 358c 683e 55e7 be3e 4af5 983e
000000a0: 33da debd ec71 8dbd d8ad a1be ff73 0a3e
000000b0: af0b 913e 1c5c f7bd c70c 203e f9de 3c3e
000000c0: ecb1 763e 6b85 23be 95e0 07be 0479 5e3e
000000d0: 8b7a 6c3e 3b80 28be ed22 debe aaa0 833e
000000e0: 76fd 763e 98fc 363e 8cae 8abe ac18 2d3e
000000f0: 1497 b03e fe57 7e3e 1d89 e43e fb63 6c3e
-0.2594973 0.04573775 -0.20973146 -0.10805981 0.2685727 0.22874784 -0.06882167 0.28805512
0.30578423 0.45072308 0.23125838 0.30404046 -0.1402896 -0.14364502 0.054160193 0.21545732
-0.22054894 0.20517564 -0.35137913 -0.22679214 0.24342027 -0.19830972 -0.12925763 -0.043328974
-0.021209665 -0.27482343 -0.16757707 0.33946306 -0.17381744 0.22476849 0.36317384 0.23495315
0.22589499 0.26143873 0.13960688 0.04770636 0.26559785 0.22709735 0.37285867 0.2987464
-0.10881462 -0.069064945 -0.31577945 0.13520811 0.28329226 -0.12078115 0.15629874 0.18444432
0.2409131 -0.15968864 -0.13269265 0.21725851 0.23093621 -0.16455166 -0.4338602 0.25708514
0.24120125 0.17869794 -0.27086294 0.16903943 0.34490263 0.24838254 0.4463586 0.23085015

conv_blocks.10.running_mean f4 [64]
00000000: 0def 0e3d 73ed bc3b 1b02 693c 5a7f a53d
00000010: 2020 253e f0d4 393e b5ea ab3d 0ed3 113e
00000020: 8e23 6d3e 027c 933e 8e78 a63d d747 363e
00000030: 920c 933d aa26 c83c 24b7 843e 442d 663e
00000040: 4398 d03d 880c 3c3d 12c1 783e 81b9 333c
00000050: 2416 c63d 3471 243e 2987 623d ff3b 763c
00000060: 8eba 2ebb 1394 4d3d a84f 363d 2fb5 363e
00000070: fe8f 863d d5c3 af3d ba33 c93d 5857 973d
00000080: 030e 733c c52e 293e 4e7c 673d 19a1 af3e
00000090: 175d 3a3c 8de7 593e ff41 d53d 3003 4d3e
000000a0: 6d69 e43d 3fc9 2e3e 0aee 903d c57c 10bd
000000b0: c4dc 2f3e 419b 063e 928f 483e 2403 923e
000000c0: 48cd ec3d 76d0 963d 0249 613d 8edc b53c
000000d0: 3c6d 853e 007c 3c3d a6d2 e9bc 3bde 9d3d
000000e0: ec9a 093d c93b a83d 7cff dd3d 942e 8c3d
000000f0: c7b0 003e 3435 273f 24db 6c3e 66ca 353d
0.034895945 0.005765611 0.014221693 0.08080931 0.16125536 0.18147635 0.08394376 0.14240667
0.23158094 0.28805548 0.08128463 0.17800842 0.07180132 0.024432499 0.25920975 0.22478205
0.101852916 0.04591039 0.242924 0.010969521 0.09672192 0.16058809 0.05530468 0.015028953
-0.0026661488 0.050190043 0.04450956 0.17842554 0.06570433 0.08582274 0.09824319 0.073897064
0.014834884 0.16521747 0.05651503 0.34302595 0.011374733 0.21279736 0.104129784 0.20020747
0.11152921 0.17068957 0.07076652 -0.03527524 0.17174059 0.13145162 0.19586018 0.2851802
0.11562592 0.073639795 0.055001266 0.022199895 0.26059902 0.046016693 -0.028542828 0.07708403
0.03359501 0.08214528 0.108397454 0.068448216 0.12567435 0.65315557 0.2313047 0.044382475

conv_blocks.10.running_var f4 [64]
00000000: 670e cb3e b998 a63e fefc 993e dc08 223f
00000010: d80a 523f 0f92 053f beac af3e 6db4 283f
00000020: 88d0 863f 4dc3 063f e0eb c83e e611 5b3f
00000030: 20c3 a73e 7fd8 923e 3cdb 083f 4426 103f
00000040: 7808 f73e f02d 753e 87bc 3f3f 2365 783e
00000050: a03a d93e adb6 e43e 7614 b63e b099 7f3e
00000060: ca12 393e df11 8f3e e2a7 c83e 175e 063f
00000070: 9524 8a3e 1c29 d13e b47c d23e acb6 be3e
00000080: 1d3f 613e 91b8 d93e 853c 0d3f abc0 8b3f
00000090: 06d9 853e 4246 343f 9650 be3e 71c6 443f
000000a0: 1cb1 d63e 44bf 273f 8225 f83e aba9 1f3e
000000b0: 9311 583f 2876 b83e e2c8 123f 49fa 1a3f
000000c0: aaab b93e 443b b63e 7d25 9b3e 288d 9a3e
000000d0: 9302 803f c0af 9b3e bead 273e 2811 c53e
000000e0: dcda 663e 16ff 033f 5d4b a93e 13e9 ab3e
000000f0: b5eb b13e 3f4d be3f 19d7 653f 825a bb3e
0.39659426 0.32538393 0.3007583 0.6329477 0.82047796 0.5217599 0.3431148 0.6590031
1.0532389 0.52641755 0.39242458 0.85574186 0.32766056 0.28680798 0.53459525 0.5630839
0.4824865 0.23943305 0.74897045 0.2425733 0.4242754 0.4467062 0.35562485 0.24960971
0.18073574 0.27943322 0.39190584 0.5248732 0.26981035 0.40851676 0.41110766 0.37248743
0.21996732 0.42523625 0.5517047 1.0918173 0.26142138 0.70419705 0.37170857 0.768653
0.41932 0.65526223 0.48466116 0.15592067 0.84401816 0.36027646 0.5733777 0.60538155
0.36263782 0.3559209 0.3030204 0.3018582 1.0000786 0.30407524 0.16374871 0.38489652
0.22544426 0.51561105 0.3306531 0.3357626 0.34750143 1.4867324 0.8978134 0.3659249

conv_blocks.11.weight f4 [128, 64, 3, 3]
00000000: c761 a63d a869 ad3c 07c1 c6bc cb02 99bc
00000010: d57e 11bb 3392 0b3d fb61 33be 6f4f 3cbb
00000020: 4f9b 7b3e 91e6 7bbe bee0 f1bc 43e3 003c
00000030: 1f10 52bd a9f2 f8bd 35d3 05be 4780 ee3c
00000040: 2149 c93c 6ac7 dc3d bf93 3b3d 07c7 ebbd
00000050: a729 9ebd 9509 3cbd 4895 253d 72aa 1d3c
00000060: a1c4 b6bd 4c72 2c3d 48ba 6dbe b806 50bd
00000070: f41b b3bc e7d4 1cbc 9a25 9abd bd11 f23d
00000080: ff2a 49be d681 a03b ac8c e3bd dc42 3dbd
00000090: fec1 063e 4df5 20be 8b62 39bd 9a23 823c
000000a0: c4e9 b23d 6c62 4a3e 1c26 cabd 2758 53bd
000000b0: 9334 7abe 5d90 c13d 8bb2 efbd 296f 48be
000000c0: cf13 ad3c 6c85 393d 9a70 873e 670e b13d
000000d0: 99eb 98b9 b406 1cbe 6032 61bd 51ea a63c
000000e0: 1070 503d c007 73bc c5ec 7fbb f6e9 173e
000000f0: e178 84bd b7ed 85bd bcbc 023e 7f9c 883d
00000100: 2407 803c abfb c5ba d5ab 043e 0b57 9fbe
00000110: 5b4f c2bd c67e b73d 0161 01bd f403 cebc
00000120: bcf9 cb3d 216f 21bc d91b a13a 9ba9 483d
00000130: 60df 49be 561c 9dbd 9f5f fdbd 606c f5ba
00000140: a3c0 0fbe 1bb5 d73c 122f efbd d6a1 cdba
00000150: 96c2 07bb d752 bebc 2741 923d 2609 ec3c
00000160: 6397 8dbd a0be 45be 4697 95bd 2838 ecbd
00000170: 545d 2abd 06e8 d5bd a08a 33bd 9c30 69bd
00000180: 2ac6 bbbd eec4 aebd 8ec3 093e 3e79 9f3c
00000190: 8707 883d 90ab 01be 3a32 b13d 95fb d8bd
000001a0: 7fac df3d d354 bd3c e6d9 2dbe 079a 5cbb
000001b0: 64dc 023e f4b0 85bd 3f55 10be 931d 8cbe
000001c0: 9fff 3c3c ddc0 febd d77b 9cbc 8f81 c1bd
000001d0: 0b8e 253d cf5d a13c 7163 06bd ff5f df3d
000001e0: efa1 553d e8e3 ab3d 1f09 0e3e 5308 a2bd
000001f0: a345 1fbe 8e0d 08bd 0173 88bd 2325 ed3b
00000200: bbd6 fcbc f5e8 ca3c 8527 95bd 34c8 eebd
00000210: 29b6 07bd 0523 303d b570 3ebd 8437 ba3d
00000220: 9501 f73b 9428 d6bc 070d e53d 74fa 543c
00000230: c475 0c3e 883c b43d 9479 ae3c be58 b0be
00000240: abb1 beba 6d28 96bc 1c26 103d a69d 2ebc
00000250: c786 b0bd ec55 103d 5c6a 523e 3d1e 9abd
00000260: fb36 26bd b292 da39 cdd7 723c 9c7d 5bbc
00000270: 7e46 59bc 4d1b 27be 9e4c 14be abdf 9e3b
00000280: 91b8 eb3d c635 c8bd ec11 ce3b 6364 aebd
00000290: 7fc6 cfbc beba a1bc 32d9 34bd 218f 2dbe
000002a0: b2a7 bb38 db59 d9bb cb8b 603d 5600 4b3d
000002b0: eb91 313c 1f2c 643d 5d7c 013e 4cdc 66bd
000002c0: 1bd7 6f3d b2c2 153d 955f 8e3c 7c6a 2ebc
000002d0: 42ee ad3d aefd a9bc ad02 0ebd 2ef1 d4ba
000002e0: 949e 493d baba 86be 85cc 19bd b736 afbd
000002f0: 50fd 31bf 7b17 4a3e e43e eabc cd0a 45bd
00000300: 0f0b acbd c063 00be fe8d 5c3d 3762 033c
00000310: b688 9cbd f513 33be 7f49 c9bd c059 fdbd
00000320: 05d0 893d c4e2 883b d14f f6bc 50a6 593e
00000330: 34ad a8bc 6304 0cbc 1ccf f0bd 7bc9 693c
00000340: edb7 9ebd 5be1 19bd 1077 163e 5aec 81bd
00000350: bb72 63bc aeb3 bcbd 5592 79be 1c43 30be
00000360: 5dd0 823d cea8 c63c 8c62 37be c3b3 dfbd
00000370: 7266 6d3e 0a98 b5bd e456 773c 6775 82bd
00000380: 369a a4bb b73a 103e 7c24 e03b 5be0 c2bd
00000390: d33c 31be 0f8d d93c c403 093d 9b94 573d
000003a0: 3cff debc cf9f 41be 9f20 833b 75e1 ceba
000003b0: 51ef 4b3c 44a2 5ebe bef4 cb3c e822 fc3d
000003c0: ed5f 133e 5e8c 01bb ff40 9cbc 9196 b53d
000003d0: 7b82 da3c 8892 11bd 31cd 873d 67fb d1bc
000003e0: 2474 3e3d 34ec 11be cdda 593d 1df7 b8be
000003f0: ea27 053e 7e3b 9d3d 7c08 3bbc 215d b3bd
0.08124118 0.021168545 -0.024261964 -0.01867809 -0.0022200842 0.034074973 -0.17517845 -0.002873387
0.24570964 -0.24599673 -0.02952611 0.007866683 -0.051284906 -0.12155659 -0.1306885 0.029113902
0.024571003 0.10780223 0.0457952 -0.11512571 -0.07722788 -0.045907576 0.04042557 0.009623157
-0.08924223 0.04210119 -0.23215592 -0.050787657 -0.021863915 -0.009572244 -0.07526703 0.118197896
-0.19645308 0.00489829 -0.111108154 -0.04620634 0.1315994 -0.15718575 -0.045259994 0.015886117
0.087359935 0.19764107 -0.0987055 -0.05159774 -0.24434118 0.09451363 -0.11703976 -0.19573654
0.02112761 0.045293257 0.26453096 0.08645325 -0.00029167233 -0.15236932 -0.054979682 0.020375403
0.05088812 -0.014833391 -0.0039051038 0.14835343 -0.06468368 -0.06539481 0.12767309 0.06670474
0.015628405 -0.001510491 0.12956174 -0.31121096 -0.09487792 0.08959727 -0.03158665 -0.02514837
0.099597424 -0.009853155 0.0012291624 0.048989873 -0.19714117 -0.0767142 -0.12371754 -0.0018724315
-0.14038329 0.026331475 -0.116789 -0.001568849 -0.0020715347 -0.02323286 0.07141333 0.028812956
-0.0691364 -0.19310999 -0.07304244 -0.115341485 -0.04159291 -0.104446456 -0.043833375 -0.056931123
-0.09168656 -0.08533655 0.13453504 0.019466992 0.06642061 -0.12663102 0.08652158 -0.105948605
0.10921573 0.023111736 -0.16977653 -0.0033661143 0.12779385 -0.06527892 -0.14095019 -0.27366313
0.011535554 -0.124391295 -0.01910202 -0.094485395 0.040418666 0.019698052 -0.03280968 0.10906982
0.052156385 0.08393079 0.13870667 -0.07911744 -0.15553908 -0.03321605 -0.0666256 0.007237093
-0.03086411 0.024769286 -0.072829284 -0.116592795 -0.033132706 0.043002147 -0.046494205 0.0909262
0.0075380304 -0.026142396 0.111841254 0.012999166 0.13716799 0.08800608 0.021298207 -0.34442705
-0.0014548799 -0.018329823 0.035192594 -0.0106577035 -0.08619457 0.03523819 0.20548385 -0.07525299
-0.040579777 0.00041689497 0.014821959 -0.013396647 -0.013261436 -0.16319008 -0.14482352 0.0048484406
0.115098126 -0.097758815 0.0062887575 -0.08515241 -0.025363205 -0.019742366 -0.044152446 -0.1694913
8.9480905e-05 -0.006633026 0.054820817 0.049560867 0.010838012 0.05570614 0.12645097 -0.056362435
0.05855475 0.03656263 0.017379561 -0.010645505 0.0849271 -0.020750847 -0.03467052 -0.0016246194
0.049223498 -0.26314336 -0.03754856 -0.08555358 -0.6952715 0.1973552 -0.028594442 -0.048106004
-0.08400547 -0.12538052 0.05384635 0.008019022 -0.07643263 -0.17488082 -0.098284714 -0.12370634
0.0672913 0.004177423 -0.030067356 0.2125485 -0.020590402 -0.008545968 -0.11758253 0.014269228
-0.07749925 -0.03756843 0.14693856 -0.063439086 -0.013882334 -0.09213959 -0.24372227 -0.172131
0.063873984 0.024250414 -0.17908686 -0.10922959 0.23183611 -0.0886689 0.0150964 -0.06370049
-0.005023266 0.14084898 0.006840287 -0.09515449 -0.17308359 0.02655652 0.033450857 0.052631956
-0.027221315 -0.18908618 0.0040016915 -0.0015783744 0.012447194 -0.21741587 0.024896976 0.12311345
0.14392062 -0.0019767503 -0.019073961 0.08866609 0.026673546 -0.035540134 0.06630934 -0.025632573
0.04649748 -0.1425026 0.05318718 -0.36126032 0.13003507 0.07677363 -0.011415597 -0.08757997

conv_blocks.11.bias f4 [128]
00000000: 7761 b4bd ab1c 393d d573 59be 9f25 b5be
00000010: 12b4 a3be f6d6 c2bd d057 bebe 7c95 3ebe
00000020: c77e c8be 2d0d 9fbc 1190 17be aba3 c0bd
00000030: 02eb 37be edcf 7abe ee9c 3e3d d824 71be
00000040: bc8b 81be 5c77 eabd b4ef d7be 229e 30be
00000050: e2ce 9ebe a4e3 9fbb 40ab bfbd 4553 a2be
00000060: 0811 35be 9960 57be 1deb 1cbe 4eb6 89be
00000070: 3f14 86be c62c 50bd ffeb 33be 3e22 bfbe
00000080: 3649 98be 87bf 283e 26da 713d f344 80be
00000090: fcb1 c6be 6ff5 923c 63b8 ccbe a1c8 1fbd
000000a0: cefc 9abe 7de7 3ebe 5564 b8ba 1c94 0ebe
000000b0: 0fb2 93bc 0c3c 1bbe 56e3 5fbd 3fe4 babd
000000c0: d4dd 9ebe bfe4 5abe deda a33d 3e6f 9fbc
000000d0: 5a01 a5be b586 36bd fc74 bdbd 9757 30bd
000000e0: f495 a6be 0ddd 79be e40f 78be 3b8c 4bbe
000000f0: 49df 833d 3d6e 28be 3f9c 7cbd 0524 043e
00000100: 3bee bbbc 0197 b739 b200 81be 3765 39be
00000110: ccab 8fbd 334a 9dbe 0dbd 8fbe 90df 9dbe
00000120: 9911 cabe 03d6 f9be 94bb aebe f8ac 343e
00000130: e31a 24bd f3b7 b0be d2bc 03be 6d9e 54be
00000140: e644 143e a0bd e2bc 72a1 82bd be64 d2bd
00000150: c711 09be 7e4b adbd 0831 3fbe a98d d8be
00000160: 5c71 edbd af41 2abe 1412 20be ca6c 83be
00000170: e7cc a9be 30d2 65bc 0fbc dcbe d11f 42be
00000180: 277a 26bd 051a 89be 877f 093c adf8 8a3c
00000190: e9fa 94bc 8eda 80be 4686 41be 3ed9 e9bd
000001a0: 6e36 67bd a9b4 abbe e3b6 7bbe b3d5 89be
000001b0: 8480 8fbe d0d7 b8be afc9 1dbe 184e 713a
000001c0: ffff ccbd acf2 8ebe c4fd 29be 1784 95bd
000001d0: d7f9 4bbd a83a 61be 3a5e 9fbe a419 ebbe
000001e0: 3128 f83d f6c8 c13c d845 243d d555 25be
000001f0: 4281 d2bd c42d 06be 9bcf bebe ea8b e7bd
-0.088076524 0.045193356 -0.21235593 -0.35380265 -0.3197332 -0.09513657 -0.3717637 -0.18611711
-0.39159223 -0.019415462 -0.1480105 -0.09406217 -0.17960742 -0.2449338 0.04653638 -0.23549211
-0.2530192 -0.11448547 -0.42175066 -0.17247823 -0.31017214 -0.004879432 -0.09358835 -0.31704155
-0.17682278 -0.21032943 -0.15324064 -0.268969 -0.26187322 -0.05082395 -0.17570494 -0.37330812
-0.29743356 0.16479312 0.059045933 -0.25052604 -0.38807666 0.017939297 -0.39984426 -0.039009694
-0.30271 -0.18642993 -0.0014067987 -0.13923687 -0.01802924 -0.15159625 -0.054660164 -0.09125566
-0.31028616 -0.21376322 0.0800073 -0.019462224 -0.32227594 -0.04456206 -0.092508286 -0.043052282
-0.3253628 -0.2440073 -0.24224812 -0.19877712 0.06439073 -0.16448303 -0.061672445 0.12904365
-0.022940746 0.00035016987 -0.25195843 -0.18105017 -0.070151895 -0.30720672 -0.28073922 -0.30834627
-0.3946655 -0.4879609 -0.34127486 0.17644107 -0.040064704 -0.34515342 -0.12864998 -0.2076356
0.14479408 -0.02767831 -0.063784495 -0.10273121 -0.13385688 -0.084616646 -0.18671048 -0.42295578
-0.11593887 -0.16626619 -0.15631896 -0.25668937 -0.3316414 -0.014027163 -0.43112227 -0.1895745
-0.040643837 -0.26777664 0.008392221 0.016964281 -0.01818605 -0.25166744 -0.18898878 -0.11418389
-0.056448393 -0.3353627 -0.24581484 -0.26920852 -0.28027737 -0.36102152 -0.15408967 0.0009205057
-0.10009765 -0.2791952 -0.1660071 -0.07300585 -0.049798813 -0.21995032 -0.31126577 -0.45918
0.12117041 0.023655396 0.04010567 -0.16146024 -0.1027856 -0.13103396 -0.37267765 -0.11305983

conv_blocks.14.weight f4 [128]
00000000: 095b 0e40 1028 ce3f 282e fb3f 401f f03f
00000010: 7726 f13f 1d72 e53f fae4 de3f c6e0 c93f
00000020: e0cd e93f 5b30 b93f f867 c63f 30ba bd3f
00000030: f274 ed3f 20d7 0040 c599 e63f d306 d13f
00000040: f9d6 0340 bf29 f73f 8bfc f83f bc98 bf3f
00000050: dbe5 ee3f 46d3 e03f 0f27 e83f fc30 f33f
00000060: dd31 ca3f 886d f43f 0122 e33f b095 0440
00000070: 1fb3 f43f f10d f93f 7f13 de3f 4cbc e23f
00000080: 66e8 0640 f451 dc3f bcab d93f 4e9e e93f
00000090: f497 d93f c173 fe3f f872 e53f 5046 0740
000000a0: d7f5 f43f 1aa6 d43f 4503 ed3f e772 d43f
000000b0: 74b1 f13f 042f ea3f 6d33 cc3f 4dcb c53f
000000c0: b637 fe3f 38f6 0c40 54ae e83f 74f6 ea3f
000000d0: b6bf f33f 843c cd3f 72b7 fd3f 4b55 dc3f
000000e0: 6f19 f93f a13e eb3f 1327 e93f b63e d23f
000000f0: bf0a c63f f756 0840 ea9b 0640 934b 0240
00000100: f192 e33f 74b4 e13f b6f2 e73f d72b e23f
00000110: bd8a e13f 7060 f33f 0e8b e23f 9c04 c83f
00000120: 9c40 e43f 2e63 e33f c60d f63f 4f95 923f
00000130: 7069 df3f 3bed f33f 1519 e03f e319 f83f
00000140: 7262 d93f f727 c73f 2a61 d63f 8bee fa3f
00000150: 4682 cf3f e7af d13f c7a2 cc3f a8f9 f83f
00000160: 0983 d83f e13c ff3f a0aa bf3f 42db e93f
00000170: ca5e e53f 59a5 e33f 976e ee3f 0e44 f43f
00000180: da6a d43f 2079 e53f 16aa b33f 5e6d e73f
00000190: 3459 d13f 58c0 db3f 39d6 f03f 52ec 9d3f
000001a0: 0cb3 0540 2be2 ef3f 8f96 df3f 6009 ea3f
000001b0: 60e4 ed3f 995c f43f 50a8 f83f 19d2 d43f
000001c0: 89e2 e83f fe2c d23f 0a96 ed3f 542a f23f
000001d0: 5cc4 c43f eaf2 0140 2bf9 e73f 4724 f63f
000001e0: cd00 fd3f 17e7 0940 7a3f c63f 1343 f93f
000001f0: 5ac9 f63f 4f9d f23f 6064 d83f 76fc c73f
2.2243063 1.6105976 1.9623461 1.8759537 1.8839864 1.792545 1.7413628 1.577172
1.8265953 1.4467882 1.5500479 1.4822445 1.8551314 2.0131302 1.8015677 1.6330208
2.059996 1.9309615 1.945207 1.4968486 1.8663896 1.7564476 1.813692 1.8999324
1.5796467 1.9095926 1.7744752 2.0716362 1.9117163 1.945738 1.73497 1.7713714
2.1079345 1.721251 1.7005534 1.8251436 1.6999497 1.9879075 1.7925711 2.1136665
1.9137524 1.661319 1.8516623 1.6597565 1.8882279 1.8295598 1.5953194 1.5452667
1.9860752 2.202528 1.8178201 1.8356462 1.904288 1.6034093 1.9821608 1.7213529
1.9460887 1.8378488 1.821505 1.6425388 1.547203 2.130308 2.1032662 2.0358627
1.7779218 1.7633195 1.8120944 1.7669629 1.7620465 1.9013805 1.7698686 1.5626407
1.7832217 1.7764642 1.9222953 1.1451815 1.7454052 1.9056772 1.7507654 1.93829
1.6983168 1.5559071 1.6748402 1.9604048 1.6211631 1.6381806 1.5987176 1.9451189
1.6914989 1.9940454 1.4973946 1.8270037 1.7919552 1.7784835 1.8627499 1.9083269
1.6595109 1.792759 1.4036281 1.8080251 1.6355348 1.7168074 1.8815376 1.2337744
2.0890532 1.8740896 1.7467822 1.8284111 1.858532 1.9090759 1.9426365 1.6626617
1.8194133 1.641998 1.8561413 1.8919168 1.5372424 2.0304513 1.8122915 1.9229821
1.9765869 2.1547296 1.5488122 1.9473594 1.9280198 1.8954257 1.6905632 1.562392

conv_blocks.14.bias f4 [128]
00000000: 6103 32bd cc29 fc3d 944f c9bd 490d 9bbd
00000010: b496 18be 07d2 c63d 97b2 39be 5134 cebd
00000020: 1aea 193e e662 033e 3df6 0cbe b735 04be
00000030: 5384 c73d 4cf1 eebd e070 403e 818c d33d
00000040: 10bc ffbd 9b18 77bd f44b d1bd c1f0 ea3d
00000050: faeb 69be 235f c6bd 466f 233e 88c3 fabd
00000060: d701 c3bd a96b 1bbe 868f 62bd 5af6 3bbe
00000070: f6e5 9ebd 0702 2aba fce0 4f3e b8f1 d6bd
00000080: b4d6 b3bd 5ca4 d53d bcc1 c33d 49d6 24be
00000090: 8f37 17be 227b 033c 9171 d0bd ecf1 3e3a
000000a0: 578b cfbd 5d4f 053e 3c05 28be 54ae d6bd
000000b0: 8e98 a2bd c894 d3bd 4842 50be 5fe8 c53d
000000c0: 4d93 9fbd b75e fabd 6a97 13be 46e1 843d
000000d0: aa53 9abd ba32 e73d 44da bcbc 5696 21be
000000e0: 5a12 ccbd e913 1fbe abe6 423e de0c c7bd
000000f0: c13d df3d 94b3 f73c 8734 8b3d 89fe d83c
00000100: ec64 dbbd c777 913d 6f87 e9bd 01c8 13be
00000110: fce2 063e c7c1 f6bd 8242 a8bd f756 b13a
00000120: a3b3 033e d0b7 e33d be5f 2fbe 8293 efbd
00000130: 95e3 c3bd 5935 2bbe fe74 01be ad69 abbd
00000140: d962 c83d ef36 e13d 7c33 9fbd 0652 e23d
00000150: 3714 3a3e 5cab 1abe 5c60 dfbd 5300 2dbe
00000160: c846 dbbd 500a 4cbe 1d1b f2bd bebf 95bd
00000170: 57e5 f0bd 80c1 0bbe 73fe 33be 4d23 debd
00000180: 8bc7 a1bd 0eba d0bd e5f5 c03d ac71 ccbd
00000190: fb36 f93d 949f ff3c 69cf 07be a4cf d0bd
000001a0: da2d 9d3a 9954 15be 1b83 d93d 130a 3cbe
000001b0: ebb6 c2bd 8865 1bbe ec1e 18be d029 0a3e
000001c0: a52f 443e 1308 2ebe f0fb d2bd f71a a8bb
000001d0: bbb2 c33d 0efa 4dbe ca76 b93d 7a7a adbd
000001e0: 6bfe 57bd 55d2 a33d c49c ce3d d910 c3bd
000001f0: 4db2 29bc 72c9 c8bd 716a 2cbe ee9e 06be
-0.043460254 0.123126596 -0.098296314 -0.07570893 -0.14901239 0.09708028 -0.18134533 -0.10068572
0.15030709 0.12830696 -0.13765807 -0.12911116 0.09742036 -0.116671175 0.18793058 0.10329533
-0.12487042 -0.0603262 -0.10219565 0.114717014 -0.22843924 -0.09686115 0.15960416 -0.12244326
-0.09521835 -0.15177788 -0.055312656 -0.18355694 -0.07758705 -0.00064852874 0.20300668 -0.10495323
-0.08781186 0.1043174 0.09558436 -0.16097368 -0.14767288 0.008024963 -0.10177911 0.0007283974
-0.10133999 0.13018556 -0.16408247 -0.10482469 -0.07939254 -0.10331112 -0.20337784 0.09663462
-0.07791767 -0.12225097 -0.14413229 0.0648828 -0.07535489 0.11288972 -0.023053296 -0.15780005
-0.09964438 -0.15534939 0.19033305 -0.09719251 0.109004505 0.030236997 0.06797128 0.02648856
-0.10712609 0.07102924 -0.11402785 -0.14431764 0.13172525 -0.12048679 -0.0821581 0.0013529946
0.12861495 0.11119044 -0.17126366 -0.11698057 -0.09564892 -0.1671957 -0.12642285 -0.083697654
0.09784479 0.10996806 -0.07773492 0.11050801 0.18171774 -0.15104431 -0.10907051 -0.16894655
-0.1070686 -0.19925809 -0.11821578 -0.073119625 -0.11762493 -0.13648033 -0.17577533 -0.10846577
-0.07899388 -0.10191737 0.09421901 -0.09982619 0.1216869 0.031204022 -0.13262714 -0.10195854
0.0011991814 -0.14583053 0.106207095 -0.18363218 -0.09507545 -0.1517545 -0.14855546 0.13492513
0.191588 -0.16995268 -0.103019595 -0.0051301676 0.095555745 -0.2011492 0.0905586 -0.08470626
-0.052732866 0.07999102 0.100884944 -0.09524698 -0.010357452 -0.09804048 -0.16837479 -0.13146564

conv_blocks.14.running_mean f4 [128]
00000000: 41d9 f63e a711 7f3f 0a83 52bd c9a7 35bf
00000010: d824 2cbf e4f0 05bf b866 4ebf 6e39 9f3e
00000020: 6510 33bf abc2 783f 1f81 c0be 328e b33c
00000030: 31e0 36bf 82ba c7be 43ac e73f be86 4ebf
00000040: c366 33bf 1963 52be 9042 32bf 7b09 7c3f
00000050: 3695 25bf ce93 e13e 92be 9bbe a52c 49bf
00000060: 45c4 c23d c9ee b7be 4dbb a83e 5bdd 1dbf
00000070: fefe 2cbf 79a0 243f 33b1 39bf 792c 4abf
00000080: 6ebc 44bf 6654 a33f d30c 263f 93af 2cbf
00000090: 0f9c 55bf a91f 303f 4abb 41bf 0041 d23e
000000a0: e1a6 f7be 2665 1fbf 05c5 b93f 5060 9e3e
000000b0: 63c4 a33f 2860 e9be ab54 963f 21e8 d73f
000000c0: 841f 45bf ee52 11be 763a f33f 2a14 3a3f
000000d0: 5e73 76bf d07b 8c3f 6fdc 753e 7522 1b3f
000000e0: 145a 68bf 06b1 143e 7a5b 27bf a230 3e3f
000000f0: b07e 283f e54f 053f a9d9 1c3f a428 2b3f
00000100: 0eb1 d83f e15d d13f 2b91 79be 44d4 04bf
00000110: 7c1a 6a3f 4670 01bf ea48 acbe d62a 4bbf
00000120: 0338 24bf d05d 48bf c5e2 34bf cee7 0540
00000130: 53d4 a93f c6be 26bf cac6 fa3e d580 53bf
00000140: 2cb9 c33f 4d3d c63f 1c63 bf3f ed26 18bf
00000150: 71cb f7be bf1c a5bd 326d d83f db3d 66bf
00000160: 1e81 b43f 0879 5abe df94 3fbe bbaf 10bf
00000170: 4e4e dbbe ea1e 0840 a0f2 48bf 39e6 28bf
00000180: bc14 aa3d 1b9c cabe 6be9 9e3f 40a0 7f3f
00000190: 4114 c23f 3f73 5cbf d9f9 febe 50f7 8a3f
000001a0: 6fd1 fd3e bb06 f6be ead7 82bf 2575 e3be
000001b0: e278 06bf 59c7 3cbf 379f 2dbe c174 c13f
000001c0: d21d 6abe b7fe 5abe 4822 dabe dd6f 033f
000001d0: ac55 4f3e db03 89be b3a4 2dbf dca6 88bf
000001e0: af5d 1f3f cf33 853d c5b3 933f efbb f5bd
000001f0: b60d fb3d 859e 1cbe 6a83 11bf 3e50 9a3f
0.48212627 0.9963631 -0.0513945 -0.70959145 -0.6724372 -0.52320695 -0.80625486 0.31098503
-0.6994689 0.9717204 -0.37598512 0.02191839 -0.7143584 -0.39009482 1.8099445 -0.8067435
-0.70078677 -0.20545615 -0.69632816 0.98451966 -0.646808 0.4405808 -0.3041883 -0.7858375
0.09510092 -0.35924366 0.329554 -0.61665887 -0.6757659 0.6430736 -0.7253601 -0.7897411
-0.7685002 1.2760131 0.6486332 -0.67455405 -0.8344125 0.6879831 -0.75676405 0.41065216
-0.48369506 -0.62263715 1.451325 0.30932856 1.2794307 -0.45581174 1.1744589 1.6867715
-0.77001214 -0.14191791 1.9002216 0.7268702 -0.96269786 1.0975285 0.2400987 0.6059945
-0.9076245 0.14520654 -0.6537396 0.7429296 0.6581831 0.52075034 0.61269623 0.6685889
1.6929033 1.6356775 -0.24371783 -0.5188639 0.9144666 -0.5056194 -0.3364938 -0.7936224
-0.6414797 -0.78268147 -0.7065852 2.0922732 1.3267921 -0.6513485 0.4897979 -0.8261846
1.5290885 1.5487458 1.4952121 -0.59434396 -0.483974 -0.080621235 1.6908324 -0.89938134
1.4101903 -0.21335232 -0.18709134 -0.56518143 -0.4283318 2.1268868 -0.78495216 -0.6597629
0.08304736 -0.39572224 1.2414984 0.998539 1.5162431 -0.8611335 -0.49799994 1.0856724
0.49573848 -0.4805201 -1.0222142 -0.44425312 -0.525282 -0.7374168 -0.16955267 1.5113755
-0.22862938 -0.21386229 -0.4260428 0.51342565 0.20247525 -0.26760754 -0.67829436 -1.0675921
0.62252325 0.06504022 1.1539236 -0.11998736 0.122584745 -0.15294845 -0.56841147 1.2055738

conv_blocks.14.running_var f4 [128]
00000000: 9c13 8a40 8764 3b41 e6ab f23f e383 b13f
00000010: 67f4 1140 c00c a73f 8a3c 0740 16b6 0340
00000020: ce81 eb3f 5e05 3141 94d0 a13f 41f7 cd3f
00000030: 0a07 0940 a3fc de3f c898 5f41 dd3b f33f
00000040: f57e 1740 0749 f13f a401 0c40 bae8 2b41
00000050: 4636 5240 7c42 8640 be39 f23f ab02 0e40
00000060: 7974 4240 7fa7 0240 5989 1e40 4175 6140
00000070: c1ef f23f 8fcf 6540 6139 1940 7f96 3a40
00000080: 80e8 6c40 df54 4a41 e251 0241 8cc3 ea3f
00000090: 854f 1f40 a71a 5940 b9fa 4040 5722 6740
000000a0: 1dac 0640 c939 cc3f 1582 2441 0cc0 d63f
000000b0: 0b4c da40 48e1 4540 5815 1641 6d6f 4441
000000c0: e540 5040 3dd7 f03f 55c5 3941 ebef 5940
000000d0: 427d 3340 0e09 6b41 46bf 7640 65b1 9140
000000e0: a0c7 7440 6be0 d43f d028 4940 b8e5 8740
000000f0: be68 0741 fa00 5940 fe86 8f40 64aa ad40
00000100: 0783 2541 1b56 6a41 f7b4 c23f a919 1740
00000110: 3966 1c41 2904 f23f b4fd d23f 07fb cf3f
00000120: f4ff 1140 3b00 3640 e578 2940 0e03 2341
00000130: b9bf 0f41 42fc 0c40 080d 7d40 95db 2140
00000140: 6916 2c41 5502 7241 00d6 3e41 0305 ea3f
00000150: 7286 2840 cf35 913f 515e 5741 9505 1e40
00000160: 7614 2b41 3408 0240 136b 2040 91d6 0b40
00000170: d074 0640 a990 9a41 ea87 0140 9756 0740
00000180: 122d 0640 948b da3f 3173 4441 430b e540
00000190: c5a5 3841 246f e83f d0d9 dd3f 952d 6b40
000001a0: d9c4 4f40 e517 e23f 78fd 1840 5390 d83f
000001b0: e5d1 d03f 3076 3840 91a9 e43f 6429 7541
000001c0: c331 dd3f a9e8 d33f 11d8 0640 b571 7040
000001d0: 3437 5f40 3c97 1540 a0e2 2040 9706 6740
000001e0: f27f 4240 0e0f 6240 ed77 2741 b3ef ba3f
000001f0: 4a89 4d40 075c bc3f 8152 4240 4f90 0741
4.3148937 11.712043 1.8958709 1.3868374 2.2805421 1.3050766 2.11307 2.0579886
1.8398988 11.06381 1.2641778 1.6091081 2.1410546 1.7420849 13.9748 1.9002644
2.3671238 1.8850411 2.1876001 10.744318 3.2845626 4.195616 1.8923872 2.2189128
3.038359 2.0414732 2.477133 3.5227816 1.8979417 3.5907934 2.3941271 2.9154356
3.7016907 12.6457205 8.144991 1.8340926 2.4892285 3.3922517 3.015303 3.611471
2.104255 1.5955135 10.281758 1.6777358 6.8217826 3.091875 9.380211 12.277204
3.2539608 1.8815686 11.610677 3.4052684 2.8045201 14.689711 3.8554244 4.5529046
3.8246841 1.6630987 3.143116 4.246792 8.463072 3.3906846 4.4852285 5.4270496
10.344489 14.646022 1.5211476 2.3609412 9.774957 1.890752 1.6483674 1.6248482
2.2812471 2.843764 2.6480038 10.188246 8.984307 2.2028966 3.9539204 2.5290272
10.755471 15.125569 11.927246 1.828278 2.633206 1.1344546 13.460526 2.4690907
10.692495 2.0317507 2.5065353 2.184971 2.1008797 19.320635 2.0239205 2.11466
2.0965009 1.7073846 12.278123 7.1576247 11.540471 1.8158917 1.7332096 3.674657
3.2463896 1.7663542 2.3904705 1.6919044 1.6314055 2.8822136 1.7864248 15.322605
1.7280811 1.6555377 2.1069376 3.7569401 3.4877443 2.3373556 2.513832 3.6097772
3.0390592 3.5321689 10.466779 1.46044 3.2115045 1.4715585 3.0362856 8.472732
