trainings/n-lineas_1_Random_False/discriminator_weights.pth (torch, 426026 bytes, 23 tensors)

conv_blocks.0.weight f4 [16, 1, 3, 3]
000000 84 6c fd be 3e 6a 20 3e bb 4a 1e 3d 1a 00 1c 3f
       -0.49496853 0.15665528 0.038645487 0.60937655
000010 6b d6 93 3d 78 37 bf be cb 5d b6 be 15 03 55 be
       0.07218631 -0.37347007 -0.35618433 -0.20801957
000020 08 6e b2 3e fe 48 ba 3d f7 8d 25 3f 56 9e 1a bf
       0.34849572 0.090959534 0.64669746 -0.6039785
000030 4e 21 94 3d 93 36 c9 bd a9 a5 2f 3e 0c a1 99 bd
       0.07232915 -0.09824862 0.17153038 -0.075014204
000040 94 5c e5 be 4c 89 b4 3e f2 f9 b6 3e 1a 06 7b be
       -0.44797194 0.35261 0.35737568 -0.24514046
000050 8e ae bf be d5 69 13 3e f6 f1 33 3e 6c eb 6f be
       -0.37437862 0.1439584 0.1757277 -0.2342965
000060 00 0c 43 be 0b e3 c9 3e 40 e7 d4 be a1 b4 07 bf
       -0.19047546 0.39431033 -0.4158268 -0.5300999
000070 8c 81 3b 3d 50 b3 84 3e 6b 1e 49 3b ff 41 6a 3e
       0.045777842 0.25918055 0.0030688297 0.22876738
000080 4a 17 60 be 9c 51 1b be 3e 86 4e be 05 65 a7 3e
       -0.21883884 -0.1516785 -0.20168397 0.3269426
000090 83 72 39 3d 61 f1 f7 3e b1 dd 7a be 4d 39 5c be
       0.045275223 0.48426345 -0.24498631 -0.21506234
0000a0 40 e8 de be 02 14 96 be 15 37 21 be cb 08 22 3e
       -0.43536568 -0.2931214 -0.15743668 0.15823667
0000b0 3e e7 38 3e ec 03 bc 3e b1 12 c4 bd 33 bf ec be
       0.18056962 0.36721742 -0.095738776 -0.46239623
0000c0 a3 c5 19 be dd b1 11 bd ff b9 fb 3d ab 46 4d bd
       -0.15016799 -0.035570014 0.12291335 -0.050116222
0000d0 16 38 9d 3e 13 89 8f 3e e5 34 4c 3d bd e5 03 3e
       0.30706853 0.28034267 0.04985513 0.12880607
0000e0 c6 ec 85 3d 87 ae 76 be 7c f2 aa 3c af 1b a7 3d
       0.065393016 -0.24090014 0.020867579 0.08159577
0000f0 0f 80 d6 be f3 df e6 bd 38 dd 1f be 35 ef 25 bf
       -0.41894576 -0.11273184 -0.15611732 -0.64818126
000100 fe a6 7e 3f 0f 82 df be 91 2e 03 be 9c 45 16 3e
       0.9947356 -0.43653914 -0.12810732 0.14674991
000110 56 23 18 bd b1 e9 2b 3f 84 ba 8a bf f4 06 ee 3e
       -0.037143074 0.6715346 -1.083817 0.4648968
000120 28 6d 21 bd e3 6d ae 3d ac f3 0b 3d 31 32 23 be
       -0.03941074 0.08517053 0.03416793 -0.15937115
000130 be e0 3f 3c da 3e 94 3e 78 e3 5f 3e c5 9c 14 3d
       0.011711298 0.28954202 0.21864116 0.03628232
000140 28 d6 56 be 09 63 12 bf 66 f8 01 bf 0e 5a 5a 3e
       -0.20980132 -0.57182366 -0.5076965 0.21323416
000150 8e 4f f1 3b 67 55 c7 3e 1e a7 31 be b7 8f e7 3e
       0.00736422 0.38932344 -0.17348906 0.45226833
000160 ac 63 06 3c a9 e6 e2 bd 0e 67 d0 bd cc f2 44 be
       0.008202475 -0.11079151 -0.10175906 -0.19233245
000170 1f 94 8c 3e d7 d9 db 3d 32 a6 1d 3e 81 b3 99 bc
       0.27456757 0.10734909 0.1539543 -0.018762352
000180 69 eb f8 3d c4 ad 84 3e f4 85 21 be d1 8c 0e 3e
       0.12154276 0.25913823 -0.15773755 0.13920905
000190 07 95 1c bf b9 58 fc 3d 61 f5 b0 bd 03 6c ad be
       -0.611649 0.1232161 -0.08640552 -0.3387147
0001a0 de 03 8b 3e 01 03 89 3d 7b 3f 71 3e 21 8d 6a be
       0.27151388 0.06690026 0.23559372 -0.22905399
0001b0 18 19 cc bd 50 a2 7c be 34 54 bf 3e 81 f8 b9 3d
       -0.09965724 -0.24671292 0.3736893 0.090806015
0001c0 9f b8 25 3f 9e fd 30 bf 0f b9 cd 3c a9 c2 d0 be
       0.64734834 -0.6913699 0.025112657 -0.40773514
0001d0 9c f0 ce 3e d0 ca a6 be 95 be 1b 3f 4d 68 28 3e
       0.40417945 -0.3257661 0.6083768 0.16446038
0001e0 4b ce 0f be fa 0b 9d 3e a6 51 10 bd 56 2e bc 3d
       -0.14043538 0.306732 -0.035234116 0.091885254
0001f0 04 ce 01 bf df 6f c1 3e eb a3 25 bf 5e 18 c7 be
       -0.5070498 0.37780663 -0.64703244 -0.38885778
000200 03 ab 9d 3e 82 ce 93 3e 25 49 b1 3d e1 d3 d3 bd
       0.30794534 0.2886849 0.08656529 -0.10343147
000210 28 53 0e be 26 49 c3 3d 66 f0 0a bd ec 59 57 3e
       -0.13898909 0.09535436 -0.033920668 0.21030396
000220 1d 34 fe be 43 58 fa 3e 25 c3 a9 3d a9 97 a6 be
       -0.49649134 0.48895463 0.08289174 -0.32537583
000230 fd 0b 67 bd 41 e8 1f be e9 59 28 3f 5f ee b0 be
       -0.056407917 -0.15615942 0.6576219 -0.34556863

conv_blocks.0.bias f4 [16]
000000 de e3 53 bd c6 1b 7c 3c ec a5 88 be 6b 48 3b be
       -0.051730983 0.015387481 -0.26689088 -0.18289344
000010 2b 2d b8 be 03 72 0f bd cb 05 01 bf 4d 60 04 3f
       -0.3597196 -0.03502084 -0.50399464 0.51709443
000020 91 e4 d9 3d df f1 9a be af 7e 3c bc 84 40 ab be
       0.10639299 -0.30262658 -0.011504813 -0.3344766
000030 ec 69 fa 3c 8a 6d b2 be 71 99 fc be 71 05 42 bd
       0.030568086 -0.34849197 -0.49335817 -0.04736847

conv_blocks.3.weight f4 [32, 16, 3, 3]
000000 9c d9 95 bc 14 f4 37 be 66 8d af 3d 28 16 00 3e
       -0.01829224 -0.17964202 0.085718915 0.12508452
000010 9d 59 43 bd 32 24 fa 3b 39 7c 86 3c e7 ac bc 3c
       -0.047692884 0.0076337093 0.016416656 0.023031665
000020 f1 05 88 bd eb 1f 8f bd f8 60 99 bd 9d 05 9c bd
       -0.06641758 -0.0698851 -0.074891984 -0.07618258
000030 a3 d9 e4 3d 90 0d f4 be d6 e5 8f bd 56 70 e4 3d
       0.111743234 -0.47666597 -0.070262596 0.11154239
000040 e9 76 1d bd 5e 3c 2b bd 54 6f ef 3d a1 e6 2d 3c
       -0.03844348 -0.041805618 0.11691156 0.010614068
000050 0e db 27 bc 99 1a de bd 03 4f a7 3d a6 40 d1 3d
       -0.010245098 -0.10844917 0.08169367 0.10217409
000060 f5 ef f0 bd fd 20 c3 bd f4 d0 be bb 89 d9 df bc
       -0.11764518 -0.095277764 -0.005823249 -0.027325409
000070 7d 67 c3 3d 27 ae 88 3e 5f 26 1a bc de 69 63 be
       0.09541223 0.26695368 -0.009408562 -0.22208354
000080 f9 4b dc bd 0e 3d b0 3d e9 1b 1f bd 25 4e 02 be
       -0.10756678 0.08605395 -0.038844977 -0.12725122
000090 e9 35 57 3e c4 65 bc 3e 08 a6 23 3d f0 25 cb be
       0.21016659 0.3679639 0.03995326 -0.39677382
0000a0 40 a5 12 be 77 3c bb 3d 45 0f a8 bd 2f 1d 82 bd
       -0.1432085 0.09142392 -0.082060374 -0.063532226
0000b0 74 78 4d bd 0f 38 32 bb 37 bb f7 bd 64 40 ea 3d
       -0.0501637 -0.0027194058 -0.12096255 0.11438063
0000c0 45 aa c7 3d 0e 89 ad bc 52 dc 20 be f8 4a 8d bd
       0.09749273 -0.021183517 -0.15709046 -0.06899065
0000d0 cf 65 14 3d 9f c1 9c 3d 44 a1 59 be da 8f ca 3d
       0.036229905 0.07654118 -0.21252924 0.09890719
0000e0 af 81 8a 3e e6 92 4e be 2c 09 86 be 2f b9 83 3d
       0.27052066 -0.20173225 -0.26178873 0.06431805
0000f0 e8 11 53 3e 10 de d4 3d ec 50 39 be 9c 6a 31 3d
       0.206123 0.103939176 -0.18097275 0.04331456
000100 4c 89 e9 3d d5 ae 49 3e 0b 52 b0 bc 8b dc ef bc
       0.114031404 0.196956 -0.021523496 -0.029279968
000110 03 51 9f 3c 66 35 89 3c dd 5a 58 be fb 3b 01 be
       0.01944781 0.016749095 -0.21128412 -0.12620537
000120 9b 2e 7c bd 60 73 97 be f3 00 9d bd df a7 53 3e
       -0.061567884 -0.29580212 -0.07666197 0.20669506
000130 8d b6 6b bc c9 09 31 bd f5 66 fa 3c 56 85 2d 3d
       -0.014386785 -0.043222222 0.030566672 0.042363487
000140 13 fc 96 bd f1 92 3b 3e 61 29 3a 3e c8 a9 3e 3d
       -0.07372298 0.18317772 0.18179847 0.046548635
000150 1f 54 9f 3d d6 59 86 3d 22 0c 1f be ee 4d bf 3d
       0.07779717 0.065601036 -0.15531972 0.09341036
000160 7d 44 a0 3c b1 e8 cc bc f8 02 3f bd 12 43 86 be
       0.019563908 -0.0250133 -0.04663369 -0.26223046
000170 46 a3 dd ba 3c 5f ea 3d 91 25 28 3d 6d 25 05 bd
       -0.0016909621 0.11443946 0.04105145 -0.032506395
000180 6a af 92 3c 21 69 ec 3d b6 4c 43 3b e3 a6 21 3e
       0.01790591 0.11543489 0.0029800362 0.15786318
000190 2d af 87 3e f5 66 1b 3e 6c 8c 7a bd 8c 69 c6 bd
       0.26500836 0.15175994 -0.061169073 -0.096881
0001a0 0f 21 21 3e 9a 15 99 be 6e da 8e be c3 66 97 3d
       0.15735267 -0.29899293 -0.27901024 0.07392647
0001b0 5a f2 48 3c 6c e2 ea be 6c 2e e4 be 1d 6c 87 3d
       0.012264812 -0.4587587 -0.44566667 0.06612418
0001c0 a0 cc 59 bd 74 37 63 bd 3f ea db 3d 9a 44 b5 bc
       -0.05317366 -0.055472806 0.10738038 -0.022127438
0001d0 f9 dd 6e 3d 35 2a 97 bc dd b2 b0 3c bb 60 91 bd
       0.05831716 -0.018452743 0.021569664 -0.07098528
0001e0 8e 76 56 bb ab fa ea bd b8 2f cb bd 45 a4 02 bd
       -0.0032724473 -0.11473592 -0.09921211 -0.03189494
0001f0 50 0a 07 3e 4d 38 05 3e ac e2 20 3e 9f 12 b6 3e
       0.13187528 0.13009758 0.15711468 0.35561082
000200 5e a0 3f 3e dc a0 22 be 55 d0 e2 bd d6 c1 9d 3a
       0.18713519 -0.15881675 -0.110748924 0.0012035917
000210 f7 f5 f5 bd d0 b4 63 be 40 25 6a bd 9a 13 0a 3e
       -0.12009805 -0.22236943 -0.05716443 0.1348404
000220 05 e9 75 bd d0 a9 e7 bc bf aa 57 be 06 33 62 be
       -0.060036678 -0.028279215 -0.21061228 -0.22089776
000230 c9 c5 ce 3d e8 62 42 3d 33 ac 13 3d 98 a7 e1 bd
       0.10096318 0.047457606 0.036052894 -0.11018294
000240 1a 0f 43 be b0 6e af 3d 1e c0 39 bc a6 42 79 be
       -0.1904873 0.08566034 -0.011337308 -0.2434183
000250 ed b6 99 be a6 d0 66 bd bf 0f 97 bd f1 c2 aa bd
       -0.30022374 -0.056351326 -0.0737605 -0.08337963
000260 f8 a9 0e be 13 28 8a 3d c8 de e4 3d 83 56 86 bd
       -0.13932025 0.06745925 0.11175305 -0.065594696
000270 b2 c4 2f 3e aa 0e 41 3d 14 de c3 3d 5e 3f df 3d
       0.17164877 0.047133125 0.095638424 0.10900758
000280 66 5e df bd bc 9d 32 3b 3d 61 08 bd b2 0d 86 bc
       -0.10906677 0.0027254662 -0.03329586 -0.016363952
000290 86 ad 08 be e4 0d 9e be 8e df 87 bd 6a 48 92 3d
       -0.13347444 -0.30869973 -0.066344365 0.07142718
0002a0 e1 bb 37 3e 61 8a 90 bd b7 02 e4 bc 37 b4 ba 3d
       0.17942764 -0.07057644 -0.027833326 0.091164045
0002b0 9c 7e 84 bc cb 63 38 be 90 ef a0 be 00 27 8b be
       -0.016173653 -0.18006818 -0.31432772 -0.27178192
0002c0 b1 a2 55 be 7f 82 ce bd 2d 5a 0d 3e b3 85 a4 3d
       -0.20862843 -0.10083484 0.1380393 0.080333136
0002d0 51 b0 5a be c4 43 33 be 23 3a 10 bd 51 9b dc be
       -0.21356322 -0.1750632 -0.035211693 -0.43087247
0002e0 b4 f7 67 be 09 45 07 bd e6 85 09 3e 57 a4 3b 3e
       -0.22653085 -0.03302482 0.13429984 0.1832441
0002f0 fa d4 ab 3d 7b c8 20 3d a3 2a 23 3d 51 d3 00 3d
       0.083902314 0.039253693 0.039835583 0.031451527
000300 c9 9e 3a 3c 36 78 1e be ff 79 31 3e 2c 66 a3 3d
       0.011390396 -0.15475544 0.17331694 0.07978472
000310 d8 6b de bd 6b fc 87 3d 6a 2a 0b 3e 3f b3 ae 3b
       -0.10860413 0.06639942 0.13590398 0.0053314264
000320 7f 4c 07 be 65 e2 3b 3d 78 6f 65 3e f6 ed eb 3d
       -0.13212775 0.045870204 0.22405803 0.11519997
000330 d3 14 5a 3e 28 1b 02 3f a4 7c 2b 3e 20 3e a0 bd
       0.21297006 0.5082269 0.16746765 -0.078243494
000340 da d3 af 3d 18 b5 cd 3c 02 63 14 bd 5f 58 8d bd
       0.08585329 0.025110766 -0.036227234 -0.06901621
000350 59 df f8 bd 8b 28 87 bd 80 61 0e bd 1f b4 0d 3e
       -0.12151975 -0.0659953 -0.034760952 0.13838242
000360 28 fd 03 bd 24 d5 2e bd b3 05 87 3c 3a e5 df 3d
       -0.03222385 -0.042683735 0.01648221 0.10932393
000370 c5 c0 38 3c f3 56 88 3d b9 a4 08 be 54 1b 93 be
       0.011276429 0.06657209 -0.13344087 -0.28731787
000380 d0 a3 49 3d ee 62 72 bd 4d c2 16 3e e7 92 6a 3e
       0.04922849 -0.059176378 0.14722557 0.22907601
000390 ce 4e 86 3e 6a 6d c1 3d 75 08 ce 3d 3c 08 89 bc
       0.26231998 0.09444697 0.10060207 -0.01672756
0003a0 35 c5 bf 3e 43 4f fe 3c bb d3 a0 3d 97 7e 69 3d
       0.37455145 0.031043654 0.078528844 0.05700549
0003b0 d4 0c 44 3d 32 f4 a4 bc 67 c8 d9 bd d8 5d dc bd
       0.047863796 -0.020135973 -0.10633927 -0.10760087
0003c0 a5 ed 8e be 4c 20 db bd c7 93 73 3d e9 fd ca 3d
       -0.27915683 -0.106995195 0.059467103 0.09911711
0003d0 88 f2 63 3b a6 fe ec 3c 61 6a 0e bd 89 56 1d be
       0.003478201 0.02893002 -0.03476942 -0.15365042
0003e0 f1 ec b8 bd 15 89 77 be a1 fb 95 3d 16 14 db bd
       -0.09029568 -0.24173386 0.07323385 -0.106971905
0003f0 e6 1f 41 be 57 4d 28 3d cb 88 5c 3d d0 de 7e bd
       -0.18859825 0.041089382 0.053841393 -0.06222421

conv_blocks.3.bias f4 [32]
000000 af 27 1d bd 33 0a bd 3c 12 40 bf bd 52 37 7b bd
       -0.038367923 0.023076152 -0.09338392 -0.061332054
000010 2f 5c d0 bd f4 d4 81 bd c3 48 ea bd a9 35 20 be
       -0.101738326 -0.06339446 -0.114396594 -0.1564547
000020 bc 95 6f bb 69 ab 41 be f6 b3 10 be 1d 9c 3d 3d
       -0.0036557755 -0.18913044 -0.1413115 0.04629146
000030 04 c7 a4 bc a8 ef 24 bd a2 43 d5 bd 1d c2 68 bd
       -0.02011443 -0.040267617 -0.104132906 -0.056825746
000040 d3 7c ce bd 5a 13 80 be 0f 25 bc bd 39 b7 80 be
       -0.10082402 -0.25014764 -0.09186756 -0.25139788
000050 af 62 c5 bd 3f e6 f7 3d 93 bb 7f be 86 f8 78 bd
       -0.09637963 0.12104463 -0.24973898 -0.060783885
000060 c8 f2 2d bd 03 2c bb be b0 9d 95 be 67 92 44 be
       -0.042467862 -0.36557016 -0.2922187 -0.19196473
000070 e7 52 f4 bd 9c 9a b0 bd fc dc b9 bd 13 1b 11 bc
       -0.11929875 -0.086232394 -0.090753525 -0.008856553

conv_blocks.6.weight f4 [32]
000000 b8 34 dd 3f 7d da b7 3f 5f c1 ad 3f d5 78 a0 3f
       1.7281713 1.4363552 1.3574637 1.2536875
000010 7a 64 ed 3f 80 e0 b0 3f c4 15 0d 40 50 e0 d3 3f
       1.8546288 1.3818512 2.2044535 1.655283
000020 38 0c a6 3f 42 4e e6 3f 65 b7 a9 3f 9e 39 bc 3f
       1.2972479 1.7992632 1.3259093 1.4705083
000030 e2 1f e3 3f 9d e0 b6 3f 14 c4 da 3f 75 67 bb 3f
       1.7744105 1.4287297 1.7091088 1.4640948
000040 20 23 af 3f e4 38 cc 3f ca 4e 0b 40 09 50 ae 3f
       1.3682594 1.5954862 2.176684 1.3618175
000050 c7 6a f0 3f e8 f9 a6 3f d4 39 d8 3f 7b 29 be 3f
       1.8782586 1.3045015 1.6892648 1.4856409
000060 3c 01 ca 3f 19 bc cb 3f 86 e7 d4 3f 21 6a f2 3f
       1.5781627 1.5916778 1.6633155 1.8938638
000070 8f ad be 3f 9e b9 c2 3f 42 ae b8 3f ec e3 b9 3f
       1.4896716 1.5212896 1.4428179 1.4522681

conv_blocks.6.bias f4 [32]
000000 f1 f4 0c 3e 57 4c 8e be 7e 39 93 3d 86 2e 3d bd
       0.13765313 -0.27792618 0.071887 -0.046186946
000010 74 68 ec 3d 26 e4 cf bd 5f 34 8a 3d 50 34 16 3c
       0.1154336 -0.10150938 0.0674827 0.009167746
000020 db 5c f8 3c f2 fe a8 3c 7c 45 b0 3c 3c 11 5b be
       0.030317714 0.02062938 0.021517508 -0.21393293
000030 e0 e4 da 3d 3e 65 8c bd 94 5f 9a 3d d0 ff a7 bd
       0.10688186 -0.06855248 0.07537761 -0.08203089
000040 31 51 d6 bd 1b 29 95 3d 28 ff aa 3d 68 c8 0b 3b
       -0.10464705 0.07283231 0.083494484 0.0021329168
000050 ee 9c 94 3b 11 27 53 3e f9 54 43 be 13 fe be bc
       0.004535309 0.20620371 -0.19075383 -0.023314511
000060 09 6d 09 bb e1 b0 31 3d 8c 20 36 3d 5f e2 4e 3c
       -0.002096953 0.043381575 0.044464633 0.012627213
000070 27 ec 86 bd e2 06 2c bd a4 f2 b6 39 37 d8 23 3e
       -0.06588011 -0.04199875 0.00034894526 0.16000448

conv_blocks.6.running_mean f4 [32]
000000 40 b2 e8 3c e0 fa c6 bc 88 f0 20 3d f2 a5 55 bd
       0.028405309 -0.024289548 0.03929189 -0.05216021
000010 d6 29 47 3d b2 8c 5a bd 85 e8 b0 3c 4e 99 98 3c
       0.048623882 -0.053356834 0.021595249 0.018627789
000020 39 2a 5e 3d 86 84 a1 bb 07 8e 04 3d 37 f7 3c 3c
       0.054239485 -0.004929128 0.03236201 0.01153355
000030 4c ee c0 3d df 99 49 3d 87 5c 41 3d 7e 94 cc 3c
       0.094204515 0.04921901 0.04720738 0.02497315
000040 40 41 39 3c 19 6f 60 3b 2b 84 90 3d 7d 3a bc bc
       0.011307061 0.0034245907 0.07056459 -0.022977108
000050 a2 49 8b bb 4e 4a ef 3c c4 2f 42 bc 6c 07 a6 3c
       -0.004250721 0.029210236 -0.0118522085 0.02026721
000060 57 14 06 bd aa 39 2b bb 20 f6 bd bb 09 00 a6 3b
       -0.03273424 -0.00261269 -0.0057971627 0.005065922
000070 20 6c 68 ba 5f d8 60 bc 66 de 2f bc 3d 6f 69 3c
       -0.00088662095 -0.013723462 -0.010734176 0.014247713

conv_blocks.6.running_var f4 [32]
000000 61 a3 78 3d e8 f5 31 3d 5b 35 1c 3d b5 d4 8a 3d
       0.060702685 0.043447405 0.03813682 0.06778852
000010 a6 92 43 3d 93 55 5f 3d 1b 93 9b 3d 16 89 90 3d
       0.047747277 0.05452497 0.075964175 0.07057397
000020 e6 69 71 3d 94 c8 ad 3d e6 49 01 3d 1b f1 1a 3d
       0.058938883 0.08485523 0.031564616 0.037827592
000030 1e 56 aa 3d 6f 07 86 3d 5f 0d 94 3d 8e 56 c9 3d
       0.08317207 0.065443866 0.07229113 0.09830962
000040 a3 ff 14 3d 26 ac 4d 3d 76 1b f6 3d 72 19 fa 3c
       0.036376607 0.050213 0.120169565 0.030529711
000050 69 7c 8a 3d 6d 1c 09 3d 1b 5b 2f 3d 2f 0c 2c 3d
       0.067620106 0.033474375 0.042811494 0.042003807
000060 67 b1 8a 3d dc 11 44 3d 16 e0 86 3d ff f8 99 3d
       0.06772118 0.047868595 0.0658571 0.07518195
000070 d4 11 60 3d 01 95 f6 3c 91 84 76 3d 8b fb 3a 3d
       0.054704502 0.030100347 0.06018502 0.045650046

conv_blocks.7.weight f4 [64, 32, 3, 3]
000000 73 32 b1 3c 70 5f 79 3d 2b 8d cc bb 68 59 c4 bb
       0.021630501 0.060882032 -0.0062424145 -0.0059921034
000010 c3 64 57 3c dc 71 d1 bc 46 71 e8 3d 2f c0 c0 bd
       0.013146582 -0.025566988 0.1134973 -0.09411656
000020 5d 1d ea bc 35 2c 43 bd 35 8b 5d 3d ab 9d 44 bd
       -0.028578455 -0.04764958 0.054087836 -0.048001926
000030 bb 9c 46 3c 01 b7 3c 3e 57 a6 10 3d c3 e6 18 be
       0.012122328 0.18429185 0.035314884 -0.14931779
000040 9f a5 b0 bd 21 14 d4 bb 21 18 86 bd 55 f6 a8 3d
       -0.0862534 -0.006472126 -0.06547571 0.08250109
000050 c7 df 4f 3d 78 59 94 3d 51 5c ae bd 42 63 93 3c
       0.05075052 0.07243627 -0.08513702 0.017991666
000060 ff 44 31 bc 7c ef 1b be 91 1d 1e 3d d0 0c d5 3d
       -0.010819673 -0.15228075 0.038602415 0.104028344
000070 8b e4 78 bc fe 04 0c 3d 04 7e ca bd fd 8e 94 3d
       -0.015191208 0.03418445 -0.09887317 0.07253835
000080 c0 fc 55 3d a3 65 68 3c 5f 1c f1 3d 21 8f a8 bb
       0.052242994 0.014184388 0.117729895 -0.0051440154
000090 2a f7 d0 bc 9e 76 f4 bc 5b 7d f8 3d 4f 05 f1 3d
       -0.025508482 -0.029841717 0.12133285 0.11768591
0000a0 82 4d c0 bd 16 76 d3 bc 4a f6 a3 bd 19 d3 23 be
       -0.093897834 -0.025813144 -0.0800596 -0.15998496
0000b0 e5 37 dd bc 3e 90 23 ba e6 eb b5 3d ae 30 97 3d
       -0.027004192 -0.00062394503 0.08882885 0.07382332
0000c0 4f ad 93 3d e1 80 b1 bd 08 b1 48 bc 1f d5 fc 3d
       0.0721079 -0.0866716 -0.012249239 0.12345337
0000d0 45 b8 8c bc 7f ae c4 3c 2d b2 ec be ef 2d c6 bd
       -0.01717771 0.024008987 -0.46229687 -0.0967673
0000e0 12 f1 c4 bd 52 88 05 bf 11 ec 99 bd f7 e4 be be
       -0.09616293 -0.52161133 -0.07515729 -0.3728406
0000f0 22 a2 76 bf 04 87 d9 bd 51 43 1d bf 0f c5 71 bd
       -0.96341145 -0.10621455 -0.6143084 -0.05902582
000100 28 1a b8 3d 87 cb 05 3d f5 f7 63 bd 51 cc e2 bd
       0.08989364 0.032664802 -0.055656392 -0.110741265
000110 64 70 de bc 72 dd e3 3c 25 fe 81 bd 65 f7 e4 3c
       -0.027153201 0.027815554 -0.06347302 0.027949998
000120 23 8b 78 3d ab e1 45 3d 54 bc 15 3c e3 bb f3 3d
       0.060679566 0.048310917 0.009139139 0.11901071
000130 e1 bd 63 bd f2 fc 03 bc 67 76 ba 3d 39 45 ec 3c
       -0.055601005 -0.008055912 0.09104615 0.028841602
000140 ad 01 9f 3b 7a b3 d1 3d 3d e0 3e 3d 7d b6 07 3d
       0.0048524947 0.102393106 0.04660057 0.03313302
000150 9d 8f e1 3c 7a fe 02 bd 00 1c 00 bd 6e 89 9d 3d
       0.0275343 -0.03198097 -0.031276703 0.07692228
000160 6f 2a 34 be f9 07 7c bd 1c 4d 5c bd 41 3e a9 bb
       -0.17594312 -0.06153104 -0.053784475 -0.005164892
000170 64 a0 c7 3d 30 d8 56 3d b9 00 c9 3d cb bd b6 3c
       0.09747389 0.052452266 0.09814591 0.022307297
000180 1a c2 7e 3e 95 63 05 bd f2 e1 af bd a1 d0 c5 3c
       0.24878731 -0.032565672 -0.085880175 0.024147334
000190 41 29 f3 39 19 d3 78 3b ae 6b 56 bd 9e 49 5a 3d
       0.00046379308 0.003796762 -0.052348785 0.053292863
0001a0 c5 07 a2 3c 9e 15 88 3d 6e 22 6f bd 83 55 8e 3d
       0.019779095 0.06644748 -0.058382444 0.06949904
0001b0 fa 7c 8c 3d 7a d0 41 3d f8 63 a4 bb f7 c6 ca bb
       0.06859775 0.04731796 -0.0050168 -0.0061882692
0001c0 1d cc a9 3c 01 45 01 be b9 25 2f be e0 ec 19 bd
       0.020727212 -0.12623979 -0.17104234 -0.037579417
0001d0 22 b4 9e bd f0 fa 7b 3c 2b 15 84 bb aa f1 62 ba
       -0.07749201 0.015379652 -0.0040308437 -0.00086572266
0001e0 e9 e0 05 be fa 76 30 bb de cd 39 b9 71 29 c7 bd
       -0.13074078 -0.0026926384 -0.00017719666 -0.09724701
0001f0 3b 7c 0c 3d c6 49 7b bc e2 d4 02 3d e0 36 72 3d
       0.034298163 -0.015337413 0.031941302 0.059134364
000200 06 74 fe bb 29 12 9a 3d b5 44 8d bc be ff 79 bd
       -0.007765296 0.07522995 -0.017244676 -0.06103491
000210 c5 55 ce 3d 85 00 96 bc 2b fb 01 bd 0a 43 a1 3d
       0.10074953 -0.018310795 -0.031733673 0.07874115
000220 6d fd 49 3d 95 23 2d 3b 12 92 07 3d 03 69 a1 3d
       0.04931395 0.0026418914 0.033098288 0.078813575
000230 ed 4d 0a bc 62 21 82 be 84 dd c3 3d 01 4e 3b 3c
       -0.0084414305 -0.25416094 0.09563735 0.011432172
000240 2d 47 4f bd c2 65 15 3d b3 81 a2 3c 88 eb 3f 3e
       -0.050604988 0.036473997 0.019837236 0.18742192
000250 7c db a3 3d 4b 7c 17 3d 76 29 b6 3e 5c 17 9c 3d
       0.08000848 0.03698377 0.35578507 0.07621643
000260 ae bc d5 bc a1 26 5d be e2 b1 95 bc 19 8a a4 3d
       -0.026090946 -0.21596767 -0.018273298 0.080341525
000270 3e b8 41 bd 26 12 92 bd 4d 7a 05 3e 3b f3 09 3e
       -0.047294848 -0.07132368 0.13034935 0.13471691
000280 b2 ab 9d 37 ba 78 e5 3d 02 17 f4 be f0 19 3e bd
       1.879581e-05 0.112046674 -0.47673804 -0.046411455
000290 a4 2f 05 bf 4e 9e 4c bf 60 d8 a9 bd 57 9c c0 be
       -0.5202582 -0.79929054 -0.082932234 -0.37619278
0002a0 91 c5 69 bf d1 1c fe bc d4 26 6c be cd fb ea bd
       -0.9131709 -0.0310196 -0.23061687 -0.114738084
0002b0 72 de 2a be 87 4f ad 3d 30 b0 9a 3d 8a 23 aa 3d
       -0.16686419 0.08462434 0.07553136 0.0830756
0002c0 cf 1e 6a 3d aa cd 14 3e 34 94 69 3d e4 cf 3d bd
       0.057158288 0.1453158 0.057026103 -0.046340838
0002d0 8f 27 b1 bd e7 84 24 bc 1a da 1a 3d 1c b8 95 bd
       -0.08650123 -0.010041452 0.037805654 -0.07310507
0002e0 e1 2e 29 bd 6b e7 cb bc c5 cb ba 3d 76 8e c1 bd
       -0.041304473 -0.024890622 0.09120897 -0.094510004
0002f0 b5 4c 35 bd f0 92 cd 3d 43 84 9c bc 64 35 8a 3b
       -0.044262607 0.10037792 -0.019106036 0.0042177904
000300 5e 2f 87 bd 87 4b 4b 3d a2 20 78 bd 28 fa 9d 3d
       -0.066008314 0.049632575 -0.060577996 0.07713729
000310 77 80 c9 bd 39 a6 c1 bc 81 ab 03 be 06 43 9d bc
       -0.09838956 -0.023638831 -0.12858392 -0.019196998
000320 a9 c1 d8 3b fd 77 24 be 40 db e3 3c 9d 78 17 bd
       0.006614883 -0.16061397 0.027814507 -0.03698026
000330 d8 9b 7d be f0 1b 30 bd dc aa 11 bd 09 89 f7 3d
       -0.24766481 -0.042995393 -0.035563335 0.12086684
000340 96 33 15 3e 02 a7 b8 3c a4 57 e4 3d d9 62 19 3d
       0.1457046 0.022540573 0.111495286 0.037447784
000350 d3 8b 2c bd cd 3c 04 be db de 2d 3c b1 c9 86 bc
       -0.042125534 -0.12913819 0.010612215 -0.016453596
000360 8a 93 86 3d 63 0a b1 bc d2 bf b8 3c e1 e2 03 3e
       0.065711096 -0.021611398 0.022552405 0.12879516
000370 bd 61 39 3d 95 21 8c 3b f9 41 81 3d 46 4a 6b 3d
       0.045259226 0.004276464 0.063114114 0.05744388
000380 aa d5 8d bd 84 bc bd 3c 02 d7 f4 bc a6 67 4d bd
       -0.06925519 0.02316118 -0.02988768 -0.050147675
000390 f4 e5 87 be 5a 36 b9 3b 86 0d 2f 3c d0 7b a9 3d
       -0.26542628 0.005652231 0.010684377 0.082755685
0003a0 d3 06 90 bc 8b 36 95 bc 9c 41 0d 3e d6 2d 84 3c
       -0.017581379 -0.018214485 0.13794559 0.016135138
0003b0 2c ff 19 bd 77 84 7d 3c 30 58 03 be 84 1f 4b 3d
       -0.037596866 0.015473477 -0.1282661 0.049590603
0003c0 db 73 ca 3d 3d 82 6c 3d 59 58 49 3a 17 e3 13 bc
       0.09885379 0.057741392 0.00076807063 -0.00902631
0003d0 6d c4 a3 3d 3c 34 29 3d fd 79 1a be b0 05 84 bd
       0.079964496 0.04130958 -0.15085597 -0.06446397
0003e0 23 e6 bb ba 16 a3 be 3c 78 16 95 3c b8 15 b4 b9
       -0.0014335554 0.023271125 0.01819919 -0.00034348457
0003f0 2a 6c d9 bd 01 83 29 bd 9a 30 3b bd 38 ef 87 bd
       -0.10616334 -0.0413847 -0.045700647 -0.06637424

conv_blocks.7.bias f4 [64]
000000 b5 07 6c be a8 c8 67 be da 80 b3 be 20 c1 5e be
       -0.23049815 -0.22635138 -0.35059243 -0.21753359
000010 0f 1f db be de 3d 90 be 96 dd 02 be 3c 76 60 be
       -0.42797133 -0.281722 -0.12779841 -0.21920103
000020 dd 8d 9b be 27 2e 94 be b6 2a 7a be 80 91 e4 be
       -0.3038167 -0.2894146 -0.24430355 -0.44642258
000030 46 39 e0 be 24 36 b9 be ab 99 cd bc a8 a4 95 be
       -0.43793696 -0.3617412 -0.025097689 -0.29227185
000040 13 34 69 be 5a 00 ca bd dc ca 8a be 87 77 62 bd
       -0.22773771 -0.09863348 -0.27107894 -0.05528977
000050 be 4f ee bd d2 3a 40 be b2 7b 20 be 52 24 d7 be
       -0.11636303 -0.18772438 -0.15672186 -0.42019898
000060 e2 7b d6 be 19 46 0c bd 2d f1 a8 be 2a 42 57 be
       -0.4189139 -0.034246538 -0.32996503 -0.21021333
000070 b5 8e c0 be 9f 3a cc bc 47 a8 d2 be b2 ac 4e bd
       -0.37608877 -0.024930296 -0.4114401 -0.050457664
000080 69 62 88 be b0 0b f3 bd 89 67 a3 be c5 89 ef be
       -0.2663758 -0.118674636 -0.3191493 -0.46784797
000090 33 c1 2c bd b4 b3 2c be e4 bb f7 bd 28 3a f4 bd
       -0.042176437 -0.16865426 -0.12096384 -0.11925155
0000a0 8e 2c be be 06 59 83 be 21 95 73 be 25 8d 73 be
       -0.37143368 -0.25653857 -0.23787357 -0.23784311
0000b0 9d c2 ac be 1e be 1d 3c 01 11 5a be f4 47 07 be
       -0.33742228 0.009627847 -0.21295549 -0.13211042
0000c0 88 be 98 be ff 98 87 be 49 55 72 be f1 49 c4 be
       -0.29832864 -0.26483914 -0.23665346 -0.38337663
0000d0 f2 9c 02 be e1 af 89 be 26 58 01 be 8f 35 93 be
       -0.12755182 -0.26891997 -0.12631282 -0.287518
0000e0 48 31 83 be 16 d9 34 be 5a 1b 80 be b1 20 57 be
       -0.25623536 -0.17660937 -0.25020868 -0.21008565
0000f0 78 ed 18 be da 58 b3 be c3 4e f2 be 12 a2 2e be
       -0.14934337 -0.35028726 -0.47325715 -0.17054012

conv_blocks.10.weight f4 [64]
000000 e4 7d 01 40 88 fa 00 40 13 9c 0a 40 be 5e c6 3f
       2.0233088 2.0152912 2.165776 1.5497663
000010 c2 f8 c9 3f 82 64 e1 3f 73 ea be 3f 42 d9 e1 3f
       1.577904 1.7608798 1.4915298 1.7644427
000020 5b 29 fb 3f 62 21 ec 3f 09 4c c0 3f 54 7d 08 40
       1.9621996 1.8447688 1.5023204 2.1326494
000030 63 b6 f8 3f 44 89 d8 3f 2d c9 a1 3f c0 7a ec 3f
       1.943066 1.691689 1.2639519 1.847496
000040 1a 6e df 3f 34 02 c1 3f 9e aa d4 3f 56 82 d2 3f
       1.7455475 1.5078797 1.6614568 1.6446025
000050 d9 58 d6 3f d8 e9 03 40 2a b4 fe 3f db 36 de 3f
       1.6745864 2.0611477 1.9898732 1.736049
000060 d1 b7 0e 40 fe b1 ca 3f 14 98 e1 3f 51 7d ed 3f
       2.2299693 1.5835569 1.7624536 1.8553869
000070 41 81 b9 3f f8 09 d1 3f c6 0d c7 3f a4 3d eb 3f
       1.449257 1.6331167 1.5551078 1.8378186
000080 bf 8e e0 3f 42 c3 d5 3f a0 f3 e2 3f 90 2d 1b 40
       1.7543563 1.6700213 1.7730598 2.424656
000090 50 46 fe 3f 3d 02 ef 3f 5c 9c db 3f e1 51 e4 3f
       1.9865208 1.8672558 1.7157092 1.7837487
0000a0 8d ca e8 3f 32 d4 d9 3f f0 18 b9 3f 02 9b b5 3f
       1.8186814 1.7017882 1.4460735 1.418793
0000b0 62 6c eb 3f 0f 1f cd 3f b0 75 b9 3f f1 ad d7 3f
       1.8392451 1.6025103 1.448904 1.6849958
0000c0 08 9a c4 3f 53 dc 03 40 47 16 f0 3f 35 21 fb 3f
       1.5359507 2.0603225 1.8756799 1.9619509
0000d0 60 83 ca 3f a5 b6 f3 3f 3d 99 cb 3f 0a 08 f3 3f
       1.5821342 1.9040114 1.590614 1.8986828
0000e0 c5 25 cd 3f 02 00 f8 3f ee 2b fa 3f c1 a8 f1 3f
       1.6027151 1.9375002 1.9544656 1.8879625
0000f0 dd 63 02 40 bf 3b fb 3f fa df e9 3f 36 91 f3 3f
       2.0373452 1.9627608 1.8271477 1.902869

conv_blocks.10.bias f4 [64]
000000 50 43 c9 3d bf e1 82 3e 65 fd 33 bd c4 94 8a 3d
       0.09827292 0.25562856 -0.043942828 0.06766656
000010 42 01 a6 be c6 82 e6 3b 77 40 a4 3d c5 d1 21 3f
       -0.32422835 0.0070346324 0.08020108 0.6321071
000020 a6 5a bc 3e 30 69 37 be ef 08 8c 3e bf a6 2d 3d
       0.3678791 -0.1791122 0.27350566 0.04239535
000030 3f 6b 1b 3f 49 dc b8 3d ce 4c 57 bd 41 19 81 3e
       0.6071052 0.09026391 -0.05256348 0.2521458
000040 1a bb 68 be ec d2 28 be 21 12 38 3e d2 3f 8c 3e
       -0.22727624 -0.1648671 0.17975666 0.2739244
000050 91 68 d6 3c 7a 4b 5d 3e c1 6c 10 3e ae 25 d2 3d
       0.026172908 0.21610823 0.14103986 0.10261093
000060 3a 6d 9c 3e 7a 82 24 be 9a fe 51 3f c8 2b 1b 3e
       0.30552083 -0.16065398 0.82029116 0.1515342
000070 cc 0f 11 be 33 f8 1d be 53 b0 29 3e d6 d1 1e be
       -0.14166182 -0.15426712 0.16571169 -0.15509734
000080 84 d8 ba 3e e7 66 f3 3e 5f 10 05 3b 13 bb 9e 3e
       0.36493313 0.47539446 0.0020303947 0.310021
000090 48 f5 03 bf 98 6d 72 be 8a a2 a2 bd a3 45 a7 3e
       -0.51546144 -0.23674619 -0.07941158 0.32670316
0000a0 a2 b0 4d 3e 0e c3 b6 3d 86 1d af bc be 6c a6 bc
       0.20086911 0.089239225 -0.021376383 -0.020315524
0000b0 f3 c8 db bd 46 97 0c 3d 1e 73 a6 3d 71 6f a5 3e
       -0.107316874 0.034323953 0.081274256 0.32311586
0000c0 a2 d7 ae 3d 5e f3 24 be 2c a1 f8 3e f4 56 bc 3e
       0.085372224 -0.16108462 0.48560464 0.3678509
0000d0 95 b2 30 3f d4 f6 cb 3e 74 6c 37 3e 42 1c 89 bd
       0.69022495 0.39836752 0.17912465 -0.06694843
0000e0 2c aa 27 3e 41 b0 e7 bb ae d8 a7 3e 12 7f 70 3a
       0.16373509 -0.0070705716 0.327825 0.00091742084
0000f0 df 51 2b bd ac 08 27 3f 51 6d 95 bb 94 85 82 3d
       -0.041826125 0.6524761 -0.0045601507 0.06373134

conv_blocks.10.running_mean f4 [64]
000000 4d 4a e0 3c af 1d 0e 3e 19 f9 1e 3d 69 87 80 bd
       0.02737918 0.13878511 0.038811777 -0.062758274
000010 90 83 fd 3d ea fb 9f 3d 31 01 0b 3e 75 b2 b1 3d
       0.12378609 0.07811721 0.13574673 0.08676616
000020 6d 7d af 3d 01 c0 24 bd c8 f0 9c 3d 9e 82 ab 3d
       0.08568845 -0.04022217 0.07663113 0.083745226
000030 f8 67 d0 3d c0 87 a2 3d 60 c7 07 3f f0 77 a7 3e
       0.101760805 0.079360485 0.530386 0.32708693
000040 70 ee 8a 3d f3 b2 27 bd 41 e1 67 3e e0 c9 2e 3d
       0.067837596 -0.040942144 0.22644521 0.04267299
000050 6e b5 e3 3d 64 22 6e 3d 36 6b 8c 3d 89 55 b6 3d
       0.11118589 0.058138266 0.06856386 0.08903033
000060 69 2a dc 3d b2 df 9c bd a5 53 38 3e 21 55 b2 3d
       0.107502766 -0.07659854 0.18000658 0.08707643
000070 07 af 84 3d b4 75 eb 3d 9c 67 68 3d 81 df 4d 3d
       0.06478696 0.114970595 0.056739435 0.050261978
000080 b7 03 e7 3d 15 a5 f2 3d b1 41 3d 3e 83 6e 0e 3f
       0.112800054 0.11847893 0.1848209 0.5563738
000090 fb 62 e4 3d 67 e7 29 bd 6f d8 41 3e 3a 11 10 3c
       0.111516915 -0.041480448 0.18930219 0.00879317
0000a0 01 4f 30 3d 83 ef e8 3c 68 4d 83 3d 9d 8b 2a 3e
       0.043044094 0.02843452 0.064112484 0.1665482
0000b0 66 23 ef 3d 1a 49 85 3d 50 e1 be 3d 12 b3 69 3d
       0.116766736 0.06508084 0.09320319 0.05705554
0000c0 df fa b2 3d d7 75 32 3d d8 b0 b8 3d 27 b5 14 3e
       0.08739256 0.043569412 0.09018105 0.14522229
0000d0 70 ee 9d 3d ae e8 29 3c cb 3d da 3d f3 bb 0b bd
       0.07711494 0.010370417 0.10656317 -0.03411479
0000e0 ad 18 da 3d fa c0 11 bd 4a fc 78 3d d1 0a 54 3d
       0.10649238 -0.035584427 0.060787477 0.051768128
0000f0 1d 13 1e 3d 90 3d 92 3e 97 76 7c 3d 78 6e 80 bd
       0.038592447 0.28562593 0.061636534 -0.0627107

conv_blocks.10.running_var f4 [64]
000000 9a d7 87 3e 6f 29 f3 3e e0 f9 99 3e 9d 12 52 3e
       0.26531678 0.4749255 0.30073452 0.20514913
000010 c8 0d 85 3f ac 6d 0a 3f 2e 20 00 3f 2f 59 d6 3e
       1.0394831 0.54073596 0.500491 0.41864917
000020 b2 37 1d 3f 69 9e 7e 3e 76 87 3d 3f a1 f7 24 3f
       0.6141311 0.24865116 0.7403482 0.6444035
000030 cc bf 1d 3f 0b 42 70 3f 6e 01 95 3f d9 73 cf 3f
       0.61620784 0.93850774 1.1641061 1.6207229
000040 26 a1 ce 3e 83 12 44 3e b4 a1 9c 3f 9a 8f be 3e
       0.40357322 0.19147687 1.2236848 0.37218934
000050 1b 58 2b 3f 90 34 b7 3e 33 2f b5 3e 47 4a ec 3e
       0.66931313 0.3578229 0.35387573 0.4615042
000060 1a 27 3f 3f b2 36 dd 3e b1 d0 06 3f 48 fa b7 3e
       0.7466904 0.43205792 0.5266219 0.35933137
000070 f3 98 3c 3f 4f 7d 8d 3e ec 5c 0d 3f c2 5b e3 3e
       0.7367088 0.27634665 0.5521991 0.44405943
000080 2a ac 0e 3f 34 20 0a 3f 49 c2 23 3f df 0e 04 40
       0.5573145 0.5395539 0.6396833 2.0634077
000090 53 17 ad 3e 93 e6 61 3e 54 88 0e 3f 74 be 9c 3e
       0.33806857 0.22060613 0.5567677 0.30614054
0000a0 37 75 10 3f 54 d3 84 3e db 7a 32 3f b1 a2 27 3f
       0.56428856 0.2594248 0.6971871 0.6548262
0000b0 48 23 c9 3e 2e ec ae 3e fa 33 f0 3e d3 35 a7 3e
       0.3928473 0.34164566 0.46914655 0.32658252
0000c0 23 e9 3b 3f 3e 5d d6 3e ff d0 cb 3e 80 2b 46 3f
       0.73402613 0.41868013 0.3980789 0.77410126
0000d0 88 8c 20 3f 27 b6 56 3e 64 bb c8 3e 54 5e 91 3e
       0.62714434 0.20967923 0.39205468 0.2839228
0000e0 fd 29 fc 3e e2 65 85 3e c3 19 b1 3e db 64 85 3e
       0.49250785 0.26054293 0.34589967 0.2605351
0000f0 7a 43 f6 3e a9 db 80 3f 85 c3 f8 3e 9c 28 5c 3e
       0.48098356 1.0067035 0.4858667 0.21499866

conv_blocks.11.weight f4 [128, 64, 3, 3]
000000 a0 42 64 bd 0e 5b 65 3e c4 a5 0c bd 48 0d 00 bc
       -0.0557276 0.22398016 -0.034337774 -0.0078156665
000010 0d 14 04 3e 87 0c 29 3e 26 1c 98 3e dd 84 1e bc
       0.12898274 0.16508685 0.29708976 -0.009675232
000020 66 62 f5 bd 7e a9 93 3d 35 81 76 3d 27 99 35 3e
       -0.11981659 0.072100624 0.060181815 0.17734204
000030 88 f2 ba 3e 75 83 73 3d 00 b7 1c 3c 20 4e 7b bd
       0.36513162 0.05945154 0.009565115 -0.061353803
000040 00 49 42 3e 55 59 3d 3c a1 35 22 be 4e ef e8 3e
       0.1897316 0.011556943 -0.1584077 0.45495075
000050 2f ca 67 be be 2b c6 3e 6f dc 96 bd d0 61 fd bc
       -0.2263572 0.38705248 -0.07366263 -0.03093043
000060 87 41 78 3d 78 fd c8 3b 5c 9c b5 bc 9c 4c 8b be
       0.060609367 0.0061337315 -0.022169285 -0.27206886
000070 5d e5 f3 be d5 dd b6 bd 38 04 f1 3d ea 42 7a bd
       -0.47635928 -0.0892903 0.11768383 -0.06109897
000080 29 ac 13 3e d4 50 ee 3d 9d 06 5b bd 95 00 13 3d
       0.14421143 0.116365105 -0.053473104 0.035889227
000090 02 2b 4b 3e d0 7c 93 3e 3c ea c6 bc 4f a1 0b be
       0.19840625 0.28806162 -0.024281614 -0.13635753
0000a0 b3 a8 c5 3e 5e f5 6c 3e 74 be 33 be ae bf f4 3d
       0.3860527 0.23140475 -0.17553121 0.119506225
0000b0 b2 7b 7e 3d a6 66 1c 3d 0f b8 0f bc b4 7a 15 bd
       0.062129684 0.03818383 -0.00877191 -0.036493972
0000c0 a7 33 52 3e b7 ca d5 bc 8a aa 46 3d 4c ba 8d 3b
       0.20527516 -0.026097639 0.048502482 0.004325187
0000d0 5b e3 e7 3d b0 0e b0 bc 6e bd 3d 3d 54 6d 81 be
       0.113226615 -0.021491379 0.046323232 -0.25278723
0000e0 4c 82 72 3d 7a 44 20 bd 46 22 b1 3c df 41 12 3e
       0.059206292 -0.039127804 0.021622788 0.1428294
0000f0 ed 81 58 bd d6 71 46 3d 89 ff 2f 3d ef e0 e0 3d
       -0.052858282 0.048448406 0.042968307 0.10980403
000100 98 24 2b bd 71 b5 0f be 3e dc a4 3d 98 bb a1 3c
       -0.041782945 -0.14034058 0.0804982 0.019742772
000110 41 dc 24 bd f5 b3 35 3e 3b 80 20 3d 1d 86 d4 bc
       -0.040249113 0.1774443 0.03918479 -0.025942856
000120 a7 e2 cb bd ca 0c ac 3e b4 cd 0f be 0d 35 16 3e
       -0.0995534 0.33603507 -0.14043313 0.14668675
000130 a3 47 11 be 76 2e e6 3b 28 96 3d 3e bf 92 fe bb
       -0.14187483 0.0070245815 0.18514311 -0.0077689583
000140 47 0e 58 bd cf fc 28 be 31 22 92 bd 6d f4 ce 3e
       -0.05274799 -0.16502689 -0.07135428 0.40420857
000150 12 10 16 3b 35 54 d6 3e dd 25 c5 3d a2 06 a1 bc
       0.0022897762 0.4186112 0.096263625 -0.019656483
000160 b4 cd 20 be 64 55 87 bd 0e ae 3e be f6 2d a0 3d
       -0.1570347 -0.06608084 -0.18621084 0.07821266
000170 d5 f0 25 be 63 aa 8d 3e 36 53 f5 bc a0 67 1c be
       -0.16205151 0.27669057 -0.029946905 -0.15273905
000180 9f d5 2c 3d 05 44 a6 bd 82 f7 76 3b 51 54 d0 3e
       0.042195912 -0.081184424 0.0037684147 0.40689328
000190 b4 c2 68 be dd a7 05 be 89 79 0d be 60 4d 83 3e
       -0.22730523 -0.13052316 -0.13815893 0.2564497
0001a0 05 10 d4 3c bd 45 93 bc 8e 1e 47 3e 65 e4 cc bc
       0.025886545 -0.01797759 0.1944525 -0.02501125
0001b0 e6 75 8f be 26 d9 99 3c 78 14 d1 3d eb f5 82 3e
       -0.28019637 0.018780302 0.10208982 0.25578246
0001c0 84 56 bf 3e f6 f7 16 bd be 21 35 3e 2f 6a bf bc
       0.37370694 -0.036857568 0.17688653 -0.023366062
0001d0 da 1d 91 bd 66 3b a7 3c ad b6 16 bd 0b 12 63 3d
       -0.07085772 0.020414066 -0.036795307 0.05543713
0001e0 0c dc 48 bd 78 34 36 3e 89 42 0d be b5 0a 8a bd
       -0.049037978 0.17793453 -0.13794912 -0.067403235
0001f0 d7 30 96 3d ca d9 99 3c 78 e0 79 3d 75 5c ea bd
       0.07333534 0.018780608 0.061005086 -0.11443416
000200 a8 2b b4 bd 53 17 97 3d 34 3e ef 3d 56 57 b7 bc
       -0.08797389 0.073774956 0.11681786 -0.022380512
000210 f3 52 73 bd d5 52 3a 3d ef 4c cc 3c b3 86 ec bd
       -0.05940528 0.04548915 0.024939029 -0.11549129
000220 4a 9d b7 3c 23 c5 1b bd 6d 19 46 3d 3b d2 33 3e
       0.022413868 -0.0380298 0.04836409 0.17560665
000230 e7 d1 ac bc d6 19 ae 3d 42 02 fc 3d f4 69 a5 bd
       -0.021096183 0.085010216 0.12305118 -0.080768496
000240 a3 60 7f 3e 01 83 f5 bc 89 0a 2c bc 0c 7c 3a 3e
       0.24939208 -0.029969694 -0.010500559 0.18211383
000250 ce 8a 54 be 0b b1 01 3e 95 e2 8e be 88 c6 9c bc
       -0.20756075 0.12665193 -0.27907243 -0.019137636
000260 f7 6c 8c 3d 2d b8 0a bd b2 d4 ea be c5 89 d3 bd
       0.06856721 -0.03386705 -0.458654 -0.10329012
000270 44 f5 df bd ca ae 86 be df a9 ac bd 5c 98 7b 3d
       -0.109354526 -0.26305228 -0.08430838 0.061424598
000280 19 ad 42 3d e1 e1 0e be 43 28 10 bd ea fc c6 3d
       0.04752836 -0.13953353 -0.035194647 0.09716208
000290 5d c8 e1 bc 47 b4 9c 3e 6c 2c 3f 3c 5d 4d 2c bd
       -0.027561361 0.3060629 0.011668306 -0.042065967
0002a0 e0 af 28 3e 20 11 99 3d f6 31 75 3c f9 4e 50 3d
       0.16473341 0.074739695 0.014965525 0.050856564
0002b0 51 f2 2b 3e 6b db ab 3d d8 e7 37 3e 03 88 f9 bd
       0.16791655 0.0839146 0.17959535 -0.12184145
0002c0 6e db ea ba bb a6 79 3a 2e b8 28 be 59 84 ec 3c
       -0.0017918178 0.0009523441 -0.16476509 0.028871702
0002d0 09 92 c0 bd 84 ca 0c be 5c e6 9e bc 07 6f 23 bb
       -0.09402854 -0.13749129 -0.019396953 -0.0024938004
0002e0 e6 4c ee bd 31 fc 0c be 08 d1 cd 3d 68 32 47 bd
       -0.11635761 -0.13768078 0.10049635 -0.048632056
0002f0 55 f2 31 be 1b 78 93 bd 71 9f 15 3f d8 90 25 be
       -0.17377599 -0.07200643 0.58446413 -0.16168535
000300 b0 56 2d 3e 9a d1 86 bd b1 44 8a 3c 9a 2d 80 3e
       0.169276 -0.06582947 0.016878458 0.2503479
000310 ca 7f 33 3b a4 73 97 3c ea 6e 8e bd 87 a6 53 bc
       0.00273894 0.018487759 -0.06954749 -0.012918121
000320 08 f6 c9 bd 9b a0 e5 3d ba 05 be bd 05 30 a2 bc
       -0.0986138 0.11212274 -0.09278436 -0.019798288
000330 40 7f e3 3d 16 cd 80 3d 9b 49 95 bd 2f 05 a3 be
       0.111082554 0.06289117 -0.0728943 -0.31839892
000340 26 71 a1 3d e0 6e ad 3d 76 f9 a5 bd 71 36 22 3d
       0.078829095 0.08468413 -0.081042215 0.0396027
000350 ff 7b e0 3c be f1 ba bc e4 f9 96 3d cd 7c 2c 3d
       0.027402876 -0.02282035 0.073718816 0.042111207
000360 fe 79 1b bc 10 96 85 be 84 d6 06 bd 90 ec 7c be
       -0.009489534 -0.2609105 -0.03291942 -0.24699616
000370 dd 5f 5b be 49 cc a7 bd bc 1f 32 bc a6 2f 2f 3e
       -0.21423288 -0.08193261 -0.010871824 0.1710802
000380 3f 79 7d bc af cb 7a 3c 76 66 aa bc f4 d3 96 bd
       -0.015470802 0.015307351 -0.02080081 -0.073646456
000390 5e cd be be d7 a8 cc bc 21 dd 32 be 48 ea 9e be
       -0.37266058 -0.024982853 -0.17467166 -0.31038117
0003a0 86 12 20 be ca 5d 9f bd 5d f4 1d be 69 ae 13 3e
       -0.15632066 -0.07781561 -0.15425248 0.14422001
0003b0 31 d3 b3 bd 3f 67 48 3e 06 ae c6 bd d0 94 07 be
       -0.08780516 0.19570635 -0.09701161 -0.13240361
0003c0 3a 68 d8 3d df f0 cd bb b8 22 6f bd 6e 26 da bd
       0.10566755 -0.0062848176 -0.05838272 -0.10651861
0003d0 76 77 85 3e 3c 5a 9a 3d 11 10 de bc 0f 1c c9 3b
       0.26067704 0.07536742 -0.02710727 0.006137378
0003e0 e7 ba bb 3d 48 ff d6 3a 72 0c ac bd f7 59 8a 3c
       0.09166508 0.0016402984 -0.08400811 0.016888602
0003f0 39 f5 40 3d bb 9c 99 3e cf 91 14 bc 4e 24 36 be
       0.047108863 0.30002388 -0.009067967 -0.17787287

conv_blocks.11.bias f4 [128]
000000 f4 4b c6 3c c7 ca 40 be cc 7f 56 be 23 ab 02 bd
       0.02420614 -0.18827353 -0.20947188 -0.03190149
000010 3a 35 89 be 5e 53 89 be be 7e 3c 3d 1a 93 7a be
       -0.2679842 -0.26821417 0.04601931 -0.24470177
000020 3b c3 93 be 5e fa 5f be 5c f3 63 bd 61 a6 07 be
       -0.28859887 -0.21872851 -0.055652007 -0.13247062
000030 1e 3c be be 72 18 a8 be e8 b1 33 be 46 be 96 bd
       -0.3715524 -0.3283115 -0.17548335 -0.073605105
000040 47 9b aa be 4e 71 ba bd 1d 76 88 be fb 5a 18 3e
       -0.33321592 -0.091036424 -0.26652613 0.14878456
000050 19 da 23 be 6a d7 7c be 8d 99 82 be 9c b1 2a be
       -0.16001166 -0.24691549 -0.25507775 -0.16669315
000060 39 89 78 be f3 96 8f be b1 10 8e 3d 4f 09 62 be
       -0.24271096 -0.28044853 0.069367774 -0.22073863
000070 15 03 34 bd 7a 3b fe bd af f9 82 be 66 2c d5 bd
       -0.04394825 -0.12413688 -0.25581118 -0.10408859
000080 dc 32 a2 bd 69 ed 0a be de 9d 17 be ae b6 27 3d
       -0.07919857 -0.13567127 -0.14806315 0.0409457
000090 28 0e 05 be df 4d 8d be 88 61 1a be 6e a3 82 be
       -0.12993681 -0.27598473 -0.15076268 -0.25515312
0000a0 c4 e2 71 bd 6d c0 8c be 02 bc eb bd 8d e4 13 be
       -0.05905415 -0.2749056 -0.11510469 -0.14442654
0000b0 28 b4 0a bd 89 6d f9 bd a5 c1 02 be 3e 3b e2 bd
       -0.033863217 -0.12179095 -0.12769182 -0.11046456
0000c0 97 eb 87 bd 17 f7 21 be c2 0c 97 bd 1f 89 a6 be
       -0.06636732 -0.15816914 -0.0737548 -0.3252649
0000d0 67 0b 15 be d2 b4 19 3e 24 89 36 bd cb 75 87 3a
       -0.14555131 0.15010384 -0.04456438 0.0010334788
0000e0 86 5b 59 be 4e 6b 4e be ba c3 aa be 6d 04 87 bd
       -0.2122632 -0.20158121 -0.33352453 -0.06592641
0000f0 0d b7 6d be 6a 93 72 be a6 34 6b 3b e7 50 48 be
       -0.2321436 -0.23689047 0.0035889535 -0.19562112
000100 06 48 f7 bd 0c e9 bc be 64 d1 db bd a6 0d c7 bd
       -0.12074284 -0.3689655 -0.107332975 -0.097194
000110 40 64 25 3e 90 35 8d be d9 33 92 3b e1 41 aa be
       0.16151524 -0.27579927 0.004461747 -0.33253387
000120 c9 7f 99 be b1 ea b3 be b2 7e cd be 06 c9 86 be
       -0.29980305 -0.35139993 -0.40135723 -0.26325244
000130 c3 5f 77 be f4 3f 2f 3d b6 e3 2b be 57 b6 00 bd
       -0.24157624 0.0427856 -0.16786084 -0.031423893
000140 24 73 87 be 5b a6 08 be 1e 0d bf 3c 74 6f be bd
       -0.26455033 -0.1334471 0.023321684 -0.09298602
000150 66 54 09 3d ab 0e 75 bd f9 8f b9 bd 2e 8e 36 be
       0.033527754 -0.05982844 -0.09060664 -0.17827675
000160 75 df 57 be 39 ab 3f be 1c 44 1c be 07 6f 2a be
       -0.21081336 -0.1871766 -0.15260357 -0.16643916
000170 05 8a 9e be d9 19 c9 bd 4f 6c a7 be 81 48 03 be
       -0.30964676 -0.09819383 -0.3269982 -0.12820627
000180 3c 19 a6 bd 13 44 65 3e b9 8c 67 be 19 2d c0 be
       -0.08110282 0.2238925 -0.22612275 -0.37534407
000190 3f 76 8e bd c0 10 69 be 58 87 a3 3d f0 60 31 be
       -0.069561474 -0.22760296 0.07984799 -0.17322135
0001a0 e8 72 44 bd 8c 79 ba bd 33 aa 80 be 2d b9 f0 bd
       -0.047961146 -0.091052145 -0.25129852 -0.117540695
0001b0 42 6f 29 bd ac 28 0f be eb c9 d0 be 67 0d b0 be
       -0.04136587 -0.13980359 -0.4077905 -0.34385225
0001c0 8f bb f5 bd e5 46 50 bd 0d 5d 3a be 4c e8 d4 be
       -0.119986646 -0.05084886 -0.18199559 -0.41583478
0001d0 ba 1c d0 bd ac 7b f9 3d d1 c8 22 be af fd df be
       -0.10161729 0.12181792 -0.15896918 -0.43748233
0001e0 42 9e ad bd c1 47 d3 3c fd 73 39 be 71 57 ab 3d
       -0.08477451 0.02579105 -0.18110652 0.083662875
0001f0 db d7 3a bd 6f 80 24 be 0a ba 45 be c1 ac 92 be
       -0.045616012 -0.16064619 -0.1930925 -0.28647426

conv_blocks.14.weight f4 [128]
000000 04 ed c2 3f 7f bc 0e 40 92 d9 e6 3f 49 e6 d0 3f
       1.5228581 2.230255 1.8035147 1.6320277
000010 ac 90 e9 3f b4 63 e2 3f d8 47 e0 3f df e5 09 40
       1.8247275 1.7686677 1.7521925 2.1546552
000020 f5 bc d7 3f 49 18 c8 3f 53 77 cb 3f b8 03 de 3f
       1.685454 1.5632411 1.589579 1.7344885
000030 54 77 bc 3f 31 d6 de 3f 52 32 f0 3f 26 5a cc 3f
       1.4723916 1.7409116 1.8765357 1.5965011
000040 a8 72 ea 3f 07 3d e2 3f b7 fb e2 3f f0 97 b7 3f
       1.831624 1.7674874 1.7733067 1.4343243
000050 16 d5 e9 3f 1d b1 ce 3f 9a 6b db 3f 19 01 d9 3f
       1.8268154 1.6147801 1.7142212 1.695346
000060 5a 98 d2 3f 73 07 e5 3f 18 2c ba 3f d0 0b c8 3f
       1.6452744 1.7892898 1.4544706 1.5628605
000070 52 fc c3 3f ff cf 45 40 5a 3f d9 3f f4 73 d4 3f
       1.5311377 3.09082 1.6972458 1.6597886
000080 9d 86 c2 3f aa bd bf 3f 51 d8 bc 3f 6e a9 ab 3f
       1.5197331 1.4979756 1.4753515 1.3411081
000090 96 0d bd 3f 2a c4 c6 3f 5e 00 c7 3f e9 32 e1 3f
       1.4769771 1.5528615 1.5546987 1.7593662
0000a0 c9 84 11 40 6c f9 ee 3f 1d 33 c6 3f d6 9a c1 3f
       2.2737296 1.8669868 1.5484349 1.5125377
0000b0 48 ba cb 3f 1e a4 c1 3f e4 e7 b5 3f f1 e2 c7 3f
       1.5916224 1.512821 1.4211392 1.5616132
0000c0 d4 e9 d5 3f cb 80 cb 3f 43 44 ca 3f 26 7b dc 3f
       1.6711984 1.589868 1.5802082 1.7225082
0000d0 2c 9c b8 3f d5 05 c3 3f 7c ff bf 3f 55 86 c0 3f
       1.442266 1.5236155 1.4999843 1.5040995
0000e0 8b 0e d1 3f 6c 71 f0 3f 1a 4b 9d 3f fa 6a db 3f
       1.6332563 1.8784614 1.2288544 1.7142022
0000f0 9d be b0 3f 2f c8 e1 3f 6b c9 ad 3f fe a6 d4 3f
       1.380817 1.7639216 1.3577093 1.6613462
000100 e4 bb d5 3f bc 30 d8 3f c1 37 c1 3f f5 2b f9 3f
       1.6697965 1.6889873 1.509514 1.946654
000110 d6 13 b4 3f 5b 06 db 3f e4 f2 cb 3f 0c 25 f1 3f
       1.4068553 1.7111315 1.5933499 1.8839431
000120 43 6e eb 3f 92 6b cf 3f df 5c d9 3f f6 32 d1 3f
       1.8393024 1.6204703 1.6981467 1.6343677
000130 06 dc f1 3f 65 e7 d3 3f 80 25 d4 3f 38 62 cd 3f
       1.8895271 1.6554991 1.6573944 1.6045599
000140 1f 26 fa 3f 59 f2 c0 3f d8 56 c7 3f 4f ea ec 3f
       1.9542884 1.5073959 1.5573378 1.8509005
000150 7d 55 c9 3f 2c 53 cc 3f e6 b0 c9 3f 0e 7e b9 3f
       1.5729214 1.5962882 1.575711 1.4491594
000160 f3 d5 ce 3f 2a 9b 04 40 08 4c ef 3f e0 3b 02 40
       1.6159042 2.0719705 1.8695078 2.0349045
000170 af 09 f1 3f f0 22 cb 3f c6 a3 d7 3f 76 39 f3 3f
       1.883108 1.5870037 1.6846855 1.9001911
000180 b3 44 cc 3f 0e 03 b7 3f 50 74 fc 3f 7a ab e3 3f
       1.5958465 1.4297807 1.9722996 1.7786705
000190 71 12 d6 3f da 5e d4 3f a4 97 86 3f 82 5b d8 3f
       1.6724378 1.6591446 1.0515027 1.6902926
0001a0 6c cb 8e 3f c9 3e b9 3f e9 87 c8 3f 2f e2 2d 40
       1.115583 1.4472286 1.5666476 2.7169302
0001b0 78 6f b4 3f 0a ec dd 3f b0 fd d8 3f 10 1b ef 3f
       1.4096518 1.7337658 1.6952419 1.8680134
0001c0 fd 1a c1 3f 57 dc c7 3f 0d 82 dd 3f c6 02 d3 3f
       1.5086361 1.5614117 1.7305313 1.6485221
0001d0 ef ec de 3f c5 c2 41 40 f3 c9 1b 40 3b 98 de 3f
       1.7416056 3.0275128 2.434201 1.7390207
0001e0 4f 21 d5 3f ae b8 c6 3f e1 66 d5 3f d3 d1 be 3f
       1.665079 1.552511 1.6672021 1.4907783
0001f0 2d f8 c6 3f bf f6 f9 3f 60 bd 06 40 9d a2 03 40
       1.5544487 1.9528426 2.1053085 2.0568001

conv_blocks.14.bias f4 [128]
000000 70 5f 6a bc 08 ed 0a bd 44 1e e5 3b aa ee be bc
       -0.014304981 -0.033917457 0.0069921333 -0.023307163
000010 61 08 53 3d fa 3a 02 bd 6a 7b 1f 3d 27 64 07 bd
       0.051521663 -0.031794526 0.038936056 -0.033054497
000020 0d df d3 bc 7d 10 e9 3c 1e f4 fc bc 27 d5 96 3c
       -0.025863195 0.028450245 -0.030878123 0.018412186
000030 ce 93 fb 3c b1 00 98 3c 29 56 82 bd a6 64 6b 3c
       0.030710127 0.018555017 -0.0636409 0.014367258
000040 1f 8d 75 bd 06 65 4c bd 57 43 27 bd b2 f0 7a bd
       -0.059949037 -0.04990103 -0.040835705 -0.0612647
000050 24 ee b3 3a 6a 76 25 bd a7 64 7f bd 6d ce 95 3c
       0.0013727588 -0.04039613 -0.06235185 0.018286908
000060 40 3d 3f 3d f5 4e 14 3c 4d fc 7b bd f3 a8 61 3d
       0.046689272 0.009052028 -0.06151991 0.055092763
000070 c9 57 68 3c 30 f7 ee 3c 60 dd e7 3c 50 f9 6b bd
       0.014181086 0.029170603 0.028303802 -0.05761081
000080 62 06 e3 3c f0 62 7d ba d0 eb f4 bc 2c a1 7d bb
       0.027713004 -0.0009665927 -0.0298976 -0.0038700802
000090 bb 38 be 3c fd d9 58 3d d0 e9 83 bd 39 58 b6 3c
       0.02322041 0.052942265 -0.064410806 0.022258865
0000a0 1a ff 87 3c 7a 62 83 bd fb f7 6b 3c 63 df 72 bd
       0.016601134 -0.06415267 0.014402385 -0.05929507
0000b0 5c af 55 bd 51 1a 72 bc c1 7e 9b bc 4a b5 05 3d
       -0.05216919 -0.014776782 -0.01898134 0.032643594
0000c0 d8 6d 50 3c 85 74 23 bd 60 39 9e 3c 3e 09 81 bd
       0.012721501 -0.039906044 0.019314468 -0.06300591
0000d0 da 86 d8 bc 0d 41 a4 bc 90 90 d1 3c 80 a5 93 bc
       -0.02643149 -0.02005055 0.025581628 -0.018023252
0000e0 c2 50 fa bc 59 24 e8 bc 48 2d b3 3d 66 c8 6f bd
       -0.030556086 -0.028337644 0.08748871 -0.058540724
0000f0 c2 90 0c 3d 06 e7 c9 3b c0 bf 81 3c af f1 23 3d
       0.03431774 0.0061615733 0.015838504 0.04002541
000100 8f 0a ff bc 7b 07 11 bd 53 84 52 bd ce 6e 6e bc
       -0.031132964 -0.035407525 -0.051395725 -0.014552785
000110 e2 e1 be bc e4 2a 6e bd 96 21 2c bd b2 88 a2 3c
       -0.023301069 -0.058146372 -0.042024218 0.019840572
000120 88 15 ce 3c a6 03 f0 bc c0 02 3e 3d 31 ee 95 bd
       0.025156751 -0.029298615 0.04638934 -0.07320822
000130 53 92 f1 3c 56 b7 4e bc 77 61 02 bd f2 ac 0a 3d
       0.029488718 -0.012616953 -0.03183123 0.03385634
000140 48 22 a4 bd e2 ee 50 3d ab b9 fc bc f6 f5 08 bd
       -0.08014351 0.051009066 -0.030850252 -0.03343769
000150 94 a3 ae 3c 6a 4d 08 bd 03 3a 0e bd 25 92 53 bd
       0.021318235 -0.033276953 -0.034723293 -0.051653046
000160 16 32 d2 3c ee c4 c8 bc 42 be cd 3b 0c fc 67 bd
       0.025658648 -0.024507966 0.006278784 -0.056636855
000170 13 5c cb 3c 1c 44 de 3c d4 f5 0e bc 7b 0c 45 3d
       0.024824178 0.027132086 -0.008725602 0.048107605
000180 ec ca c4 3c ab 30 86 bd 6e c8 82 bd 32 ea 85 bd
       0.024022542 -0.065522514 -0.06385885 -0.0653881
000190 8f be 9a bc 6c a5 09 bd b8 ac d2 3b b5 d9 3a bd
       -0.018889694 -0.033605024 0.006429281 -0.045617778
0001a0 55 a8 92 3c de 4f 47 3d c2 79 85 bd 0f e2 d9 3c
       0.017902533 0.04866015 -0.06517364 0.026597051
0001b0 e5 65 34 bd 9c f8 17 bd 97 e5 3e 3d 67 37 83 bd
       -0.044042487 -0.037102327 0.046605673 -0.064070515
0001c0 65 a8 0d bd f2 ac 45 3d 30 89 d5 bc 2b 43 5e 3d
       -0.03458442 0.048260637 -0.026066393 0.054263275
0001d0 de db aa 3c 73 fa ed bc 2d a1 c3 3c 4e ae 3b 3c
       0.020856794 -0.029050088 0.023880566 0.011455132
0001e0 f2 f0 c6 3c a7 ac f3 bc 4e 7a 79 bd 27 ac a4 bc
       0.024284814 -0.029745413 -0.060907654 -0.02010162
0001f0 fc 93 2c bd 70 0f 33 3d 59 b3 66 bd d9 f1 04 3d
       -0.042133316 0.043715894 -0.056323383 0.032457206
