trainings/noise_MNINST_partial_match/discriminator_weights.pth (torch, 537335 bytes, 23 tensors)

conv_blocks.0.weight f4 [16, 1, 3, 3]
000000 44 d2 24 3e b5 20 c1 3e 56 11 29 bd c6 cb ae be
       0.16095835 0.37720266 -0.0412763 -0.34139842
000010 14 82 69 be bc 07 48 bf 86 d1 12 3d 11 e5 a0 3e
       -0.22803527 -0.781368 0.03584435 0.31424764
000020 1f 04 84 3e d8 a4 00 bf 5b 52 90 3e e3 7d ac be
       0.25784394 -0.5025153 0.28187832 -0.33689794
000030 e6 c5 7a 3f b6 93 01 bf 8b 41 c3 3e c3 62 0b bf
       0.9795822 -0.50616014 0.38135943 -0.54447573
000040 7d 5f c0 3e 53 19 55 be 34 aa 04 3f bd 42 a3 be
       0.37572852 -0.20810442 0.5182221 -0.31886855
000050 c2 cb d7 3d 80 41 44 bf 1d e5 c3 3e e7 a7 c3 3d
       0.105369106 -0.76662445 0.38260737 0.09553509
000060 6f 69 90 3d 9e 4e 0b 3e 3a a1 9a be f6 48 14 3d
       0.0705136 0.13604209 -0.3020113 0.036202393
000070 e1 b6 f2 be 1f 7d 1e 3e 7d 5a fb 3d 10 db b7 be
       -0.4740515 0.15477417 0.12273119 -0.3590932
000080 d3 bd 0e 3f a8 93 65 be 25 27 93 bd ed 59 2c bd
       0.557584 -0.22419608 -0.071852006 -0.042077947
000090 07 a5 09 3e 20 00 1c 3e 74 f2 25 bd d2 3a 82 3e
       0.13441859 0.15234423 -0.040514424 0.254355
0000a0 17 73 30 be 3c 21 e2 3e 5f df 39 bf c2 ac 50 be
       -0.17231403 0.4416598 -0.7260646 -0.20378402
0000b0 29 6d 10 bc 0b 7c 1a be e0 83 3f 3d 34 0b 37 be
       -0.008815088 -0.15086381 0.046756625 -0.17875367
0000c0 14 60 ce 3e 77 57 8f bd fd 47 09 3f 06 c2 9b be
       0.40307677 -0.069991045 0.5362547 -0.30421466
0000d0 19 84 ac 3d a8 6f 4f bf 7a 96 a1 bb 31 dd 68 bc
       0.08423633 -0.8102975 -0.0049312683 -0.014212892
0000e0 6e fc 21 bf 84 f3 be 3e 47 97 b7 bd 1e d6 19 be
       -0.632758 0.37295163 -0.08964401 -0.15023085
0000f0 b5 f2 09 3e 87 82 87 bd 9e f4 23 3e c4 dc c9 be
       0.13471492 -0.06616693 0.16011283 -0.39426243
000100 be 0c ca be 13 b0 41 bd 0f 5d e2 3e 54 fc 22 3f
       -0.39462847 -0.047287058 0.44211623 0.6366627
000110 d8 54 ba 3e 4c 8e 9e be 4c 47 f5 3d ab 43 18 bf
       0.36392856 -0.3096794 0.119764894 -0.59478253
000120 d1 6a 0e ba 54 7c 9c 3d 41 2a 92 3e 7f ed 68 3d
       -0.0005432787 0.07640901 0.28547862 0.05686712
000130 08 4d d3 3d 0d a9 0d 3f e1 7f 76 3d e9 9d 38 be
       0.10317427 0.55336076 0.06018055 -0.18028988
000140 e0 e2 94 be a1 2b 02 be 50 b6 7e 3d ad ff 80 bc
       -0.29079342 -0.12711956 0.062185585 -0.015746916
000150 42 97 85 3e 64 e7 a7 be b4 59 c0 3e 63 ba 9f 3e
       0.26091963 -0.32793725 0.37568438 0.3119689
000160 01 d2 e2 be 77 a6 3a 3e 76 d0 ac be e0 03 9d be
       -0.44300845 0.18227564 -0.33752793 -0.3066702
000170 66 d0 b9 3c a3 49 10 3f e4 6b 2d 3f b4 06 62 be
       0.02268238 0.5636236 0.67742753 -0.2207287
000180 a7 5b 67 be 49 dc ce be 9c 20 50 3e 75 2f b9 bd
       -0.22593556 -0.4040244 0.2032494 -0.09042255
000190 18 2b b6 be 79 78 89 3d b2 63 da be 09 88 ba 3e
       -0.35579753 0.067124315 -0.42654186 0.36431912
0001a0 0f 39 7d be ec 09 90 3e d2 a9 0d 3e fe 30 b0 3e
       -0.24728797 0.2813257 0.13834313 0.34412378
0001b0 35 bd 7f 3e 43 83 01 3e 3e c8 bc be 17 04 2d 3e
       0.2497452 0.12647729 -0.36871523 0.16896091
0001c0 d1 56 e5 3e ef b5 58 be 63 72 ef be 7e 3c 89 be
       0.44792798 -0.21163152 -0.46766958 -0.26803964
0001d0 14 23 93 be 7a 74 05 3e 6f c4 25 3f 60 51 27 3e
       -0.287377 0.13032714 0.6475286 0.16339636
0001e0 b0 f6 32 bf 7c e0 ae be 24 4e b0 be 0b d6 ad 3e
       -0.69907665 -0.34155643 -0.34434617 0.33952364
0001f0 95 aa ab 3e 43 21 07 3e 32 61 f8 3e 50 25 50 bd
       0.3352858 0.13196282 0.48511654 -0.050816834
000200 9a 01 6c 3e 52 91 58 bf 8e 9b 08 bf d4 85 49 be
       0.23047486 -0.8459674 -0.5336236 -0.19679958
000210 39 11 03 3f f2 71 78 3d e7 6b 5a 3e 8d 3b d2 bb
       0.51198155 0.06065554 0.21330224 -0.0064157904
000220 2b 45 86 3d 44 c8 5f 3e 37 8c 03 3f 62 2f f6 be
       0.065561615 0.21853739 0.51385826 -0.48083025
000230 4f 9a 78 3e e4 89 56 be c8 c8 a1 bd e0 74 ba be
       0.24277614 -0.20951039 -0.07899624 -0.36417294

conv_blocks.0.bias f4 [16]
000000 3f 39 9b be 98 c9 7f bd 8d 6a bd bd 5a 90 87 be
       -0.30317113 -0.062448114 -0.092488386 -0.2647732
000010 4c 5a d5 be 04 d6 b8 be 74 02 1d be e0 78 36 be
       -0.41670454 -0.3610078 -0.15332967 -0.17819548
000020 36 a1 b5 be 1f 79 38 bd ed f3 2c 3d d3 ea ca 3d
       -0.35474557 -0.045037385 0.042224813 0.099080704
000030 ba 27 0f bf 60 d0 8c bd 45 e8 91 be 5a d7 67 3e
       -0.5591999 -0.06875682 -0.2849752 0.22640744

conv_blocks.3.weight f4 [32, 16, 3, 3]
000000 c6 67 0b 3b 80 47 8e 3c bf 35 a7 bd 1a fd e4 3e
       0.002127157 0.017368078 -0.08164548 0.4472435
000010 5a 38 b0 3e bf 5a 1e 3b 77 c6 84 bd 3a 7a 37 be
       0.34417993 0.0024162976 -0.06483167 -0.1791772
000020 a4 44 ab bc 3a 34 c2 3b 68 f8 f3 3d 2c 16 53 be
       -0.020906754 0.005926636 0.11912614 -0.20613927
000030 06 5e 0a bf e2 8a 13 bf 34 43 3c 3e 3e a7 69 3d
       -0.5404972 -0.57633793 0.18385011 0.05704426
000040 f1 61 aa 3c 29 b4 8d bd 46 2a a0 bc 2f ee 43 be
       0.020798655 -0.069191284 -0.019551408 -0.19133829
000050 0a e8 0e 3d 4a ca 3a 3e 12 37 3e 3e 92 8d a0 3e
       0.03488926 0.1824123 0.18575695 0.3135801
000060 73 01 0b bd 19 cd 93 be a9 73 8a bd d6 47 5a 3c
       -0.03393693 -0.28867415 -0.06760342 0.013322791
000070 f5 31 1c 3d a9 07 af bd 73 4f 1b be 6e d6 66 bd
       0.03813358 -0.08546383 -0.15167026 -0.05635684
000080 ed 4b 64 3d b7 f2 79 3c df 93 85 3c 18 77 66 3d
       0.05573647 0.015255622 0.016305862 0.05626592
000090 bb 32 0d 3e d9 33 9e bd 1d 30 01 be 22 d7 1d be
       0.13788883 -0.07724733 -0.1261601 -0.15414098
0000a0 e3 10 d7 3d aa f8 73 bb 4b 70 23 bd 8f 89 5f 3c
       0.10501268 -0.0037227073 -0.039902013 0.013643636
0000b0 98 45 0b 3d 4b ae 7a be 57 d4 7a be 83 c8 39 3e
       0.034001917 -0.2448055 -0.24495064 0.18142895
0000c0 8a 33 52 bc 61 0c d4 bd 0a ed a0 3d 67 e5 8b 3d
       -0.012829671 -0.103539236 0.078577116 0.068308644
0000d0 cd 64 99 3d 38 fa d4 bc bc 50 3a 3e 8a 8f 85 3e
       0.07489929 -0.02599822 0.1819486 0.26086074
0000e0 aa ea 13 3d 7e 7b 4a be fe f2 b0 be 10 81 ee bc
       0.036112465 -0.19773671 -0.34560388 -0.029114276
0000f0 b5 17 bf 3d 76 eb 94 3d 7b 2f e1 bc 5d 0c ec bd
       0.09330694 0.07271473 -0.02748846 -0.115257956
000100 5f 84 15 be c1 ef 10 bd c3 59 33 be 4d 0e b7 be
       -0.14601277 -0.035384897 -0.1751471 -0.35753098
000110 45 60 a4 bd c3 3b 5e 3d cb 38 db 3c 8b ac 83 bd
       -0.080261745 0.054256212 0.02676048 -0.06429394
000120 c2 e8 bb 3b 8a e3 90 3c e5 55 c0 bb 9a c3 19 bc
       0.005734534 0.017686624 -0.0058696144 -0.009385014
000130 61 73 00 be fd 4b b3 bd 35 8d bd 3d 73 a2 2f bd
       -0.12544014 -0.08754728 0.09255449 -0.042879533
000140 41 73 ae 3d 72 69 d3 bc ca 0a 66 3d 03 d4 ee 3d
       0.08518077 -0.025807116 0.056162633 0.11661532
000150 a0 f4 1b be 6d b5 b5 be bb 5b a9 bd 7a e3 2b bd
       -0.15230036 -0.3548998 -0.08269449 -0.041964985
000160 7b bb a6 bc 7e af bb bd 3b a6 3a 3d 55 5b 9f 3d
       -0.02035307 -0.09164332 0.045568686 0.07781092
000170 6a 4c 0c bd de 9b 92 be c0 ca ac be 1b 32 39 be
       -0.03425256 -0.28634542 -0.33748436 -0.1808552
000180 7d 2f b9 3b 59 6b 36 3c 8d c7 06 3d f5 11 3a 3e
       0.005651413 0.011133992 0.03290515 0.18170913
000190 42 76 58 3e 86 49 38 3d 33 27 a6 be eb 59 bb be
       0.21138862 0.044991992 -0.32451782 -0.3659204
0001a0 9b 5b cf bd 66 f1 f1 3d 08 4a b8 3d af 92 30 3d
       -0.10124894 0.11813621 0.08998495 0.04310864
0001b0 62 f6 35 be 69 19 92 be 44 db e7 3c 9b 80 d2 3c
       -0.17769769 -0.2853501 0.028302796 0.02569609
0001c0 7e ff 24 3e 45 47 fb 3d 48 40 55 3d cc 90 c7 bd
       0.16113088 0.12269453 0.052063257 -0.09744415
0001d0 7e 23 76 bc 2e 2e 89 3d 42 3c a1 3d 5f 14 0e 3d
       -0.01502311 0.06698261 0.078728214 0.034687396
0001e0 4f 34 19 be 77 14 6e be 4e 2f ed bd b5 6f a2 be
       -0.1496136 -0.23249994 -0.11581288 -0.3172585
0001f0 bc 07 b3 bd dd 40 13 3e f8 69 3d 3d 9c 1b 64 3e
       -0.087417096 0.14380212 0.046243638 0.22276157
000200 bd 7a 09 bc 7c c5 c3 3d af c5 03 3f e1 4e 67 3e
       -0.0083910795 0.095591515 0.51473516 0.22588684
000210 f6 a8 c0 bc 69 c3 6c be b0 2b ba bd 59 dd 85 bd
       -0.023518067 -0.23121418 -0.09090364 -0.06536359
000220 b2 88 42 bc e3 8c 37 3d 00 d1 ac 3d b5 82 19 bc
       -0.011873411 0.044812094 0.08438301 -0.009369542
000230 ea 4e e1 bd bd 53 9f bc 7c 68 03 3d b7 44 9d 3d
       -0.1100138 -0.01944911 0.032082066 0.07679122
000240 14 e9 f0 3c 7b ab a4 3d 49 22 a3 bd 33 57 1b bd
       0.029408015 0.0804052 -0.07965524 -0.037924957
000250 1b cd c9 3d 73 55 16 be 49 61 46 bd 4f 1b 20 be
       0.09853574 -0.14681034 -0.048432622 -0.15635417
000260 40 75 5b 3d be e8 ef bd 90 22 01 bd ba 12 b0 3d
       0.053578615 -0.11714314 -0.031527102 0.08597322
000270 f9 7b f5 bd ff cd 50 bf 9b 64 73 3c 23 07 9c 3d
       -0.119865365 -0.81564325 0.014855529 0.07618549
000280 35 bb ad be 57 e2 36 3e ce bf bb bc cc b6 aa bd
       -0.3393189 0.1785978 -0.022918608 -0.08335647
000290 9b a7 b7 3e e3 91 82 be cc e1 a6 3b cf da f1 3d
       0.3587006 -0.25501928 0.005092835 0.118093126
0002a0 f7 13 83 be 5c 05 22 bf 2e ea 42 be 30 f6 a9 3c
       -0.2560117 -0.6328943 -0.19034645 0.020747274
0002b0 d4 4c 1c 3c a7 4d e9 3d 0d 25 6c be b1 a5 80 bd
       0.009539802 0.11391764 -0.23061009 -0.06281603
0002c0 ac 0c e5 3b ed df 98 bd ea a8 3a 3d 37 d1 be 3d
       0.006990036 -0.074645855 0.045571245 0.09317248
0002d0 2e a7 69 3e 03 e9 31 3e 73 b7 33 3e 8e 54 11 3e
       0.2281768 0.17374043 0.17550449 0.14192411
0002e0 b6 59 ab 3e cc 42 04 be 61 b1 ce bc 79 ce af be
       0.33466882 -0.12916106 -0.025231065 -0.34337214
0002f0 7f 72 1e be c4 77 66 3e b7 da 5f 3a 32 a1 9f bd
       -0.15473364 0.22506624 0.0008539366 -0.077944174
000300 60 3f a9 3e 22 ba 8f be a0 2f 74 be ef ea 1d 3c
       0.33056164 -0.28071696 -0.23846292 0.009638532
000310 a0 6d 48 be 34 32 84 3d 98 a6 f4 bd 93 c9 a5 3c
       -0.19573069 0.06454888 -0.11945838 0.02023772
000320 64 ed 0b be ba ac 2a 3e 50 ac 5e 3e 0e d4 00 be
       -0.13664776 0.16667452 0.2174542 -0.12580892
000330 f6 cd 81 3d 70 c2 07 be a5 63 bd bd 7c 8d cc bd
       0.06338112 -0.13257766 -0.09247521 -0.099879235
000340 bb d5 ff 3c 35 0f 7e 3b 5c 34 10 3e 8b 67 c8 be
       0.031229844 0.0038766388 0.14082474 -0.39141497
000350 f1 6c fb 3d 3c 2f 57 3b 19 99 77 3e b4 00 07 bc
       0.12276638 0.003283455 0.24179496 -0.008239914
000360 b2 00 40 bb 2d 4f fb 3c 91 22 b0 bd 37 4c ae 3e
       -0.002929729 0.030677402 -0.08600343 0.34042522
000370 56 3d df 3c b6 fb 7b 3d 2c 86 a6 3d b1 92 c8 3d
       0.027250927 0.061519347 0.0813106 0.09793604
000380 c7 ed 8a bd 99 3a b0 3d c9 9f 8d bd c6 dc 02 3d
       -0.06783634 0.086049266 -0.06915242 0.031948827
000390 4c 17 e6 bd cf ca 08 be 58 b2 72 bc a9 45 c1 bd
       -0.11234912 -0.13358615 -0.014813028 -0.09437115
0003a0 26 cc 29 3e 6f e5 34 bc 2a 64 7f be c7 f1 d2 3d
       0.16581783 -0.011041029 -0.24940553 0.103000216
0003b0 2f 05 99 bd f4 80 2f 3c 21 5c 57 be 84 d4 c6 bd
       -0.07471692 0.010711897 -0.21031238 -0.09708503
0003c0 8c 1f 06 bd 8b ed 16 be 14 0f 1c bb 72 6b 15 3d
       -0.03274493 -0.14739053 -0.0023812698 0.03647942
0003d0 6e 88 8b bc ff 5a 8e 3d 49 85 4e be bc da 2e 3d
       -0.017032828 0.0695095 -0.20168032 0.04268907
0003e0 10 e9 37 3c be d1 ca bd 65 d2 b1 3d f1 bb bf bc
       0.011225 -0.099032864 0.08682708 -0.023405047
0003f0 1f 88 76 3d 71 6e cb bc 8f 1f c9 bd 1e 44 5d 3e
       0.06018841 -0.024832936 -0.098204724 0.21608016

conv_blocks.3.bias f4 [32]
000000 72 20 60 bd 35 af a3 bc d3 40 cd bc a7 7f c2 bd
       -0.054718442 -0.019981006 -0.025055325 -0.09497004
000010 a4 71 b2 bd 4a b2 21 be 8a 61 ff bd 72 3d 27 bd
       -0.087130815 -0.15790668 -0.12469776 -0.040830083
000020 87 bd 92 bd 08 3e d1 bd 0a de be bd 97 9b c2 bd
       -0.07165056 -0.1021691 -0.09319694 -0.09502333
000030 26 18 ca bd fc 4f 1d be c4 43 d5 bd 47 c2 82 be
       -0.09867887 -0.15362543 -0.10413316 -0.25538847
000040 cd ad ec bd 14 e8 11 be 9b cf ad bd dc d5 c6 bd
       -0.11556587 -0.14248687 -0.08486863 -0.09708759
000050 4f 5b b2 be 8e 7e 6a be 28 0d e7 bd 12 8e 7f be
       -0.34835288 -0.2289984 -0.11281806 -0.2495654
000060 c9 ee 3b be e6 5c 18 3d 54 12 22 be fe 91 a2 bd
       -0.18352808 0.03719797 -0.15827304 -0.07938002
000070 23 dd b1 be fd f1 21 bc d0 2f a8 bd cc 22 79 bd
       -0.34739026 -0.009884355 -0.082122445 -0.0608242

conv_blocks.6.weight f4 [32]
000000 13 69 c1 3f 21 b2 bf 3f 8f 7d ae 3f 81 69 bd 3f
       1.5110191 1.4976236 1.3632067 1.4797822
000010 92 7d c4 3f b2 30 c5 3f 81 5d c0 3f 49 51 c1 3f
       1.5350821 1.5405486 1.5028535 1.5102931
000020 d6 2a c2 3f f1 df d2 3f aa fd cb 3f a4 cf be 3f
       1.5169322 1.6474591 1.5936787 1.4907117
000030 2f 47 bb 3f be c8 b7 3f 79 25 08 40 ce 62 bb 3f
       1.4631099 1.4358137 2.1272871 1.4639528
000040 43 f9 d3 3f 3c c2 c6 3f d3 80 ab 3f d6 71 d5 3f
       1.6560444 1.5528026 1.3398689 1.6675365
000050 62 e3 00 40 58 f3 b7 3f b9 26 b6 3f 4b a5 fa 3f
       2.0138783 1.4371138 1.4230567 1.9581693
000060 5d b5 c9 3f 1c b8 ac 3f 81 54 b2 3f 11 79 bf 3f
       1.5758473 1.3493686 1.3932039 1.4958822
000070 49 bb e3 3f 58 d7 c6 3f 03 ee cf 3f 95 06 ca 3f
       1.779153 1.5534468 1.624451 1.5783259

conv_blocks.6.bias f4 [32]
000000 2d 3f 51 3e 48 e4 3c be 49 e9 c5 3d e2 9d df 3d
       0.20434256 -0.18446457 0.09663636 0.10918786
000010 f8 e5 06 3e 3a 59 b5 3c d5 a8 3c 3c 8e eb e8 3d
       0.13173664 0.022137273 0.011514862 0.113730535
000020 2b 93 8a 3c 2d 30 14 3e ce 1d b9 bd 00 49 00 3e
       0.016915878 0.14471503 -0.09038888 0.12527847
000030 46 b0 45 bd dd 2b 69 3e 4d f5 a4 3e d4 7a 3d bd
       -0.04826381 0.22770639 0.322184 -0.046259716
000040 f3 d7 c5 3d e3 af a2 3d 53 f6 30 3d 10 be e3 3d
       0.0966033 0.07943704 0.043203663 0.11120236
000050 28 8d c7 3d 7b a3 af 3d 83 56 9b bd cd 58 bf bd
       0.0974372 0.08576103 -0.0758486 -0.09343109
000060 dd 88 a1 bd 8e 70 7b 3d c3 ec 6e 3c 3d 82 fa 3a
       -0.07887433 0.061386637 0.014582816 0.00191123
000070 5a e2 a6 bd e1 52 a6 3d a4 c1 c0 bd 77 0d f3 bd
       -0.08148642 0.08121277 -0.09411934 -0.118678026

conv_blocks.6.running_mean f4 [32]
000000 8a 8d 23 3e 40 87 22 bc f6 77 b1 3a 32 27 0c 3d
       0.15971962 -0.009919941 0.001353978 0.034217067
000010 d5 f0 72 3b 9d 76 d5 3a cc cc 5b 3d 86 c3 8d 3c
       0.0037069817 0.001628596 0.053662106 0.017305147
000020 17 a6 15 ba 93 d3 92 bd 0e bf 33 3d e3 0e 68 3d
       -0.0005708648 -0.07169261 0.043883376 0.056654822
000030 f7 46 27 3d 33 08 09 3d 1a 46 43 3e dd 7b c3 bb
       0.04083916 0.033455085 0.1906971 -0.0059656934
000040 d8 bb e2 ba 14 fa cf 3c 72 d3 62 3a 5c 17 d8 bb
       -0.0017298413 0.025387801 0.00086527236 -0.0065945815
000050 b8 74 5e bc 3f f3 1d bb 3c 81 4e bb 7e 82 77 3b
       -0.013577633 -0.0024101285 -0.0031510135 0.0037766988
000060 1c a1 5a 3c 77 7c 4c 3d 95 13 da 3c e9 a9 60 3d
       0.0133440755 0.049923386 0.026620666 0.05484954
000070 f5 3c e1 bd b0 13 b2 3c 90 d0 de bb cd 5a 42 bc
       -0.10997955 0.021737903 -0.006799765 -0.011862469

conv_blocks.6.running_var f4 [32]
000000 62 ad 8f 3e 92 b2 19 3d ef 62 94 3d dd c4 9e 3d
       0.28061968 0.037523814 0.072454326 0.077523924
000010 1d c7 72 3d ee 55 22 3d 0f 1c 98 3d 22 9b 83 3d
       0.05927192 0.03963273 0.07427227 0.064260736
000020 29 7d 0c 3d 76 dd 04 3d 8e 90 68 3d 21 38 ae 3d
       0.03429905 0.032437764 0.056778483 0.085067995
000030 a5 67 aa 3d 73 74 21 3d ea bd ee 3e ef 79 25 3d
       0.0832055 0.039417695 0.46629268 0.040399488
000040 c2 7b ff 3c 64 c2 96 3d c1 be 21 3e dd 8a 33 3d
       0.031186942 0.07361296 0.15795423 0.043833602
000050 d2 b3 fa 3d 0f ec a5 3d 4d 33 5c 3d 19 47 9d 3c
       0.12241329 0.08101665 0.05375986 0.019198941
000060 47 bd 51 3d 31 88 e8 3d 31 69 ca 3d 6b 06 f3 3d
       0.0512059 0.113541014 0.09883345 0.118664585
000070 67 9f 3b 3d aa 95 5b 3d d6 fb 4a 3d 19 d4 77 3d
       0.045806315 0.053609528 0.049556576 0.060505006

conv_blocks.7.weight f4 [64, 32, 3, 3]
000000 1b 97 86 3e 5a a2 50 3d 15 32 d5 bd 52 01 11 3d
       0.2628716 0.05093608 -0.10409943 0.03540165
000010 de 45 09 bd a2 19 31 bc c4 64 81 be 55 5a ec be
       -0.033513896 -0.010809334 -0.2527219 -0.46162668
000020 e7 b3 68 be f8 99 9b be 3c b1 15 be 15 95 26 be
       -0.22724877 -0.30390906 -0.14618391 -0.16267808
000030 c0 e7 8c 3e 58 52 20 3e 98 10 7d bd bf 19 5b 3c
       0.2752056 0.15656412 -0.061783403 0.013372838
000040 0d 9f 20 bc ec a7 73 3b 9e 2f 88 bd 13 c4 96 bc
       -0.009803546 0.0037178947 -0.06649707 -0.018404042
000050 49 61 2f be 7d c5 86 bd 53 7e 54 3d 7e c0 49 3c
       -0.17126955 -0.06580637 0.051878285 0.01231396
000060 2d fa 1c 3e 00 5c 20 bd 62 5a b1 bc 26 ea 8b 3d
       0.1532981 -0.039150238 -0.021649543 0.0683177
000070 9b fe 0d be aa 55 84 bc 4c 73 c6 bd da 9d e0 bd
       -0.13866656 -0.016154129 -0.0968996 -0.10967608
000080 13 c4 5e be 3d 36 9d bd cb 73 b3 bd ef a4 f9 ba
       -0.21754484 -0.07676361 -0.0876232 -0.0019046346
000090 d7 2f 73 bd 48 71 68 bd ba 71 76 bd ea 0c b9 3d
       -0.059371796 -0.05674866 -0.06016705 0.09035666
0000a0 84 b8 42 3e 41 b9 bd bd 7e 56 ff 3d c7 68 44 bd
       0.190157 -0.0926385 0.12467669 -0.047951486
0000b0 58 2c 66 bd 98 8a 89 3b a3 1b 2d be b4 ae 66 be
       -0.056194633 0.00419743 -0.16905074 -0.22527581
0000c0 31 b7 c0 bd 25 ca fa 3c f3 61 d0 3c 90 ce 2e 3d
       -0.09409941 0.030613968 0.02543733 0.042677462
0000d0 2a 67 60 bd 39 67 db bd 43 2b a5 bd cd ec 31 be
       -0.054785885 -0.107130475 -0.08064892 -0.17375489
0000e0 b2 ef 02 be 40 47 34 be 07 be b6 bc c0 5f 70 bd
       -0.12786749 -0.17605305 -0.022307409 -0.058685064
0000f0 71 bd 4c 3e f2 fa ce 3d f5 95 85 bd 4a d5 a5 3d
       0.19994141 0.10106458 -0.06522743 0.08097322
000100 9e 82 8f 3d 8f bb 39 3c be 80 ad bd d3 4e b6 bd
       0.07007335 0.011336221 -0.08471821 -0.08901753
000110 3e 38 c8 3c f6 8f f1 bd c6 0f f6 3b 35 39 dc 3c
       0.02444088 -0.117950365 0.0075092046 0.026882747
000120 7f 7a e0 bd 09 b7 a5 bc 1e b6 be 3c 2b 07 ac 3d
       -0.10960864 -0.02022888 0.0232802 0.08399805
000130 df 40 80 3b 2b fd a6 bc 2c e1 82 3b 3a f5 8e 3c
       0.0039139832 -0.020384392 0.0039941277 0.017450918
000140 d4 45 8f bd 81 27 47 3e b0 8a 27 3e bc 1c 8f bd
       -0.069957405 0.19448663 0.16361499 -0.069879025
000150 b0 a2 00 3e 2b ef 94 bc 55 04 b0 bc e9 b0 1c be
       0.1256206 -0.01818045 -0.02148644 -0.15301861
000160 c2 3d 02 be 69 70 f2 3c 79 ec be 3d 10 6f 47 3d
       -0.12718871 0.029594617 0.09322447 0.0486899
000170 66 9c 56 3d 74 0b 43 be 0e 57 c3 3d 1a 4a 20 bd
       0.052395247 -0.19047338 0.09538089 -0.03913317
000180 1c 33 30 bd 2c ac 03 3e d5 22 b5 3d e4 01 03 3d
       -0.04301749 0.12858647 0.08844534 0.031984225
000190 2f ed 86 bd 14 73 b5 bd e3 6f 52 3d 17 55 08 bc
       -0.06588208 -0.0885984 0.051376235 -0.008321068
0001a0 47 3a 96 3d 61 d6 00 3c ea 33 70 3d 59 d0 90 bc
       0.07335334 0.007863612 0.05864326 -0.017677473
0001b0 09 70 03 3e ee cb 64 3e b0 eb 33 3d d4 1f 90 bd
       0.12835707 0.22343418 0.04392594 -0.07037321
0001c0 7f da 2a be e9 8c 21 bd 59 f8 bb bd 41 e7 07 be
       -0.16684912 -0.039441023 -0.09178228 -0.1327181
0001d0 ac b6 61 3c 05 1f 07 3d 67 85 ae 3d c7 4f f6 bd
       0.0137764625 0.032988567 0.08521538 -0.12026935
0001e0 59 74 1a 3e 68 9f e5 3d 1b 5c 71 3d 75 20 0b bd
       0.15083446 0.11212045 0.05892573 -0.0339665
0001f0 8d e8 e7 bc 96 41 b3 3d fc a9 ba bd 12 a1 04 3f
       -0.028309131 0.08752744 -0.09114453 0.51808274
000200 28 14 2a be 34 67 59 be f8 9d c4 bd 19 74 0d 3c
       -0.16609251 -0.21230775 -0.09600443 0.008633637
000210 15 2a 11 be b3 42 86 be 5c 48 67 3e 82 dc a9 ba
       -0.1417621 -0.26222762 0.22586197 -0.0012959393
000220 bc f5 fd 3d 07 85 a0 3c 01 56 c5 bd 0f 0f 0d 3e
       0.12400386 0.019594682 -0.096355446 0.13775276
000230 52 af 7d 3c 21 8e 83 bd 29 f1 9c 3d 3c 62 67 3c
       0.015483694 -0.06423593 0.07663185 0.014122542
000240 9a a9 3c bb 0f 89 0d be d7 1f c4 bc c1 76 56 be
       -0.0028787614 -0.13821815 -0.023940964 -0.20943739
000250 f7 4a 44 be d3 48 6a 3e 3a 1b 7e 3c 13 79 3d 3d
       -0.19169222 0.22879343 0.015509421 0.046258043
000260 30 88 f2 3d 7c dd 03 3e 39 b4 0a bd b8 5a e2 bd
       0.11842382 0.12877458 -0.03386328 -0.110524595
000270 f8 e6 16 bd 9f 4a d8 bd 2d 7d bb 3d 71 0c 6a ba
       -0.036841363 -0.10561108 0.09154735 -0.00089282455
000280 9f 71 84 3c fc d8 6b 3d e4 94 d3 38 a7 d5 bc bd
       0.01616746 0.05757998 0.00010088997 -0.092204385
000290 28 52 35 bc bc 5d 36 3d 4e 11 97 3e 12 82 10 3c
       -0.011066951 0.044522986 0.2950539 0.008820074
0002a0 85 34 39 3d 9c 01 36 bd 96 e2 0d be e3 9c 52 3e
       0.045216102 -0.04443513 -0.13855967 0.2056766
0002b0 58 51 e2 3b c1 3b 81 3c b1 3d c6 3b 76 c9 35 3d
       0.0069066696 0.015775563 0.0060498347 0.04438158
0002c0 e3 8c c5 bc 89 8e d4 bc a7 3d c6 bc f6 0a 09 bd
       -0.024115032 -0.025946872 -0.02419932 -0.03345772
0002d0 f2 fc 6b 3e ae d8 95 3e 42 ab 7d bd e6 df 22 bd
       0.2304571 0.29266876 -0.061930902 -0.039764307
0002e0 c9 6a 61 3c 44 41 e1 3c 1c 8e a5 3e 14 8c 48 3e
       0.01375837 0.027496941 0.32334983 0.19584686
0002f0 99 3a 5b 3e 56 fd 90 be 3f 25 d7 3c fb ce 19 be
       0.21409072 -0.2831828 0.026262878 -0.15020363
000300 14 dd b7 3d 7e da 9b 3d 0f da 0b bd 92 9f 90 bc
       0.08977714 0.076100335 -0.034143504 -0.017654214
000310 75 0b ae 3d b2 5b 2f bd 40 84 7f be 0a 1a 97 bd
       0.08498279 -0.042812057 -0.24952793 -0.073780134
000320 d1 27 7e bd ba 8b d9 bb ff 57 c3 3d 4a 34 a8 3d
       -0.06204969 -0.006638971 0.09538268 0.08213098
000330 10 ed 5d 3e f0 87 be 3d 36 45 b4 bc de 6b 00 bc
       0.21672463 0.09303272 -0.022005659 -0.007838218
000340 c0 a0 aa bc 45 ea b3 3c 8a d6 92 bc 79 6d e0 bd
       -0.020828605 0.021962294 -0.017924566 -0.1095838
000350 05 d8 10 3e 0d 75 c6 3d a0 05 aa 3d dc 72 17 3d
       0.14144905 0.096902944 0.08301854 0.036974773
000360 39 97 8d 3d 83 11 37 3e f8 8d ad 3a ce 06 8f bd
       0.06913609 0.17877774 0.0013241163 -0.0698372
000370 0c 1e fe 3d 96 39 f4 bc be e6 48 be 1d 76 b8 bc
       0.12408075 -0.029812615 -0.19619271 -0.022517258
000380 a6 52 6a bb 69 c2 64 3d b3 81 00 3e 9a 22 39 3d
       -0.0035754829 0.055849466 0.12549476 0.045199014
000390 d9 b9 13 3e 1d 8c 1a 3e 25 49 2a bd f5 41 41 3c
       0.14426364 0.15092511 -0.041573662 0.011795511
0003a0 e8 06 b0 bd 31 56 27 be 77 cf 42 bd a9 0f 88 3d
       -0.08595067 -0.16341473 -0.047561135 0.06643612
0003b0 a4 64 36 bc 09 23 06 bd 8a 97 72 bd 9a 2e d0 bc
       -0.011132393 -0.032748256 -0.05922655 -0.025412846
0003c0 a4 9f 63 3e 22 51 f6 bb 2a 5e d8 bd f8 1e 15 3e
       0.22228867 -0.007516996 -0.10564835 0.14562595
0003d0 6b ef 09 bd 2e 7f 8e 3b f8 70 92 3b e5 9f a2 3d
       -0.033675592 0.004348657 0.0044690333 0.07940654
0003e0 47 8c f6 3c fa 3e 7b be ea 62 94 bd cd 80 17 3d
       0.030096186 -0.24535742 -0.07245429 0.03698807
0003f0 46 d3 8a 3e 6a af 58 3e cc ab 0d 3e 03 21 a1 bd
       0.27114314 0.21160665 0.13835067 -0.078676246

conv_blocks.7.bias f4 [64]
000000 1c 62 a4 be 5f 4a 4e be 01 60 a1 be 7a 93 f8 bd
       -0.32106102 -0.20145558 -0.31518558 -0.12137504
000010 d1 88 a3 be 88 46 fd bd da ba 75 be c1 6a 15 be
       -0.3194032 -0.123669684 -0.2399706 -0.14591505
000020 f1 90 20 be 9f 19 48 be 9f 6c 8c be 63 c7 4f be
       -0.15680291 -0.19541024 -0.2742662 -0.20290904
000030 63 67 02 be 41 e1 bb bd 90 bf 32 be 6a fa 73 be
       -0.12734751 -0.09173823 -0.17455888 -0.23825994
000040 6e 74 c8 be 70 7e 87 be c9 ea 97 bd ed bb 4e be
       -0.3915133 -0.26463652 -0.074178286 -0.20188875
000050 eb ed 92 be 8e cc 47 be 5d b8 2f be fb 4a 0c be
       -0.28697142 -0.19511625 -0.17160173 -0.13700478
000060 d1 86 39 be c9 64 6b be 32 82 b1 bd a7 06 59 be
       -0.18117835 -0.22987665 -0.08667411 -0.21193944
000070 4c 88 45 be d2 8f cc bd db fc a5 be c1 1a ba be
       -0.19290274 -0.09988369 -0.32419476 -0.36348537
000080 92 71 a8 be 55 8a 93 be a8 59 3c be 2e 58 d8 bd
       -0.32899147 -0.28816476 -0.18393576 -0.10563694
000090 e9 d7 53 be b2 85 84 be cb cd ff bd 78 4f 26 be
       -0.20687832 -0.2588325 -0.12490424 -0.16241252
0000a0 15 28 dd bd 62 7f 1e be be fb a0 bd c3 50 2a be
       -0.10798661 -0.1547828 -0.07860516 -0.1663237
0000b0 d8 ab 93 be 07 d6 73 be 7e fa 89 bd c0 9a 99 be
       -0.28842044 -0.23812114 -0.06737231 -0.30000877
0000c0 4a a5 a2 bd a7 30 0a be c4 13 23 be af e5 4b be
       -0.07941683 -0.13495122 -0.15925509 -0.19911836
0000d0 95 6c f2 bd 9b e8 43 be e7 8f 2e be 82 78 8d be
       -0.11837117 -0.191317 -0.17047082 -0.27631003
0000e0 0c b0 b0 be 7f 05 58 be c0 ae 4c be 96 0b 41 be
       -0.34509313 -0.21095847 -0.19988537 -0.18852076
0000f0 46 35 28 be 22 51 67 be bb e0 0f be d0 93 38 be
       -0.16426572 -0.22589543 -0.14050572 -0.18025136

conv_blocks.10.weight f4 [64]
000000 4b 6d cb 3f 72 a1 ed 3f e4 c3 dd 3f 8f 42 d3 3f
       1.5892729 1.8564894 1.7325406 1.6504687
000010 76 ad c6 3f 0a 2b f1 3f c7 09 cc 3f 89 6f eb 3f
       1.5521686 1.884126 1.5940484 1.8393413
000020 9e c7 f0 3f e4 3f e8 3f 7e da f1 3f 54 83 bf 3f
       1.8810918 1.8144498 1.8894804 1.4961953
000030 ab dd e6 3f ac 8e d7 3f eb ab d2 3f 93 fe d8 3f
       1.8036398 1.6840415 1.6458715 1.695269
000040 3b 0b dd 3f c5 f5 e6 3f 10 dc e0 3f 0f 6d c9 3f
       1.7269052 1.8043753 1.7567158 1.5736407
000050 e9 17 f6 3f 40 fd eb 3f 79 fb cc 3f 53 d7 eb 3f
       1.9226047 1.8436661 1.6014243 1.8425087
000060 cb fc c9 3f d1 fa db 3f 43 45 e3 3f 0b a8 c6 3f
       1.5780271 1.7185918 1.7755512 1.5520033
000070 67 f7 d6 3f e9 85 b8 3f 6e 66 e0 3f 14 a7 ee 3f
       1.6794251 1.4415866 1.7531259 1.8644738
000080 4a 41 dd 3f 3a 10 f0 3f d4 77 dd 3f 45 f9 e6 3f
       1.728555 1.8754952 1.7302194 1.8044821
000090 f2 5d ef 3f a7 6c f6 3f ca 82 ca 3f a8 4b c2 3f
       1.8700545 1.9251908 1.5821164 1.5179338
0000a0 54 65 dc 3f f8 2f dd 3f 45 66 d6 3f c6 82 e4 3f
       1.7218423 1.7280264 1.674996 1.7852409
0000b0 3d 0f dd 3f c2 34 e8 3f 2e b9 ee 3f c5 26 cb 3f
       1.7270275 1.81411 1.8650262 1.5871207
0000c0 d2 77 e1 3f c8 e8 f0 3f 22 e0 ea 3f 6c 1c e1 3f
       1.7614691 1.8821039 1.834965 1.7586799
0000d0 08 e0 cc 3f 40 e7 eb 3f 43 6b ff 3f cb 25 b5 3f
       1.6005869 1.8429947 1.9954609 1.4152158
0000e0 f3 fe e4 3f 30 ad de 3f 13 24 da 3f 52 c2 e6 3f
       1.7890304 1.7396603 1.7042259 1.8028052
0000f0 45 d1 d5 3f 62 63 eb 3f 14 3c bd 3f 65 ce ef 3f
       1.6704489 1.8389704 1.4783959 1.8734862

conv_blocks.10.bias f4 [64]
000000 c5 d3 a2 3e 81 77 4b be 32 c4 6a 3e dc 7f 87 be
       0.31802192 -0.19869806 0.22926405 -0.26464736
000010 64 8b 8d 3e b5 8f a6 3d 75 0e 43 bd 80 5a 1a be
       0.2764541 0.08132879 -0.04762121 -0.15073586
000020 7c 53 2d 3e 12 d3 cf 3e 51 74 8c be b0 9c 69 be
       0.16926378 0.4059072 -0.27432492 -0.22813678
000030 a3 5b 1b 3e c9 49 eb 3e 0c 64 f0 3e 64 d2 95 bc
       0.15171675 0.4595473 0.4695133 -0.018288799
000040 68 b7 63 3e fd ca 77 bc 85 5c c0 3e b5 99 bc 3e
       0.22237933 -0.01512408 0.37570587 0.3683602
000050 bd 50 e9 bc f5 6b 26 3f 0c be 79 3e d6 47 6d be
       -0.028480882 0.6500848 0.24388903 -0.23171934
000060 89 63 aa bd 4b 16 13 3d fd 16 32 3e 09 76 f3 3c
       -0.08319766 0.035909932 0.17391582 0.02971937
000070 27 e7 61 3c 4e fd 75 be a2 20 a4 3e 26 a7 34 3e
       0.013788021 -0.2402241 0.32056147 0.17641887
000080 12 7d b1 be b5 a5 a8 3e ed bb 05 3e 23 32 75 3e
       -0.34665734 0.32938924 0.13059969 0.23944907
000090 9c 5c 19 3e 79 38 3a 3d e8 0f b7 bd 45 28 c3 3e
       0.14976734 0.045464013 -0.08938581 0.3811666
0000a0 e9 ea 06 be f6 9d 45 3f 32 63 c7 bd 08 73 aa 3e
       -0.13175549 0.77194154 -0.09735717 0.33290887
0000b0 2c 94 0f 3c c0 d2 98 be 79 ee 17 be 2d 1d 42 3e
       0.008763354 -0.2984829 -0.14837064 0.18956442
0000c0 85 3f fa 3e 02 d5 ca bd 51 b0 4d 3e 3f 03 87 3e
       0.48876587 -0.09903909 0.2008679 0.26369664
0000d0 9d 46 c2 be 9a 90 15 be db a5 a7 3e 5a 67 61 3e
       -0.379445 -0.14605942 0.32743725 0.22012082
0000e0 b7 7a 2d be 58 91 8e 3e cc 93 04 bd 10 15 e1 3e
       -0.16941343 0.27845263 -0.032367513 0.43961382
0000f0 2b 67 93 3d 12 f1 b3 3d d7 ec a7 3e 0c ad 4b bd
       0.07197412 0.08786215 0.32797882 -0.049725577

conv_blocks.10.running_mean f4 [64]
000000 93 4d 20 3e b1 09 b0 3d 25 19 06 3e ba ef b2 3d
       0.15654592 0.085955985 0.1309553 0.087371305
000010 78 55 eb 3d ae 5e 10 3e 58 d9 d4 3d ac 0c 6e 3d
       0.11490911 0.14098617 0.103930175 0.058117554
000020 d4 8e dd 3d f9 76 b8 3d 19 75 78 3d e3 7c 67 3d
       0.10818258 0.09007067 0.060658548 0.056515586
000030 09 99 e4 3d ca dd 8e 3e 4c f3 77 3e b6 6f 86 3d
       0.11162002 0.27903587 0.24213904 0.06564276
000040 4f 9c 21 3e f2 1d be 3c c7 80 c7 3e 2a 5b f4 3d
       0.15782283 0.023207638 0.38965437 0.11931451
000050 94 a3 2f 3e 75 f1 5a 3e 86 ad e4 3d d7 dd b8 bb
       0.17152244 0.21381171 0.111659095 -0.0056416797
000060 99 ff e2 3d 2c 2f ed 3d 85 4e 27 3e da 9c 80 3e
       0.11083908 0.11581263 0.16338547 0.25119668
000070 9f 4f d2 3d 77 c2 ea 3d f9 d5 e7 3d f8 52 0e 3d
       0.10269093 0.114628725 0.11320109 0.034747094
000080 ca 4e 5d bc 6d 0e 82 3d 9f cd 4a bc ce 6a f8 3d
       -0.013507554 0.06350408 -0.012378125 0.121297464
000090 1d a3 51 3c 1d f5 5b 3e 4f 50 90 3d 6d a3 ac 3e
       0.012795237 0.21480222 0.07046568 0.33718434
0000a0 87 1e 3f 3b 99 66 b0 3d 9c 13 5a 3e 1f 90 ab 3d
       0.0029162483 0.08613319 0.21296543 0.08377098
0000b0 27 cb cc 3d 0d be fa 3d 15 ee 4c 3d 16 fc 8d 3d
       0.09999686 0.122432806 0.05003174 0.06932847
0000c0 7b 71 a1 3d 00 0f f9 3d 63 50 54 3e 26 6d 0e 3c
       0.07882973 0.12161064 0.2073379 0.008693015
0000d0 c1 c7 43 3c ab 0d cc 3d 35 ad 7f 3d f7 24 2e 3e
       0.0119494805 0.099635445 0.062421042 0.17006288
0000e0 09 46 ee 3d 45 af 5f 3e f7 ea 37 3d 90 a9 0a 3e
       0.11634452 0.21844204 0.044901814 0.13541245
0000f0 c0 0c 32 3e 6c 40 9d 3d e8 48 a3 3e 0b 06 c4 bb
       0.17387676 0.07678303 0.3189156 -0.0059821657

conv_blocks.10.running_var f4 [64]
000000 0e 88 24 3f a0 0d 93 3e e5 5e d5 3e 54 26 87 3e
       0.642701 0.28721333 0.4167396 0.2639643
000010 42 e7 1c 3f fd d9 06 3f cd b5 c3 3e 0f ee 66 3e
       0.6129037 0.52676374 0.3822464 0.2255175
000020 8b 0b 07 3f 35 74 d2 3e e4 33 a7 3e 18 63 3a 3e
       0.5275199 0.41104284 0.32656777 0.18201864
000030 e7 1d d6 3e 06 7b 4d 3f 52 e0 18 3f 7a 36 a4 3e
       0.4181969 0.80265844 0.59717286 0.32072812
000040 bf 44 02 3f 95 3b f2 3e 55 5e 94 3f d9 6e db 3e
       0.5088615 0.47311082 1.1591288 0.42858008
000050 75 cf 63 3f 84 c6 19 3f fb 72 25 3f 03 66 85 3e
       0.8898843 0.60068536 0.6462857 0.2605439
000060 09 58 e7 3e b2 fa f7 3e ca 98 aa 3e 36 aa 3c 3f
       0.45184353 0.48433453 0.33319694 0.7369722
000070 1c 88 ed 3e 66 60 ff 3e 2e 68 c7 3e 7b 54 b5 3e
       0.46392906 0.49878234 0.3894667 0.35416016
000080 b8 d1 93 3e 02 ee 05 3f 85 d1 54 3e cd bc e4 3e
       0.2887094 0.52316296 0.2078305 0.44675294
000090 1e 57 35 3e 2e 60 33 3f 5a ae 84 3e a7 53 c6 3f
       0.17709014 0.70068634 0.2591427 1.5494279
0000a0 07 3b 58 3e 9e 31 ce 3e 7d 7c 1b 3f 3a 53 ab 3e
       0.21116267 0.4027223 0.6073683 0.33461934
0000b0 94 12 25 3f c9 05 10 3f 12 51 6b 3e 20 3b 98 3e
       0.6448147 0.5625883 0.22980145 0.2973261
0000c0 ed 4b e2 3e b9 5a ae 3e 74 12 03 3f 32 f5 84 3e
       0.44198552 0.3405359 0.5120003 0.2596832
0000d0 2e c8 30 3e 9f dd d6 3e 3c c8 f9 3e f5 89 23 3f
       0.17263862 0.41965958 0.4878558 0.6388238
0000e0 3f 5d f5 3e 48 d4 20 3f 7b 01 a1 3e 8e ec 1f 3f
       0.47922704 0.62823915 0.31446442 0.6247033
0000f0 f1 dd 1c 3f aa 5d f6 3e ce 07 6e 3f 39 3d 95 3e
       0.61276156 0.48118335 0.9298066 0.29148272

conv_blocks.11.weight f4 [128, 64, 3, 3]
000000 06 a4 c0 3d 1b f7 c1 3d 6c 41 5d bc b3 6f 06 be
       0.09406285 0.0947096 -0.013504367 -0.13128547
000010 70 65 43 3c f5 10 8d bd ff df f1 bd 21 99 70 be
       0.01192604 -0.06888 -0.11810302 -0.23495914
000020 37 9b 19 bd 25 59 7d bb 24 33 17 3d e2 88 af bb
       -0.03750154 -0.003865787 0.036914006 -0.005356894
000030 19 24 b2 3d 2f 91 b8 3d ea 2d 20 be 04 c3 3d 3e
       0.08698291 0.090120666 -0.15642515 0.18531424
000040 37 c6 83 bd 78 e6 79 3d 8f ba 73 bd 13 08 3a be
       -0.06434291 0.061010808 -0.059504088 -0.18167143
000050 a3 f8 81 bd 84 5a c9 bd 31 4a e0 3c 38 ee b6 bd
       -0.06346252 -0.098317176 0.027379127 -0.08932155
000060 25 a1 a2 3c 0c e7 05 3d c1 9d 6b 3d 90 82 20 bd
       0.01985223 0.032691047 0.057523493 -0.039187014
000070 c2 54 92 3d 45 b6 88 3e 3a 6d 99 3e fd 8a e9 bc
       0.071450725 0.2670156 0.29966146 -0.028508658
000080 40 83 d7 bd 5b 8e 59 3d 9b de 83 bd ad dc 8d bc
       -0.10523081 0.053114276 -0.06438943 -0.01731714
000090 77 ef 05 3e 7e 28 84 3d 2e 96 14 be 8b f6 81 be
       0.1307963 0.06453036 -0.14510414 -0.2538341
0000a0 b0 6c d5 3a 47 5e 57 bd 8a ee 9d be ef 80 84 3d
       0.0016283002 -0.052580144 -0.30846053 0.06469905
0000b0 68 eb b3 3d cb 94 b2 bc b2 f6 f2 bc 0f ef 8d be
       0.087851346 -0.021799466 -0.02965865 -0.2772145
0000c0 cc 05 55 3e 23 0d a0 bd e5 2a 81 3e 51 cc 7d be
       0.20802993 -0.07815006 0.25228038 -0.24784972
0000d0 86 e1 ee 3c cf fc 8b bb d0 6e 00 be ad f2 22 3e
       0.029160272 -0.0042720805 -0.12542272 0.15912886
0000e0 e1 c6 26 3d 40 c2 85 3d 7c 09 e0 bd 7f 10 37 bd
       0.04071701 0.06531191 -0.10939309 -0.044693466
0000f0 32 a7 40 be 01 51 92 3d 66 f1 a8 3d 36 6d 7a 3e
       -0.1881378 0.071443565 0.08249168 0.24455723
000100 29 02 13 3e 41 15 4d bd 18 52 fc bd aa e1 02 3d
       0.14356293 -0.050069097 -0.12320346 0.03195349
000110 6a a3 b6 bc dc 14 b1 3d 74 3b 52 3e df 58 a2 3d
       -0.022294719 0.08646557 0.20530492 0.07927107
000120 84 81 04 3d 5c e4 d5 3b 12 63 0d be f3 5a 24 bd
       0.03235008 0.0065274667 -0.13807324 -0.0401258
000130 f5 06 b1 3e a6 ae 87 3d e0 f9 05 3e ae 9f a5 3d
       0.3457562 0.066251084 0.13083601 0.08087097
000140 de f2 f5 bb 39 42 9f 3d a0 7a 06 3e b0 6f 90 be
       -0.0075057587 0.07776303 0.13132715 -0.2821021
000150 fb 2c 0c be 20 9c 92 be ec 49 da bd ee 63 df bd
       -0.13689034 -0.2863474 -0.10658631 -0.10907732
000160 e4 32 03 3e cc 78 da 3d e2 35 d5 bd 43 c3 92 3e
       0.12812382 0.106675714 -0.10410668 0.28664598
000170 cc 03 e8 bc a6 99 20 3e 50 fa b7 3d 31 14 ba 3d
       -0.028322123 0.15683612 0.0898329 0.090858825
000180 b9 1a 69 3e 4d 6c 3c 3e db 63 32 bd a3 ee 97 3e
       0.227641 0.18400688 -0.04355226 0.29674253
000190 ac b8 4f 3d 7e 71 d3 3e 2c 7d 93 3d 1e c6 9e 3e
       0.050713226 0.41297525 0.07201609 0.31010526
0001a0 d8 72 b3 3c 44 0e 0a 3e 10 b0 6d bd e5 1b 20 bd
       0.021905348 0.13482004 -0.058029234 -0.039089102
0001b0 a6 d2 0e be 75 68 18 be fe 0a 2a bd e0 53 1b 3e
       -0.13947544 -0.14883597 -0.04151439 0.15168715
0001c0 ad 34 20 be 9c bc 23 3c 81 9c 71 be e6 aa 76 bd
       -0.15645094 0.009993698 -0.23594858 -0.060221575
0001d0 f4 28 f2 bb ca 01 fe bd 63 cf 0c bc 4d bf 9e 3d
       -0.007390136 -0.12402685 -0.008594367 0.077513315
0001e0 90 94 16 be fb d3 a1 bd e5 53 51 be b1 43 86 bd
       -0.1470511 -0.0790176 -0.2044216 -0.0655588
0001f0 58 f2 1f bd ee de 5a bb b0 54 56 3d 4e 99 35 bd
       -0.039049476 -0.0033397037 0.052326858 -0.044335656
000200 e9 de fe 3c 99 94 a7 bd a7 c8 e5 bd d8 55 63 bd
       0.031112151 -0.0818264 -0.11219912 -0.05550179
000210 df 94 a3 bd ab ca 94 bd cd 3c c9 3d 79 c7 4f bd
       -0.07987379 -0.07265218 0.0982605 -0.05072734
000220 87 fc 83 be 9a c5 94 3e d1 82 51 bd 5a 08 e8 bd
       -0.257786 0.29057008 -0.051150147 -0.11329718
000230 19 a8 4e 3d ef 0c 96 bd 63 d3 95 be 8c 4a 79 bc
       0.05045328 -0.07326686 -0.29262838 -0.015215527
000240 09 cd ea 3d 28 2a 96 3d 27 2b 97 3d 91 ac 1e bd
       0.114648886 0.073322594 0.073812775 -0.03873879
000250 36 1c b0 bd 77 a5 5a bd 0a 11 5c be 77 b0 99 bd
       -0.08599131 -0.053380456 -0.21490875 -0.07504361
000260 a6 c2 f4 bd 93 e5 75 bd 8d 11 c2 bb 62 15 31 3e
       -0.11951189 -0.060033392 -0.0059225024 0.17293313
000270 9a 9f 2a 3e ea 24 97 3e 83 87 cd bc 96 a4 2c bd
       0.16662446 0.2952035 -0.025089031 -0.04214915
000280 bf 51 81 be 21 e8 cb bd 21 69 84 3e 81 9c 21 be
       -0.2525768 -0.099563845 0.25861457 -0.15782358
000290 42 4a a2 bd f1 17 b8 bd 23 cd a7 be 17 3a d4 bc
       -0.0792432 -0.089889415 -0.32773694 -0.025906606
0002a0 bd b3 11 3d 68 69 4a 3e 4c c5 0a 3d 50 39 fa bd
       0.035571802 0.19766772 0.033879563 -0.12217963
0002b0 fc 73 48 bc d5 c4 9b bd 82 94 91 3d 20 c4 46 bd
       -0.012234684 -0.07605902 0.07108404 -0.048526883
0002c0 bc 94 c0 3a 56 7f de be 05 63 51 be 82 2f 69 bd
       0.0014692764 -0.43456525 -0.20447929 -0.056930073
0002d0 04 5b 51 3e 87 aa 07 3e 8b 9d 5f 3c 9c e9 45 3e
       0.20444876 0.13248645 0.013648401 0.19327396
0002e0 14 bb 90 3d 69 44 af 3d 60 07 b0 bd e6 ab 52 bd
       0.07066932 0.0855797 -0.08595157 -0.051433466
0002f0 47 69 29 bb 7d 84 cc 3d 2c 59 b0 3c 96 e7 98 bd
       -0.0025850104 0.09986208 0.021526895 -0.074660465
000300 2f 2e 1f be ec cb 32 bd 30 ef 40 be f7 9e 1c be
       -0.15544961 -0.043651506 -0.18841243 -0.15295015
000310 23 93 9c bd 8d 8e f3 3c 21 6f e6 b9 99 79 a7 bd
       -0.076452516 0.02973106 -0.00043951816 -0.0817749
000320 68 35 62 be fd b9 8e 3d 75 b4 f3 bc 58 cb 25 3d
       -0.22090685 0.06969068 -0.029749135 0.040477127
000330 8f 01 fe 3d 6a d9 17 be 41 1f 32 3c df 9f 68 3d
       0.12402641 -0.1482903 0.010871709 0.05679309
000340 bd df 5e bd 83 e2 df bb 95 65 80 3d d6 49 75 3e
       -0.054412592 -0.006832422 0.06269375 0.23953947
000350 81 19 7a bd c6 1e 9a 3d f0 c8 89 bd 48 43 21 3d
       -0.06105948 0.07525401 -0.06727779 0.039370805
000360 c4 0a de bd 6c 4b b9 3e 22 75 41 3e a3 d6 51 3e
       -0.10841897 0.36190355 0.18892339 0.20492034
000370 7d d8 03 ba 12 9f 34 3c f3 e1 1f 3c 30 8f e0 bb
       -0.00050295127 0.011024253 0.00975846 -0.006853007
000380 18 37 58 bd c3 f4 cf 3d 6f 0e 9b be 3f ed 64 3c
       -0.052786916 0.101541065 -0.3028445 0.0139725795
000390 c3 6c 67 3b 72 4b 1e 3e ca 85 89 bd f1 79 7e 3d
       0.003531263 0.15458468 -0.06714971 0.06212801
0003a0 33 b3 06 bd ef 3c cf 3c 77 6e fe bd 1b 51 82 bb
       -0.03288574 0.02529761 -0.12423413 -0.0039769537
0003b0 76 a8 2f be b1 68 ad 3c af fe 00 bd 2f 98 d7 3c
       -0.17154106 0.021168085 -0.031492885 0.026317684
0003c0 1a 1a 9b be 3b a0 59 bd 50 da ff bc 42 ac ea 3d
       -0.3029335 -0.053131323 -0.03123203 0.11458637
0003d0 6e f7 5e 3b 4c 73 66 3e ce ca e9 bc 68 8e c6 bc
       0.0034021991 0.2250492 -0.028539088 -0.024237826
0003e0 aa 1b 9d bc c0 31 5a bd fd f0 4c bd db f2 30 bc
       -0.01917823 -0.0532701 -0.05003451 -0.010800089
0003f0 41 77 cf bd c4 50 e3 3c 65 99 c4 bc 94 d3 c4 bd
       -0.10130168 0.027748473 -0.023998925 -0.09610668

conv_blocks.11.bias f4 [128]
000000 c6 5c 8b be c1 f8 41 be 1f 37 aa be 46 31 1a bd
       -0.27219218 -0.18942548 -0.3324518 -0.037644647
000010 de 94 f4 bd 86 e3 5e be 5a ef a4 bd cd 53 88 be
       -0.11942457 -0.21766481 -0.08053465 -0.26626435
000020 8e 8a f8 bd 68 2b 8d be a5 06 e7 3c ea 3b 8d bd
       -0.12135802 -0.2757218 0.02820141 -0.06896193
000030 39 38 e6 be 77 68 8e be 9d e0 04 bc f9 a6 10 be
       -0.4496477 -0.27814075 -0.008110193 -0.14126195
000040 c9 c9 1a bd c5 f2 83 3d 12 40 be be b2 91 fc bd
       -0.037790094 0.06442789 -0.37158257 -0.12332477
000050 5a ed 0f be 38 11 ae be 08 cd d1 be 09 63 5c 3d
       -0.14055386 -0.33997512 -0.4097674 0.053805385
000060 5d 69 e0 be 59 a1 44 be 84 e9 61 be 89 58 ba 3c
       -0.43830386 -0.19202174 -0.22061735 0.022747295
000070 5b e2 40 bd 2a c0 68 be 10 64 95 3d e8 7a 0f be
       -0.04709087 -0.22729555 0.07294476 -0.14011729
000080 38 e0 a3 bd 37 f5 65 be 83 5e c0 bd 43 9f 02 be
       -0.08001751 -0.22456823 -0.09393027 -0.12756066
000090 8f 1f aa bd b0 14 25 be aa cc e6 bc f0 a5 f4 bd
       -0.083068006 -0.16121173 -0.028173763 -0.119457126
0000a0 98 df c0 bd f5 32 ce be b9 11 01 bf 48 20 41 3e
       -0.09417647 -0.40273252 -0.5041767 0.1885997
0000b0 10 a3 3c bd 4d 90 4b bd 83 66 9a be 12 cf 72 bc
       -0.046053946 -0.049698163 -0.30156335 -0.014819877
0000c0 a4 3e f8 3c 52 16 4c 3d 8d 33 db 3c 5e b2 71 be
       0.030303307 0.049825974 0.02675798 -0.23603198
0000d0 d4 fe 23 be fc 68 8e 3d a4 4a ac be 24 c0 2a 3e
       -0.16015178 0.06953618 -0.33650696 0.16674858
0000e0 74 53 2f 3c c8 09 46 be 5e 3b 90 bd 0c 7e 36 be
       0.010701049 -0.19339669 -0.070425734 -0.1782152
0000f0 4c 6e f9 bd 45 8f 0f 3d e2 0c dc 3b bc 29 7d be
       -0.121792406 0.03504874 0.006715403 -0.24722952
000100 c3 e8 2f 3e b7 b8 74 be a1 91 b8 be 1f d9 42 be
       0.17178635 -0.23898588 -0.36048606 -0.19028138
000110 4d b7 2f be 28 bd 38 bd 90 34 06 be e6 0c 8e be
       -0.17159767 -0.04510227 -0.13105989 -0.27744216
000120 4a ad 03 be 01 14 b9 3d e8 22 3c bc c3 ac 5e be
       -0.12859073 0.090370186 -0.011482932 -0.21745591
000130 c8 a6 2f be 50 bb 9a be 31 77 8c be 22 e6 fe bd
       -0.17153466 -0.30221033 -0.27434686 -0.12446238
000140 ff 9a 0a 3d 53 73 d6 be 31 2c 56 bc 2d 8b 6d bd
       0.033839222 -0.4188486 -0.0130720595 -0.057994056
000150 11 ee 60 be ae e0 50 bd 4b 6c d1 3d 99 ec a9 be
       -0.21965815 -0.05099552 0.10225733 -0.33188322
000160 c0 30 9a be da 19 48 be 96 41 fb 3c fe 91 c8 bd
       -0.30115318 -0.19541112 0.030670922 -0.09793471
000170 ff 7e cb 3c ad a1 98 be 52 d8 a7 3d 83 8b 0d be
       0.02484083 -0.2981085 0.08195557 -0.13822751
000180 50 5d 97 bd e5 15 c0 3c e6 47 af be 71 88 80 be
       -0.07390845 0.02344794 -0.34234542 -0.25104097
000190 dc 20 64 3c 5c a0 ae be 58 be a7 be 70 bd e3 bc
       0.01392385 -0.3410672 -0.32762408 -0.027800292
0001a0 3b 17 0b be f5 5e 98 be f6 ef 9f bd 8a 01 e1 bb
       -0.1358308 -0.29759946 -0.07809441 -0.0068666385
0001b0 79 18 41 be 31 21 54 be 44 a5 c0 3d 89 d5 60 be
       -0.18856992 -0.20715787 0.09406522 -0.21956457
0001c0 f4 3d a9 bd dd 1f 46 be da 77 73 be 82 0f a7 be
       -0.0826377 -0.19348092 -0.23776188 -0.3262902
0001d0 88 6d 36 be 30 36 1b be cd 5b 4f 3e 6f 73 88 be
       -0.1781522 -0.1515739 0.20249863 -0.2665057
0001e0 f0 d8 4a be ad 2c d8 bd 4e 0f 87 bd 18 96 92 be
       -0.19809318 -0.10555396 -0.06594716 -0.28630137
0001f0 4c 60 ea bd 96 31 b1 3d df 27 64 bd 0e 5a 99 be
       -0.114441484 0.08652036 -0.055702087 -0.2995152

conv_blocks.14.weight f4 [128]
000000 67 fe da 3f fc 33 d1 3f 11 9e d2 3f 51 da c7 3f
       1.7108887 1.6343989 1.6454488 1.56135
000010 69 f5 bc 3f 8e b1 d7 3f 38 6a f7 3f c2 16 db 3f
       1.4762393 1.685106 1.932929 1.711632
000020 ee 2c c9 3f 7b f1 91 3f b6 63 ba 3f 2e d2 bf 3f
       1.5716836 1.1401819 1.4561679 1.4986017
000030 1a ca f9 3f cb 79 cb 3f cd eb 16 40 98 ae c8 3f
       1.9514802 1.5896543 2.3581421 1.5678282
000040 be 67 c9 3f db 39 ec 3f 23 c3 e0 3f f8 f8 d4 3f
       1.5734785 1.8455156 1.7559551 1.6638479
000050 39 3c d6 3f 55 0a d2 3f 5d 6c d3 3f 56 24 a1 3f
       1.6737128 1.6409403 1.6517445 1.2589214
000060 2d 8b df 3f 49 1d cc 3f f7 8b eb 3f 3f 23 03 40
       1.7464348 1.5946437 1.8402089 2.0490263
000070 80 0e c2 3f 42 85 d9 3f a7 7e d6 3f e3 28 f6 3f
       1.5160675 1.6993792 1.6757401 1.9231228
000080 0e 8b bc 3f ef 49 d7 3f bb 86 d1 3f ee 83 f2 3f
       1.4729936 1.6819438 1.6369241 1.8946512
000090 ac 85 e7 3f ab 1a f5 3f ff 18 ba 3f e3 e5 c9 3f
       1.8087668 1.9148763 1.4538878 1.5773281
0000a0 0b 68 e6 3f 53 fc d2 3f 29 dc db 3f 1c 2d c1 3f
       1.8000501 1.6483253 1.7176563 1.5091891
0000b0 3b 58 c4 3f c5 09 bf 3f 20 50 f7 3f c6 46 b7 3f
       1.5339426 1.4924856 1.9321327 1.4318473
0000c0 34 1d 08 40 be 93 02 40 9c a2 ca 3f 5c e6 fd 3f
       2.1267824 2.0402675 1.5830874 1.9835925
0000d0 05 65 e3 3f 3d a6 0f 40 4a 20 e0 3f e9 9d 8e 3f
       1.7765204 2.2445214 1.7509854 1.114194
0000e0 9e 71 c7 3f 09 99 cc 3f 30 65 e5 3f fb c0 d8 3f
       1.5581548 1.5984203 1.7921505 1.6933893
0000f0 e2 7b be 3f d9 5b d2 3f 9d 6f b7 3f 03 ee d4 3f
       1.4881556 1.643428 1.4330937 1.6635135
000100 cd 10 d5 3f 79 ad f0 3f 1a 96 e4 3f 52 82 eb 3f
       1.6645752 1.880294 1.7858307 1.8399146
000110 b1 90 cb 3f 5b a8 92 3f 50 e3 d2 3f 23 6d f1 3f
       1.5903531 1.1457628 1.647562 1.8861431
000120 90 4d c4 3f 7d fe a1 3f 9f 0c c2 3f 7f 5e e0 3f
       1.533617 1.2655789 1.5160102 1.7528838
000130 4d b7 e2 3f e3 6d e5 3f d7 2f e5 3f 48 a9 be 3f
       1.7712189 1.792416 1.7905225 1.489541
000140 cf 75 ca 3f 90 1b cc 3f 21 a4 c4 3f 4b 61 c9 3f
       1.5817202 1.5945911 1.5362588 1.5732816
000150 cf 7b d1 3f e3 54 ea 3f c1 fb c4 3f 30 ad c5 3f
       1.6365908 1.8307155 1.5389329 1.5443478
000160 3a 29 d5 3f 1e 6d fe 3f 3e ef c9 3f 48 52 cf 3f
       1.6653206 1.987705 1.5776136 1.6196985
000170 fc 1e c6 3f 8c cb e5 3f e7 ae d4 3f 41 39 d5 3f
       1.5478206 1.7952743 1.6615876 1.6658098
000180 23 fd bf 3f 4a ad c9 3f 76 62 da 3f c9 b7 c8 3f
       1.4999126 1.5756009 1.7061298 1.5681087
000190 ce 5a b3 3f c6 55 dd 3f 50 4b de 3f 13 93 e4 3f
       1.4012086 1.7291801 1.7366734 1.7857383
0001a0 62 e8 d6 3f 74 a2 c6 3f 68 8e c2 3f 41 e5 c4 3f
       1.6789668 1.5518327 1.5199709 1.5382463
0001b0 a3 7c ae 3f 07 3d cb 3f 7b 41 bb 3f e2 1d e0 3f
       1.3631786 1.5877999 1.4629358 1.750912
0001c0 0d 0e a8 3f 0a bc ee 3f d2 3c ef 3f a2 f4 e0 3f
       1.3129288 1.8651135 1.8690436 1.7574656
0001d0 4c e3 e5 3f 98 4a cf 3f 7f 96 be 3f b6 93 d3 3f
       1.795999 1.6194639 1.4889678 1.6529453
0001e0 89 6a c5 3f 27 91 d7 3f f8 c0 eb 3f 10 16 da 3f
       1.5423137 1.6841172 1.8418264 1.7037983
0001f0 d8 c3 b0 3f 79 1f e9 3f 00 dc cb 3f 07 8f fb 3f
       1.3809767 1.821273 1.5926514 1.9653023

conv_blocks.14.bias f4 [128]
000000 e0 2a 49 bd be d1 4d bb dd 98 0f 3e 6c 71 0a bd
       -0.049113154 -0.0031405534 0.14023156 -0.033799574
000010 f5 1e 12 bd 16 07 e3 bd 7b 80 ad bd dd f6 1e bd
       -0.035674054 -0.11085336 -0.08471771 -0.038809646
000020 93 37 5d 3d 9d 86 39 3e 2a dd 33 3d 2e cd 04 3e
       0.054008078 0.18117757 0.04391209 0.12968895
000030 c7 36 63 bd 14 8f 37 3e d1 27 6a ba e4 cd a0 bd
       -0.05547216 0.17925674 -0.00089323247 -0.078517705
000040 32 28 13 bd 42 c9 e9 bd 1b 7c ef bc b7 43 f5 bd
       -0.035927005 -0.1141534 -0.029233983 -0.11975806
000050 33 e7 23 3e 53 ab 6b bd 62 f7 14 3d 21 87 e0 bd
       0.16006164 -0.057536434 0.036368735 -0.10963274
000060 a3 28 f6 bd 02 a7 39 3d a8 ca 6e bd 4d 92 73 39
       -0.120194696 0.045325287 -0.058298737 0.00023228787
000070 92 b1 e7 bd 16 d8 ff bc 16 0d 74 bc 3b 18 51 bd
       -0.11313166 -0.031230967 -0.014895698 -0.0510485
000080 b4 01 2d bd e0 6b 02 be 7c 29 89 3c 43 cd 44 bd
       -0.042237952 -0.12736464 0.016743414 -0.048047315
000090 d3 5f cf bb 14 83 31 bc 5c 29 32 3d de ec 50 3d
       -0.006328562 -0.010834474 0.043496475 0.051007144
0000a0 fb 5e 0e bc 02 a9 12 3d 41 b7 1c 3e 88 b9 71 3d
       -0.008689637 0.03580571 0.15304281 0.059014827
0000b0 48 ef d6 3c 54 5f 08 3d 3b 21 21 bb 0f ca fd 3d
       0.026237145 0.033294037 -0.0024586457 0.12392055
0000c0 cf 3f b5 39 15 a9 da bc a7 da 5b bd ac ef 2a 3c
       0.0003457055 -0.026691953 -0.05367532 0.010433119
0000d0 f0 ed 33 be 4c 8a 0d 3d 67 e5 08 be ea d8 e6 bb
       -0.17571235 0.03455572 -0.1336876 -0.007044901
0000e0 38 20 28 bd b5 85 03 be 83 11 c5 bb 59 39 06 be
       -0.04104635 -0.12843974 -0.0060140505 -0.13107814
0000f0 ce d4 04 3d a8 bb 42 3d c4 3b da bd 6f 54 cc 3d
       0.03242951 0.047542244 -0.10655931 0.09977042
000100 ff 73 da 3d f4 ef f6 bc 3d 63 c3 bc b8 df 4a bd
       0.10666656 -0.030143715 -0.023851031 -0.04952976
000110 eb c6 4b 3d 45 a2 0f 3d c2 e1 11 be 6e 2d 7e bd
       0.04975025 0.03506686 -0.14246276 -0.062055044
000120 d0 d1 5c bd a8 79 e9 3c 3e 16 3d bd 6c 73 b5 bd
       -0.05391103 0.028500393 -0.04616379 -0.088599056
000130 e9 c6 12 3d da e9 45 bc ef a6 da bc 3d 93 08 bd
       0.035834227 -0.01207968 -0.026690928 -0.033343542
000140 b8 8b 6a bc a8 ba 52 bc 11 64 37 3d 9c c4 e7 3d
       -0.014315538 -0.012861885 0.044773165 0.11316797
000150 c3 be af 3c 12 38 a7 bd a3 9e 7f bd 0d bc 3b bd
       0.021453267 -0.081649914 -0.062407147 -0.045833636
000160 b7 54 ff bd 6f 88 56 bd 73 8f 97 38 eb 17 1d bd
       -0.1246733 -0.052376207 7.2269606e-05 -0.038352888
000170 11 d7 03 bd 52 61 4b bd 1d 25 59 3d 53 ce 81 bd
       -0.032187525 -0.04965336 0.05301391 -0.06338181
000180 df 3d db bc de 90 cf bc ff 21 c6 3d d8 88 27 3e
       -0.0267629 -0.025337633 0.09674453 0.16360795
000190 8b 45 49 3d e4 c6 74 bd 2b a7 89 bd ff db 66 bc
       0.049138587 -0.05975999 -0.06721338 -0.014090537
0001a0 b8 15 bd bc 01 7a 1c 3c 38 d8 12 3d 29 c5 2b 3d
       -0.023081645 0.009550572 0.035850734 0.041936073
0001b0 f8 50 11 3c bd 6f a7 39 42 ed 5b 3c 21 08 ac 3c
       0.008869402 0.00031935974 0.013423266 0.02099997
0001c0 67 43 85 3d 0d 40 44 bd 2c 87 64 bd fd af 18 be
       0.065069966 -0.047912646 -0.055792972 -0.14910884
0001d0 f9 97 ed bd dd d2 20 be e2 bb 13 bc ef ca 20 3c
       -0.11601252 -0.15705438 -0.009016963 0.009814008
0001e0 8a dd 4f 3d 40 3f 29 be 42 5d 02 be 83 61 05 be
       0.050748385 -0.16528034 -0.12730888 -0.13025479
0001f0 6b d1 3c 3d 4d d2 3f bd 18 41 e3 bc fd 87 cd bd
       0.046098154 -0.046831418 -0.027741 -0.10035703
